model3_params.pkl (torch, 265979 bytes, 24 tensors)

conv1.weight f4 [320, 1, 3]
0.46993986 -0.15584052 -0.08561739 0.54907393 -0.4496949 -0.0712915 -0.43229777 0.42309794
0.063708596 0.5753511 -0.5317172 -0.34767294 -0.21751006 0.56036943 -0.4306273 0.45610246
0.14611194 0.53078806 -0.06162282 0.15380943 -0.36730373 0.4179325 0.0104164425 0.15734963
0.42738962 0.5183444 -0.08181412 -0.21566482 0.30216232 -0.17751375 0.09314167 -0.10344553
-0.37353045 -0.33624694 -0.20690332 -0.26287386 0.46023133 0.12653603 -0.3161642 0.04148337
-0.1692148 -0.1655926 -0.18406326 0.3739544 0.102916226 -0.32730436 -0.405605 -0.5964871
-0.07661283 -0.06480932 -0.6562397 -0.18094885 -0.4955244 0.20216213 -0.48265064 0.24721046
-0.0768247 -0.42766482 0.3418993 -0.10345878 0.04891072 -0.36712968 -0.25109732 0.15980972
-0.32187572 0.114809364 -0.4766749 0.22841501 0.56472415 -0.55487514 -0.22183068 -0.37984174
-0.5656077 -0.04544277 0.11129462 0.42814916 0.46706763 -0.14604552 -0.07492029 0.3838444
0.29387084 -0.40841866 0.55878603 0.3331686 0.20808305 -0.47339487 0.27450675 0.3447531
-0.36727288 -0.011832189 -0.0028049182 -0.44554317 0.22187066 -0.026148941 0.52575505 0.1141548
-0.27619764 -0.2509205 0.60064083 -0.004063526 -0.10681658 -0.6722845 -0.58631754 0.006791494
-0.082201436 0.2569941 -0.49629495 -0.20594345 -0.53030044 0.32026687 0.16677782 0.13552606
0.53695667 0.0065409215 -0.14721406 0.095480144 0.3505781 -0.22373503 0.5283108 -0.023207393
0.14139013 -0.3777684 -0.2015862 0.05450752 0.22210193 0.20273703 -0.32659292 0.0039775493
-0.6204923 0.047344487 0.5334787 -0.05481272 0.24278371 -0.2593294 -0.4947704 0.38223463
0.5024265 -0.2132116 0.08367831 -0.3358248 -0.19086722 -0.34977642 0.1830663 -0.4631375
-0.35608378 -0.30775478 0.36823392 0.4625941 0.29106963 -0.38387558 -0.10018821 0.29453933
0.5803302 0.01557189 -0.2817902 0.13963065 -0.36325315 -0.59665924 -0.43263766 -0.5751585
0.45694304 -0.424826 0.13538723 0.062109753 0.12564465 -0.19149739 0.13065825 0.2814039
0.20744681 0.31708965 -0.3948536 -0.4381551 0.14738224 0.50559485 0.39546323 -0.004525199
-0.31375298 0.061671942 0.03182822 -0.2810277 0.57064074 0.11487621 0.17502952 -0.016111126
-0.05559867 -0.61120725 0.14920096 -0.49074027 0.5283537 0.21017343 -0.33983135 -0.38852346
0.36314508 -0.61158407 0.51332885 0.0074797473 -0.009146144 0.052961335 0.13590178 0.02323209
-0.20152007 -0.51256 -0.52608836 -0.13811536 0.45610926 0.055958956 0.066573896 -0.4994143
-0.5527788 -0.27461153 0.47748953 0.39785522 -0.5633204 -0.048314895 -0.30899876 0.41041735
-0.22960664 -0.5883884 0.04832055 0.008429215 0.49120775 -0.42263877 0.5669367 0.38092673
-0.40915552 -0.48696715 -0.035756994 -0.052937116 0.05601009 -0.6275682 -0.07924562 0.3865468
-0.1767876 -0.41141623 -0.33246863 0.25559676 0.012260932 -0.50031835 -0.08788262 -0.060614984
0.31125873 0.37191495 -0.030522514 0.28207412 0.18951981 0.51548356 -0.31070092 -0.40534174
0.5338014 -0.5388385 0.53786886 0.31273118 0.43640313 -0.34747434 -0.5226133 -0.316906
00000000: f59b f03e a894 1fbe 2c58 afbd 1c90 0c3f
00000010: 693e e6be 4701 92bd 2256 ddbe 4ba0 d83e
00000020: a779 823d 364a 133f 9e1e 08bf 3002 b2be
00000030: f5ba 5ebe 5f74 0f3f 2e7b dcbe 4386 e93e
00000040: 5e9e 153e bae1 073f 3668 7cbd 3880 1d3e
00000050: 3c0f bcbe 40fb d53e baa9 2a3c 4320 213e
00000060: d0d2 da3e 38b2 043f 298e a7bd 3dd7 5cbe
00000070: 05b5 9a3e 2ac6 35be 0fc1 be3d 40db d3bd
00000080: 623f bfbe 8f28 acbe 77de 53be 6797 86be
00000090: 71a3 eb3e a992 013e 46e0 a1be 77ea 293d
000000a0: a546 2dbe 1b91 29be 147b 3cbe f376 bf3e
000000b0: bec5 d23d 7094 a7be 75ab cfbe 61b3 18bf
000000c0: 30e7 9cbd c0ba 84bd 53ff 27bf a84a 39be
000000d0: 60b5 fdbe 9703 4f3e fc1d f7be bd24 7d3e
000000e0: 4556 9dbd e2f6 dabe 6d0d af3e 32e2 d3bd
000000f0: 9b56 483d 6cf8 bbbe d48f 80be 29a5 233e
00000100: e5cc a4be 2c21 eb3d bc0e f4be a0e5 693e
00000110: c391 103f 4c0c 0ebf 9527 63be 9e7a c2be
00000120: abcb 10bf 3322 3abd 6fee e33d 5e36 db3e
00000130: 7d23 ef3e f58c 15be cf6f 99bd 4187 c43e
00000140: 3d76 963e 401c d1be 9a0c 0f3f 1395 aa3e
00000150: b913 553e d060 f2be 268c 8c3e 7a83 b03e
00000160: 310b bcbe ccdb 41bc b8d2 37bb 3c1e e4be
00000170: 1032 633e 4e36 d6bc e297 063f fec9 e93d
00000180: c769 8dbe a778 80be 99c3 193f 5427 85bb
00000190: a7c2 dabd d61a 2cbf e818 16bf 2e8b de3b
000001a0: 3a59 a8bd bb94 833e 5f1a febe d7e2 52be
000001b0: c5c1 07bf 05fa a33e cec7 2a3e 58c7 0a3e
000001c0: fe75 093f 3a55 d63b 48bf 16be 188b c33d
000001d0: f97e b33e cc1a 65be 603f 073f 6e1d bebc
000001e0: 93c8 103e dc6a c1be 9d6c 4ebe 4743 5f3d
000001f0: b06e 633e 4c9a 4f3e 3037 a7be 1a56 823b
00000200: 95d8 1ebf 4bec 413d 0f92 083f 4d83 60bd
00000210: 4b9c 783e d3c6 84be 8c52 fdbe 42b4 c33e
00000220: 069f 003f 2454 5abe 895f ab3d 3af1 abbe
00000230: b272 43be e515 b3be bb75 3b3e 5c20 edbe
00000240: 9d50 b6be 0992 9dbe 2889 bc3e 22d9 ec3e
00000250: 1407 953e 578b c4be 7a2f cdbd dccd 963e
00000260: 8590 143f 3e21 7f3c ce46 90be 56fb 0e3e
00000270: 51fc b9be a9be 18bf af82 ddbe 963d 13bf
00000280: 70f4 e93e cb82 d9be f3a2 0a3e cc66 7e3d
00000290: fea8 003e e417 44be 47cb 053e 2c14 903e
000002a0: f06c 543e 9359 a23e 402a cabe de55 e0be
000002b0: 5feb 163e aa6e 013f 287a ca3e 1f48 94bb
000002c0: 3ba4 a0be b89b 7c3d 4f5e 023d dde2 8fbe
000002d0: 8315 123f 3844 eb3d f03a 333e 7bfb 83bc
000002e0: 6ebb 63bd 1478 1cbf 23c8 183e 4f42 fbbe
000002f0: 3042 073f b437 573e 60fe adbe 8cec c6be
00000300: 27ee b93e c690 1cbf 8569 033f ab18 f53b
00000310: b5d9 15bc fced 583d d629 0b3e 3951 be3c
00000320: 475b 4ebe 2237 03bf baad 06bf 1d6e 0dbe
00000330: 2787 e93e 3835 653d e557 883d 3bb3 ffbe
00000340: e982 0dbf e299 8cbe 8279 f43e aeb3 cb3e
00000350: c435 10bf d7e5 45bd 1635 9ebe 3922 d23e
00000360: 011e 6bbe 9fa0 16bf c5eb 453d b11a 0a3c
00000370: 957f fb3e 1c64 d8be c322 113f d408 c33e
00000380: d57c d1be c253 f9be ed75 12bd 97d4 58bd
00000390: d66a 653d 4fa8 20bf 874b a2bd 76e9 c53e
000003a0: cf07 35be 26a5 d2be 5439 aabe 94dd 823e
000003b0: 13e2 483c dd14 00bf cefb b3bd 6b47 78bd
000003c0: 4e5d 9f3e a36b be3e 5a0a fabc 056c 903e
000003d0: 7b11 423e bbf6 033f 3114 9fbe f488 cfbe
000003e0: 35a7 083f 52f1 09bf c6b1 093f 4d1e a03e
000003f0: 3b70 df3e 28e8 b1be fcc9 05bf 8141 a2be

conv1.bias f4 [320]
-0.059844937 -0.12752202 0.32957724 -0.14514293 -0.27386832 0.24038747 0.52729374 -0.056370117
-0.004732301 0.46970257 0.38027894 -0.57846856 -0.30635154 -0.14368314 0.23738037 -0.049267277
-0.37800717 0.39023906 0.036969207 0.3226642 -0.58743423 0.41704828 0.2374468 -0.11164358
-0.3161241 -0.30394068 0.19085442 -0.20667557 0.48275805 0.028071 0.57414603 0.4625502
0.4614715 0.41582677 -0.471908 -0.02562972 -0.11889291 0.41743657 -0.2668039 -0.508763
0.3828518 0.14076611 -0.46784016 0.15076359 0.38897228 -0.18806334 0.2930222 -0.13791753
0.42889446 0.33347198 -0.16458504 0.15021703 -0.2489016 -0.6426432 0.0032308057 -0.19740859
0.619566 -0.5684671 0.36529782 0.59765923 0.013145103 0.49574187 -0.24220741 0.040000454
0.44440562 0.18621463 -0.48346403 -0.55303 -0.37396488 0.48624125 -0.65322274 0.35718232
-0.45042428 -0.21093987 0.46379483 0.37241963 0.2441478 0.428692 0.046642825 0.4944422
0.58882654 -0.44789734 -0.3661918 0.12750319 -0.04299518 -0.2567204 -0.031847358 0.36852667
-0.050471917 0.013883326 0.38600126 -0.39626616 -0.42380613 0.17273177 0.6259112 -0.24574693
-0.3522939 -0.023569422 0.32641715 0.51299 -0.09688782 -0.5639777 0.19318217 0.10480752
0.3236456 -0.33991185 0.2549761 0.51597244 -0.26198733 -0.33192542 0.45835572 0.34273586
-0.009551294 -0.49472293 0.07444859 -0.24969243 0.43096015 -0.09124241 -0.0266042 -0.52926093
0.111575104 0.41255772 -0.045379326 -0.45526707 0.26116154 0.34137225 0.48486498 -0.38860294
-0.5945683 0.18585496 0.010328325 -0.09696308 -0.16382553 0.0030838824 0.47913387 -0.2495748
-0.073635645 -0.2655046 -0.49009416 0.0964274 0.24141844 -0.23912874 -0.030077556 -0.25309592
-0.12446224 0.48346278 -0.04612 -0.21690355 -0.27182356 -0.36900732 0.4516198 0.5503639
0.016630866 -0.021791423 -0.39647105 0.14832757 -0.4817315 -0.23945764 -0.31649742 -0.25572273
-0.15987264 0.29943618 0.50768465 0.32550687 0.21971582 -0.31580892 0.56576484 0.18649681
-0.2840729 0.055489477 -0.020485241 0.04678981 0.15391278 -0.069717936 -0.02725155 -0.22046004
-0.16958001 -0.25808266 0.5348717 0.3168934 -0.41023654 -0.56135404 0.12250208 -0.04401083
-0.27549255 0.1298992 0.5517817 0.43463588 0.4893067 -0.5204903 -0.24086873 -0.33667904
0.42076406 -0.12642534 -0.4043569 -0.020108018 -0.46853113 -0.021365998 0.048703954 -0.018678943
-0.1886351 0.17973152 0.5527684 0.21655045 0.35653964 -0.18412137 -0.3772497 -0.3595546
0.53552854 -0.025294881 -0.36441195 0.16777079 0.19659472 -0.016648198 0.33796063 0.23826814
0.6095598 0.48579514 0.53578794 0.001060089 -0.049358916 0.56116915 0.42081648 -0.5435906
-0.5027137 -0.02558695 0.15909922 0.28893661 0.2894331 0.18192637 0.26483473 -0.2710557
0.34962967 0.67678255 0.34068826 -0.326289 -0.19837582 0.37940657 -0.527628 0.22114538
0.031804375 0.2916335 -0.2709556 -0.41932985 0.5249172 0.24996985 0.36742592 -0.18436249
0.1644548 -0.5194779 0.31622574 0.080517404 -0.109967746 -0.017249089 -0.2793823 -0.37406412
00000000: f71f 75bd 2295 02be 59be a83e 59a0 14be
00000010: 7838 8cbe 2228 763e b9fc 063f 5ae4 66bd
00000020: 6b11 9bbb db7c f03e ecb3 c23e 8416 14bf
00000030: 1cda 9cbe ac21 13be d713 733e 7ccc 49bd
00000040: 288a c1be 6acd c73e 066d 173d 3e34 a53e
00000050: 1762 16bf 5a87 d53e 4125 733e 64a5 e4bd
00000060: 05db a1be 1d9e 9bbe 576f 433e c3a2 53be
00000070: 102c f73e 27f5 e53c 3cfb 123f 61d3 ec3e
00000080: fe45 ec3e 3fe7 d43e ed9d f1be 6bf5 d1bc
00000090: 207e f3bd 3fba d53e 859a 88be 4b3e 02bf
000000a0: 2705 c43e fe24 103e bf88 efbe c561 1a3e
000000b0: 6027 c73e ad93 40be 0107 963e 413a 0dbe
000000c0: 0e98 db3e d7bc aa3e fb88 28be 7ed2 193e
000000d0: 10e0 7ebe 4484 24bf edbb 533b 7a25 4abe
000000e0: e19b 1e3f 0f87 11bf 5108 bb3e 3200 193f
000000f0: 8f5e 573c e1d1 fd3e 3805 78be 84d7 233d
00000100: 2289 e33e 0caf 3e3e 9988 f7be 6093 0dbf
00000110: 5378 bfbe 9df4 f83e 9b39 27bf 9ae0 b63e
00000120: 039e e6be 9f00 58be 8476 ed3e c9ad be3e
00000130: e201 7a3e 857d db3e 8c0c 3f3d 8727 fd3e
00000140: 56bd 163f cd52 e5be 7e7d bbbe 3290 023e
00000150: b71b 30bd db70 83be 6072 02bd 87af bc3e
00000160: a4bb 4ebd e476 633c f5a1 c53e 66e3 cabe
00000170: 1efd d8be 99e0 303e b73b 203f 15a5 7bbe
00000180: de5f b4be a914 c1bc 2620 a73e 5053 033f
00000190: 1f6d c6bd d860 10bf 8cd1 453e 53a5 d63d
000001a0: e0b4 a53e ed08 aebe 3a8c 823e c516 043f
000001b0: 3423 86be 21f2 a9be 9aad ea3e 137b af3e
000001c0: 087d 1cbc 534c fdbe 8178 983d 5faf 7fbe
000001d0: cfa6 dc3e 4ddd babd 0df1 d9bc a57d 07bf
000001e0: 7d81 e43d c43a d33e acdf 39bd c418 e9be
000001f0: f7b6 853e 58c8 ae3e 3940 f83e f7f6 c6be
00000200: a135 18bf c350 3e3e 2338 293c 9494 c6bd
00000210: e1c1 27be f61a 4a3b 0951 f53e 8990 7fbe
00000220: 49ce 96bd 38f0 87be 9fed fabe bb7b c53d
00000230: 6536 773e 2ade 74be 3565 f6bc ca95 81be
00000240: 0fe6 febd 6f88 f73e 53e8 3cbd f71b 5ebe
00000250: 752c 8bbe 87ee bcbe b63a e73e a6e4 0c3f
00000260: 743d 883c ed83 b2bc 41fe cabe 2fe3 173e
00000270: 83a5 f6be 6234 75be f30b a2be 17ee 82be
00000280: a7b5 23be b34f 993e 9ff7 013f d6a8 a63e
00000290: 2ffd 603e b5b1 a1be f7d5 103f 05f9 3e3e
000002a0: 0172 91be ef48 633d aad0 a7bc aca6 3f3d
000002b0: 509b 1d3e 47c8 8ebd a53e dfbc 47c0 61be
000002c0: 62a6 2dbe 6923 84be 5aed 083f da3f a23e
000002d0: 860a d2be e6b4 0fbf 5fe2 fa3d b344 34bd
000002e0: 5c0d 8dbe 4c04 053e 9141 0d3f 9888 de3e
000002f0: 6886 fa3e da3e 05bf 4ba6 76be 3261 acbe
00000300: 636e d73e a575 01be de07 cfbe 92b9 a4bc
00000310: 50e3 efbe bf07 afbc cc7d 473d 9504 99bc
00000320: 8f29 41be 8a0b 383e 3b82 0d3f 67bf 5d3e
00000330: 5d8c b63e 508a 3cbe df26 c1be 8a17 b8be
00000340: 6618 093f 3637 cfbc 3494 babe 1bcc 2b3e
00000350: 2050 493e cd61 88bc 2d09 ad3e 90fc 733e
00000360: 1c0c 1c3f 24ba f83e 6629 093f aff2 8a3a
00000370: 932c 4abd c8a8 0f3f 4275 d73e c128 0bbf
00000380: d8b1 00bf b99b d1bc e8ea 223e 80ef 933e
00000390: 9330 943e e84a 3a3e 6b98 873e d0c7 8abe
000003a0: a902 b33e 9f41 2d3f b16e ae3e 5a0f a7be
000003b0: 0823 4bbe 9441 c23e a112 07bf ef73 623e
000003c0: 4e45 023d fc50 953e b1ba 8abe 67b2 d6be
000003d0: f960 063f 19f8 7f3e 401f bc3e 85c9 3cbe
000003e0: d766 283e 81fc 04bf 57e8 a13e 4fe6 a43d
000003f0: c536 e1bd f64d 8dbc 320b 8fbe 5585 bfbe

conv2.weight f4 [16, 320, 1]
0.013860498 -0.0020109883 0.015817434 0.0008369934 -0.0071618105 0.051285613 -0.035284065 -0.010762144
0.02211789 0.009645729 -0.034135383 -0.026291462 0.027759118 0.034300234 0.028985973 0.026385535
0.04099252 0.023397712 -0.033801936 0.020433279 0.03646111 -0.046765346 -0.016164998 0.013832193
0.013878254 -0.023026133 -0.017615274 0.05335539 0.036202557 -0.0043483195 0.009869705 0.04932818
-0.038262997 -0.047945265 0.02990634 0.023209872 -0.06265962 -0.03320066 0.028366195 -0.0057886653
-0.04752677 -0.04973877 0.03022361 -0.0262267 0.001724806 0.034284055 0.02449289 -0.028919835
0.007943225 -0.004892341 -0.039278932 -0.03720492 0.035498336 0.03501403 0.0027049566 -0.04776641
-0.027199293 0.010885711 -0.030203126 -0.06791603 0.045733184 -0.06516754 -0.026998939 -0.044098422
0.037013717 -0.007995901 -0.02089542 0.03629284 0.0442097 -0.061182827 -0.021024896 0.029527526
-0.05946575 0.018881636 -0.074070774 0.04316423 -0.041996155 -0.06303798 -0.04237678 -0.049054712
-0.05655599 -0.029009117 0.04417931 0.02501708 0.044844832 -0.04367973 -0.05789608 -0.016246632
0.0043969816 -0.0532419 -0.020909289 0.007688613 -0.036708314 0.023089776 0.026521638 0.049634673
-0.03381966 0.027335986 0.018587517 -0.025915168 0.022042746 0.052232083 0.014449246 -0.034325216
-0.06678603 -0.0007623559 -0.055622578 -0.004660961 0.048719663 -0.003424697 0.009071661 -0.06318491
-0.005313007 0.004007315 0.035610758 0.041532353 -0.049343813 -0.03732583 -0.0029605236 -0.034406867
0.028215166 0.029142817 0.00821742 -0.045969833 -0.05870235 0.0039408137 -0.051144324 -0.037035882
0.0036804345 -0.05282813 -0.069370314 -0.019698903 0.030040067 -0.06863752 -0.047387328 0.019251652
0.0031036304 0.023433447 -0.052234497 -0.02867188 -0.049827956 0.039906032 0.0013743236 -0.057908256
-0.028196786 -0.003456759 -0.011633058 -0.05855598 0.0147345085 0.028980525 -0.0077367052 -0.02646694
-0.066778876 -0.025338441 0.05273822 0.009430613 0.04826961 -0.0104540065 0.04346753 0.042030092
0.00628942 -0.018298687 -0.00782723 0.016913949 -0.00027457526 0.027802996 0.026176844 -0.004351869
0.037872795 0.029375095 -0.049118053 -0.026946183 -0.024071315 0.010855863 0.05239677 -0.027322998
0.043514315 0.027171668 0.025101671 -0.035731915 -0.039397344 -0.023745647 0.006595877 0.03429774
0.013353927 -0.056715757 -0.02449043 0.0036042775 0.00032231526 0.00892783 0.040596344 0.026296815
0.004567503 0.04113966 0.005645542 0.028736029 0.022115381 0.04985931 0.026776835 -0.03947584
-0.026255313 0.0054119877 -0.0046169586 -0.046057396 0.0004093182 -0.008266279 0.053875312 0.006426387
-0.045822605 -0.025268218 -0.02570637 0.02452471 0.015623709 -0.030272622 0.030109907 0.03385944
-0.012727093 -0.035198487 -0.0016443735 -0.024945734 -0.012984297 0.042768627 0.021932147 -0.04372471
0.031760294 -0.055300515 -0.04178924 0.038790815 -0.029033598 -0.04808765 -0.03793698 0.018355012
0.0022100587 0.043032706 -0.058062285 0.036748186 0.013851012 -0.027334651 -0.07037916 0.0180757
0.012389755 -0.023574157 0.023774132 0.021100761 -0.044341486 -0.0046081897 0.03773993 0.0033925953
-0.027610542 0.02120905 -0.02275315 0.005920029 0.00089878787 0.033557255 -0.05015235 -0.043493055
00000000: 2417 633c c9ca 03bb 9093 813c ad69 5b3a
00000010: 9fad eabb dd10 523d 0686 10bd b453 30bc
00000020: 9430 b53c 1f09 1e3c 8bd1 0bbd 3161 d7bc
00000030: 1767 e33c 677e 0c3d fe73 ed3c 7a26 d83c
00000040: c6e7 273d 8fac bf3c e673 0abd b163 a73c
00000050: 3f58 153d 058d 3fbd 756c 84bc 6ca0 623c
00000060: 9e61 633c 4da1 bcbc e84d 90bc 2e8b 5a3d
00000070: 2249 143d 597c 8ebb 8bb4 213c 580c 4a3d
00000080: a9b9 1cbd 4162 44bd 24fe f43c a122 be3c
00000090: b053 80bd 6afd 07bd 3960 e83c d8ae bdbb
000000a0: 6eab 42bd e1ba 4bbd 8197 f73c 60d9 d6bc
000000b0: e312 e23a 706d 0c3d 50a5 c83c 4ae9 ecbc
000000c0: 4d24 023c ee4f a0bb f2e2 20bd 3064 18bd
000000d0: b466 113d df6a 0f3d a445 313b b6a6 43bd
000000e0: 0dd1 debc fb59 323c 8c6c f7bc 8f17 8bbd
000000f0: b852 3b3d 8f76 85bd e12c ddbc 8ca0 34bd
00000100: b29b 173d 3d01 03bc df2c abbc cda7 143d
00000110: 3b15 353d d89a 7abd 673c acbc b6e3 f13c
00000120: 5c92 73bd a9ad 9a3c 6bb2 97bd facc 303d
00000130: 2904 2cbd 0e1a 81bd 4693 2dbd 98ed 48bd
00000140: 41a7 67bd 87a4 edbc 5df5 343d 9ff0 cc3c
00000150: 37af 373d 84e9 32bd 7124 6dbd a817 85bc
00000160: 8e14 903b 2e14 5abd f549 abbc c3f0 fb3b
00000170: 755b 16bd c526 bd3c e843 d93c ba4d 4b3d
00000180: 7c86 0abd b8ef df3c d944 983c 0c4c d4bc
00000190: fd92 b43c 4ff1 553d 88bc 6c3c 9998 0cbd
000001a0: 1dc7 88bd d7d8 47ba 80d4 63bd faba 98bb
000001b0: 458e 473d e270 60bb 4ea1 143c 1767 81bd
000001c0: bc18 aebb cb4f 833b 96dc 113d d41d 2a3d
000001d0: bd1c 4abd f8e2 18bd 5805 42bb 37ee 0cbd
000001e0: 7e23 e73c ebbc ee3c 5ca2 063c dd4a 3cbd
000001f0: e071 70bd f121 813b b67c 51bd f0b2 17bd
00000200: 7233 713b 4f62 58bd 0612 8ebd 985f a1bc
00000210: 9616 f63c d491 8cbd 3719 42bd a4b5 9d3c
00000220: 4766 4b3b 80f7 bf3c d7f3 55bd 4ae1 eabc
00000230: 6618 4cbd 8274 233d a622 b43a 3531 6dbd
00000240: f2fc e6bc cb8a 62bb 9598 3ebc 65d8 6fbd
00000250: 0269 713c 9168 ed3c 3084 fdbb 32d1 d8bc
00000260: 5dc3 88bd 9092 cfbc 0804 583d dc82 1a3c
00000270: 5bb6 453d 4847 2bbc 020b 323d bf27 2c3d
00000280: 7b17 ce3b 21e7 95bc c83d 00bc 1f8f 8a3c
00000290: def4 8fb9 1cc3 e33c d270 d63c 209a 8ebb
000002a0: 8120 1b3d 0aa4 f03c 0330 49bd 3ebe dcbc
000002b0: 3531 c5bc cadc 313c ff9d 563d 7bd4 dfbc
000002c0: 113c 323d 1e97 de3c 05a2 cd3c a15b 12bd
000002d0: 1c5f 21bd 3b86 c2bc 3a22 d83b c97b 0c3d
000002e0: 6eca 5a3c c84e 68bd 27a0 c8bc be35 6c3b
000002f0: 6cfc a839 0846 123c 5a48 263d 6b6c d73c
00000300: feaa 953b 0f82 283d 3dfe b83b d267 eb3c
00000310: 512b b53c 4739 4c3d 185b db3c 6bb1 21bd
00000320: 6215 d7bc 0b57 b13b db49 97bb aea6 3cbd
00000330: c299 d639 496f 07bc 5cac 5c3d 7194 d23b
00000340: 7cb0 3bbd 4bff cebc 2a96 d2bc 0be8 c83c
00000350: 96fa 7f3c 4afe f7bc 0da9 f63c 32b0 0a3d
00000360: 4c85 50bc 4a2c 10bd 0588 d7ba ff5a ccbc
00000370: 17bc 54bc 282e 2f3d 0cab b33c ae18 33bd
00000380: 1517 023d cb82 62bd 322b 2bbd 1ee3 1e3d
00000390: ded7 edbc 8ef7 44bd cf63 1bbd 405d 963c
000003a0: a2d6 103b 1043 303d b8d2 6dbd 4485 163d
000003b0: 5bef 623c ebec dfbc f322 90bd 7e13 943c
000003c0: 66fe 4a3c 971e c1bc f8c1 c23c 81db ac3c
000003d0: 6b9f 35bd 4c00 97bb 2f95 1a3d 4e56 5e3b
000003e0: 812f e2bc 9abe ad3c d064 babc cdfc c13b
000003f0: a29c 6b3a 5573 093d 8d6c 4dbd c625 32bd

conv2.bias f4 [16]
-0.04157814 0.015182522 0.04517735 -0.03798999 0.010284122 0.03716352 0.041011244 -0.027270501
-0.059853215 -0.020659551 0.049781483 -0.03725071 0.024538526 0.034183145 0.021116918 -0.029626368
00000000: d74d 2abd 1dc0 783c e30b 393d 649b 1bbd
00000010: bc7e 283c c638 183d 68fb 273d 6366 dfbc
00000020: a528 75bd 383e a9bc abe7 4b3d 3394 18bd
00000030: 0505 c93c a003 0c3d 63fd ac3c ffb2 f2bc

conv3.weight f4 [64, 16, 1]
-0.18082328 0.018128527 0.1297601 0.13084587 0.20730464 -0.12908882 -0.08691055 -0.17531739
-0.12161677 -0.21814981 -0.18189558 -0.07169061 -0.0024871766 0.003680519 0.12926538 -0.19427322
-0.053769488 -0.22740807 -0.14648682 -0.23275003 -0.023873156 0.19194958 0.1659589 -0.1108435
0.032304823 0.17933783 0.2308304 -0.07394409 -0.008426597 -0.08308167 -0.13982686 -0.04266975
0.083053835 0.10718529 -0.15668295 -0.14401706 0.11971309 0.15900531 -0.11789083 0.18123114
-0.0022084173 -0.20551558 -0.097557954 -0.07480947 0.1620062 -0.15547788 0.22197045 0.14984657
-0.08586368 -0.14795995 -0.16604173 0.13903669 -0.221339 0.1149096 0.024249595 -0.24907638
0.01419856 0.043148622 0.1887771 0.08643446 0.1314132 0.14659108 -0.09508012 0.16513517
-0.12715125 0.22544977 0.086566634 -0.046308845 -0.24197073 -0.024907818 -0.13579212 0.23062001
-0.17375648 0.13772479 0.14502813 -0.17261814 -0.07279062 -0.08241523 0.041511286 -0.021847725
-0.2342824 0.106258005 -0.12596512 -0.020391041 -0.13179334 -0.00055135525 -0.055874225 0.21978879
-0.22584946 -0.22872002 0.13064763 -0.22995926 0.09322183 -0.0061043263 -0.18857501 0.13040748
-0.23672086 -0.23525259 0.115909964 0.19432025 -0.0997889 0.019954434 0.14605114 0.15481715
0.13673317 -0.007508958 0.017887319 0.15054874 -0.25032875 0.01896711 -0.22320619 -0.2132667
-0.16485097 0.08145207 0.23319171 0.118509464 0.22623472 0.013976428 0.014987641 -0.21988228
0.09357859 0.076032095 -0.22671336 -0.16168949 -0.037027884 0.1339886 -0.15964197 0.073689416
-0.028659828 0.00028587485 -0.026837798 -0.17934705 0.053970024 0.13996296 0.23812433 0.13333154
0.035519462 0.24789475 -0.040379945 0.12041106 0.28576335 0.16681044 0.13510056 0.08494448
-0.22142664 -0.20608142 0.2188827 -0.02132489 0.07823676 0.24591014 0.18502307 0.040622342
-0.15910271 0.23444515 -0.03365365 -0.1362007 0.2151188 0.21311197 0.07881301 0.0319624
0.033590376 -0.20295952 -0.09482644 -0.0971236 -0.0969888 0.0778519 0.087580934 0.12708138
0.0859928 0.032903552 0.2576545 0.22593525 -0.09952653 -0.19338813 0.23858738 -0.05603124
0.24960098 -0.014020047 0.1614961 -0.05403316 0.15652065 -0.05085504 -0.06300793 0.1522281
-0.12563197 -0.06860494 -0.051323876 -0.12111291 -0.04494962 0.26506335 -0.11821602 -0.12253044
-0.23793642 0.19447888 -0.14250927 0.09836925 0.1505922 0.14540787 0.022136303 -0.19694367
-0.22592852 -0.10441122 -0.22324891 -0.092781596 -0.06684979 -0.06155815 0.1865558 -0.095719725
0.034417793 -0.16331288 0.01751822 -0.09337824 0.17601229 0.28067884 0.13612626 -0.21871895
0.11906658 0.18002404 -0.027815253 -0.205523 -0.003509808 0.11094692 -0.16806613 0.116383895
-0.09259522 -0.20954259 -0.20007528 -0.027619865 0.11838688 0.1888299 -0.21926466 0.2513209
0.003017258 -0.048220262 0.08322174 0.056544468 -0.17229712 -0.13339266 -0.2547951 0.20947066
-0.16998792 -0.15119722 0.23229256 -0.04089629 -0.041196868 -0.18897744 -0.16044259 0.24298385
-0.11175783 -0.02883553 0.12648629 0.03883349 -0.061347682 -0.23651625 -0.176981 -0.0031650984
00000000: bd29 39be 4782 943c d5df 043e 76fc 053e
00000010: ab47 543e dc2f 04be 29fe b1bd 6786 33be
00000020: 3712 f9bd aa62 5fbe d642 3abe 87d2 92bd
00000030: e6ff 22bb dd34 713b 255e 043e 8fef 46be
00000040: 653d 5cbd a9dd 68be a400 16be 0656 6ebe
00000050: a391 c3bc 6e8e 443e 21f1 293e eb01 e3bd
00000060: 1052 043d 56a4 373e ce5e 6c3e 0070 97bd
00000070: b60f 0abc b926 aabd c62e 0fbe 7ac6 2ebd
00000080: 2118 aa3d f683 db3d 7f71 20be 3579 13be
00000090: 232c f53d 4ad2 223e bf70 f1bd a894 393e
000000a0: 18bb 10bb ad72 52be 77cc c7bd b535 99bd
000000b0: f4e4 253e 9835 1fbe 394c 633e 6171 193e
000000c0: 4cd9 afbd d082 17be d806 2abe a25f 0e3e
000000d0: b1a6 62be b955 eb3d 16a7 c63c e10d 7fbe
000000e0: 14a1 683c 9cbc 303d c94e 413e 8d04 b13d
000000f0: 2f91 063e f91b 163e 5eb9 c2bd 3219 293e
00000100: f033 02be 4edc 663e d949 b13d 58ae 3dbd
00000110: 2dc7 77be 7b0b ccbc 170d 0bbe a727 6c3e
00000120: 38ed 31be ba07 0d3e 4182 143e cfc2 30be
00000130: 4013 95bd 51c9 a8bd bd07 2a3d 00fa b2bc
00000140: bae7 6fbe cc9d d93d 00fd 00be 1d0b a7bc
00000150: d5f4 06be d388 10ba 5fdc 64bd 5010 613e
00000160: 1545 67be 9535 6abe 7ec8 053e 717a 6bbe
00000170: 16eb be3d cd06 c8bb cf19 41be 8a89 053e
00000180: f466 72be 0ee6 70be 3462 ed3d e3fb 463e
00000190: 1f5e ccbd 7b77 a33c 6e8e 153e 6388 1e3e
000001a0: c803 0c3e b50d f6bb 6d88 923c 7329 1a3e
000001b0: 172b 80be ea60 9b3c 2a90 64be 9662 5abe
000001c0: b1ce 28be 58d0 a63d cfc9 6e3e 17b5 f23d
000001d0: 13aa 673e 63fd 643c b98e 753c d228 61be
000001e0: 22a6 bf3d b7b6 9b3d 8c27 68be ee91 25be
000001f0: 8daa 17bd 4f34 093e 2f79 23be 7aea 963d
00000200: 04c8 eabc 79e1 9539 f1da dbbc c1a6 37be
00000210: ac0f 5d3d 7352 0f3e ddd6 733e 1088 083e
00000220: db7c 113d 1fd8 7d3e 7165 25bd 139a f63d
00000230: 934f 923e 5bd0 2a3e cd57 0a3e 5ff7 ad3d
00000240: aabd 62be 0207 53be c922 603e 89b1 aebc
00000250: 983a a03d decf 7b3e b076 3d3e 9d63 263d
00000260: d2eb 22be 6412 703e 69d8 09bd 3278 0bbe
00000270: 1a48 5c3e 063a 5a3e b768 a13d 01eb 023d
00000280: 1096 093d 9fd4 4fbe 5d34 c2bd bde8 c6bd
00000290: 10a2 c6bd d170 9f3d a25d b33d 9f21 023e
000002a0: fe1c b03d e0c5 063d 4aeb 833e 925b 673e
000002b0: 91d4 cbbd 8a07 46be 4050 743e 0381 65bd
000002c0: 6697 7f3e 57b4 65bc 3c5f 253e e051 5dbd
000002d0: f346 203e 604d 50bd 4d0a 81bd afe1 1b3e
000002e0: aba5 00be bf80 8cbd fc38 52bd 0c0a f8bd
000002f0: 181d 38bd 62b6 873e 3e1b f2bd 3df1 fabd
00000300: 9ba5 73be 7925 473e f3ed 11be d175 c93d
00000310: d734 1a3e cde5 143e 3157 b53c 9aab 49be
00000320: ce59 67be 8dd5 d5bd 5d9b 64be 4704 bebd
00000330: 8be8 88bd 6624 7cbd 7c08 3f3e b408 c4bd
00000340: acf9 0c3d 7e3b 27be 5f82 8f3c 173d bfbd
00000350: 913c 343e 23b5 8f3e af64 0b3e dcf7 5fbe
00000360: 2ed9 f33d 3958 383e d0dc e3bc 9f74 52be
00000370: cf04 66bb 2438 e33d 8719 2cbe ae5a ee3d
00000380: 90a2 bdbd 5592 56be 89e0 4cbe 0e43 e2bc
00000390: d274 f23d a05c 413e ea86 60be 22ad 803e
000003a0: 30bd 453b 9c82 45bd 2970 aa3d 2c9b 673d
000003b0: a86e 30be 1698 08be 8174 82be 7a7f 563e
000003c0: 5011 2ebe 72d3 1abe 1ade 6d3e de82 27bd
000003d0: 0cbe 28bd 4d83 41be 104b 24be c2d0 783e
000003e0: 4ae1 e4bd 7d38 ecbc 9f85 013e de0f 1f3d
000003f0: b547 7bbd 5131 72be 823a 35be 8a6d 4fbb

conv3.bias f4 [64]
-0.05108605 0.03675508 -0.09061794 0.073841475 -0.19432078 0.22407743 -0.037767608 0.026253194
0.019871077 -0.101264 0.12725069 0.009909946 -0.19194333 0.0022555606 0.19418095 0.05823635
-0.15287368 -0.108709976 -0.18538103 0.124389805 0.093627736 0.04530377 0.041650828 0.24061
0.056567233 0.08426561 0.25608078 0.14256537 0.020954972 0.1256275 -0.0025176352 0.15921816
-0.14773089 -0.17221797 -0.045811143 0.087905236 -0.072218545 -0.238323 0.12511912 -0.08153082
0.1360796 -0.060119227 0.20265743 -0.11323726 -0.06496505 -0.16481096 0.23694398 0.12557465
-0.21024139 0.16067986 0.028084887 0.20773138 -0.1052693 -0.09295844 -0.0066080526 0.12556253
-0.021379821 -0.10941463 -0.14865345 0.1451118 0.12969314 0.21470883 -0.18944542 0.07149986
00000000: 9b3f 51bd 7f8c 163d e695 b9bd 333a 973d
00000010: 07fc 46be 8e74 653e 35b2 1abd f010 d73c
00000020: abc8 a23c 8063 cfbd 014e 023e 535d 223c
00000030: cb8c 44be 07d2 133b 5fd7 463e 3d89 6e3d
00000040: eb8a 1cbe 56a3 debd 86d4 3dbe 15c0 fe3d
00000050: e6bf bf3d 7290 393d 0f9a 2a3d 7862 763e
00000060: 0bb3 673d 7393 ac3d 051d 833e a8fc 113e
00000070: c3a9 ab3c 7fa4 003e e9fe 24bb 160a 233e
00000080: c446 17be e859 30be 77a4 3bbd a907 b43d
00000090: 51e7 93bd f20a 74be 3a1f 003e a1f9 a6bd
000000a0: 7358 0b3e 943f 76bd 6e85 4f3e f0e8 e7bd
000000b0: 650c 85bd 34c4 28be 71a1 723e a496 003e
000000c0: 8549 57be 4389 243e 4712 e63c 89b7 543e
000000d0: 6e97 d7bd ff60 bebd 5d88 d8bb 7793 003e
000000e0: bc24 afbc c714 e0bd 9c38 18be 3098 143e
000000f0: 47ce 043e a2dc 5b3e fbfd 41be 856e 923d

conv4.weight f4 [1, 64, 1]
0.0034461718 -0.10511694 0.06713892 -0.054552604 0.08275673 -0.09048449 0.06002393 -0.048963718
-0.017815132 -0.025117375 -0.008852554 -0.03952052 0.085613765 -0.12356555 0.0011429271 0.0033949646
-0.05396752 0.00990495 0.042073693 0.035184957 -0.114914544 0.09471838 0.0022318845 -0.070356235
0.10717067 -0.07202326 0.0332269 0.057232488 0.07396938 -0.019550309 -0.06473392 -0.021019856
0.06048247 0.028757023 -0.03885993 -0.09941577 -0.041391626 -0.056865204 -0.027235158 0.0055800746
-0.057379544 -0.013933532 -0.07437538 0.009160611 -0.11569193 -0.043785557 0.044055708 0.078745656
0.068306215 -0.032079816 -0.122874 -0.13195737 -0.096836716 0.11202882 0.15283446 -0.00797659
0.027744785 -0.041983083 0.08324891 -0.08141622 0.102619074 0.026535498 0.074801184 -0.112291135
00000000: 2bd9 613b 8d47 d7bd 2180 893d 8d72 5fbd
00000010: 5c7c a93d ef4f b9bd a7db 753d 2e8e 48bd
00000020: 0af1 91bc f4c2 cdbc 4d0a 11bc 45e0 21bd
00000030: 4556 af3d ef0f fdbd 45ce 953a 0e7e 5e3b
00000040: 0c0d 5dbd 5f48 223c 7755 2c3d 1a1e 103d
00000050: 5158 ebbd b6fb c13d cf44 123b ee16 90bd
00000060: 4c7c db3d ee80 93bd ee18 083d 9d6c 6a3d
00000070: 427d 973d f827 a0bc 3893 84bd d531 acbc
00000080: 77bc 773d d993 eb3c 972b 1fbd 7f9a cbbd
00000090: 448a 29bd 7deb 68bd 441c dfbc 0fd9 b63b
000000a0: d006 6bbd 7849 64bc 1f52 98bd 6316 163c
000000b0: e4ef ecbd 7c58 33bd c273 343d 6745 a13d
000000c0: 21e4 8b3d 2066 03bd 5da5 fbbd d51f 07be
000000d0: 5452 c6bd 5e6f e53d a380 1c3e 3eb0 02bc
000000e0: 0849 e33c 74f6 2bbd 687e aa3d 8cbd a6bd
000000f0: f329 d23d f960 d93c 5d31 993d e5f8 e5bd

norm1.weight f4 [320, 64]
0.9947087 0.99890774 1.0031656 0.99475336 0.99404114 0.99609506 1.0071269 0.9982871
1.0002443 0.9908227 1.0071771 1.0000715 1.0053481 0.9958323 0.99856985 0.9934493
1.0069939 0.99872273 0.9972672 1.0030835 0.9931195 0.9980607 0.99947155 0.99897766
1.0010458 1.0055993 1.0017674 0.9970126 1.0179061 0.9933013 1.005977 1.0084991
0.9706762 0.9949216 1.0237997 1.0117568 1.0009847 0.9694105 0.9905386 0.9908816
0.99970984 0.9971672 1.0061946 1.0060678 0.99866194 0.9907499 0.99525225 1.0119904
0.9978681 1.0060116 1.0124092 0.9996719 1.0061432 0.9975923 0.9934342 1.0015062
1.0100409 1.0047373 0.9962328 1.0004183 0.994391 0.99839574 0.999051 1.0039749
0.9928616 0.9917443 0.9918147 1.0126804 0.99305314 1.0052904 0.9957026 0.9902257
1.0045952 0.9948305 1.0034971 0.9927485 1.0024587 1.0038588 0.98914796 1.00462
1.0003929 1.0078139 0.993983 0.99524015 0.993834 0.99988914 0.997814 1.0033368
0.9923365 0.9990215 0.9985849 0.9871219 1.0376551 1.0349228 1.0097946 1.0090729
1.0289762 1.0122693 0.9488801 0.97996837 0.98934805 1.0048951 0.9889891 0.9958583
1.0061153 1.0034968 1.0000384 1.0058289 0.99207115 0.9984842 0.9957208 1.0073079
1.0005469 1.0092099 1.0083846 0.99606526 1.0065026 1.0091941 0.9912585 0.9901226
1.0109481 1.0086606 1.0037321 0.9975381 0.9877699 1.0032392 0.9978953 0.9915806
0.9915831 0.99317193 1.0026819 1.0023763 0.9885287 1.0007302 1.0071851 0.99706143
1.001188 0.9977431 0.99668366 0.99455535 0.99757475 1.0002849 0.9912456 0.99739397
1.0010687 1.0001725 1.0012617 0.9973773 0.99248326 0.9955727 0.9965563 0.99846905
0.99592155 1.0002367 0.993287 1.0068551 0.97244185 1.006019 1.0095683 0.9916419
0.9749543 0.9950664 1.0365914 1.0041369 1.0041943 1.0060838 0.98646843 0.9841946
0.99652374 0.99964654 1.0033706 1.0048996 0.9935967 0.99535537 1.0023893 1.0057311
0.99355185 1.0030984 1.0024605 0.9914601 1.001469 0.9974419 0.98792714 1.0014886
1.0046917 1.0038761 0.9962175 1.0050466 0.9963962 1.0033041 1.0047711 0.99862653
0.9957346 0.9888805 0.99560624 1.0064598 1.0049647 1.0124942 1.0083225 0.99684834
1.0026667 1.0083189 1.0080868 0.99779284 1.0042039 1.0030925 0.9941066 1.0022037
1.0070502 1.0006636 1.004712 1.0039321 0.9899426 0.9994692 0.9922871 0.9982053
1.01074 1.0098653 0.98433816 1.0010327 1.0113573 0.98257804 1.0034921 0.98836637
0.9806812 1.0198807 1.0422012 0.98583084 1.0004547 0.94851387 0.99702007 0.99608487
0.99691874 1.0003726 1.0083048 1.0005614 1.000136 1.0000343 1.0003802 0.9931588
0.9972061 0.9975772 1.0002469 0.99951696 1.0037514 1.0058881 1.0064466 1.0080676
1.0096083 0.9998346 0.99534035 1.0094119 0.9917926 0.99586886 1.0073707 1.0068575
00000000: 3ba5 7e3f 6bb8 7f3f bb67 803f 28a8 7e3f
00000010: 7b79 7e3f 1600 7f3f 89e9 803f be8f 7f3f
00000020: 0108 803f 8ea6 7d3f 2eeb 803f 5802 803f
00000030: 3faf 803f deee 7e3f 46a2 7f3f b152 7e3f
00000040: 2de5 803f 4bac 7f3f e74c 7f3f 0a65 803f
00000050: 143d 7e3f e880 7f3f 5edd 7f3f 00bd 7f3f
00000060: 4522 803f 7ab7 803f ea39 803f 383c 7f3f
00000070: bf4a 823f fe48 7e3f dbc3 803f 8016 813f
00000080: 3c7e 783f 2fb3 7e3f de0b 833f 3f81 813f
00000090: 4420 803f 492b 783f f093 7d3f 6baa 7d3f
000000a0: fcec 7f3f 5a46 7f3f fcca 803f d4c6 803f
000000b0: 4fa8 7f3f c9a1 7d3f dac8 7e3f e788 813f
000000c0: 4974 7f3f fdc4 803f a096 813f 7fea 7f3f
000000d0: 4dc9 803f 3562 7f3f b451 7e3f 5b31 803f
000000e0: 0549 813f 3b9b 803f 1d09 7f3f b50d 803f
000000f0: 6990 7e3f dd96 7f3f cec1 7f3f 4082 803f
00000100: 2e2c 7e3f f4e2 7d3f 91e7 7d3f 839f 813f
00000110: bb38 7e3f 5bad 803f 5ee6 7e3f 6e7f 7d3f
00000120: 9396 803f 36ad 7e3f 9872 803f c424 7e3f
00000130: 9150 803f 727e 803f cd38 7d3f 6397 803f
00000140: e00c 803f 0c00 813f ab75 7e3f 0fc8 7e3f
00000150: e86b 7e3f bcf8 7f3f bd70 7f3f 576d 803f
00000160: c409 7e3f dfbf 7f3f 43a3 7f3f 05b4 7c3f
00000170: e2d1 843f 5a78 843f f340 813f 4d29 813f
00000180: 7eb5 833f 0a92 813f cee9 723f 35df 7a3f
00000190: ea45 7d3f 67a0 803f 642e 7d3f 92f0 7e3f
000001a0: 63c8 803f 9572 803f 4201 803f 00bf 803f
000001b0: 60f8 7d3f a99c 7f3f 8fe7 7e3f 77ef 803f
000001c0: ec11 803f ca2d 813f bf12 813f 22fe 7e3f
000001d0: 14d5 803f 462d 813f 1ec3 7d3f ad78 7d3f
000001e0: bf66 813f ca1b 813f 4b7a 803f a85e 7f3f
000001f0: 7dde 7c3f 246a 803f 1176 7f3f 3ad8 7d3f
00000200: 64d8 7d3f 8440 7e3f e157 803f de4d 803f
00000210: 3810 7d3f ed17 803f 71eb 803f 6b3f 7f3f
00000220: ee26 803f 186c 7f3f a926 7f3f 2e9b 7e3f
00000230: 0f61 7f3f 5609 803f 46c2 7d3f 3655 7f3f
00000240: 0523 803f a705 803f 5829 803f 1e54 7f3f
00000250: 6213 7e3f dadd 7e3f 501e 7f3f ab9b 7f3f
00000260: b7f4 7e3f c207 803f 0f48 7e3f a1e0 803f
00000270: f3f1 783f 3bc5 803f 8939 813f 3edc 7d3f
00000280: 9b96 793f acbc 7e3f 07af 843f 8f87 803f
00000290: 7089 803f 5bc7 803f 3289 7c3f 2df4 7b3f
000002a0: 2e1c 7f3f d6e8 7f3f 736e 803f 8da0 803f
000002b0: 5a5c 7e3f 9ccf 7e3f 4b4e 803f ccbb 803f
000002c0: 6a59 7e3f 8765 803f a050 803f 54d0 7d3f
000002d0: 2330 803f 5a58 7f3f cbe8 7c3f c730 803f
000002e0: bd99 803f 037f 803f 1c08 7f3f 5ea5 803f
000002f0: d213 7f3f 456c 803f 579c 803f fda5 7f3f
00000300: 76e8 7e3f 4627 7d3f 0de0 7e3f add3 803f
00000310: afa2 803f 6999 813f b610 813f 7431 7f3f
00000320: 6257 803f 9810 813f fd08 813f 5a6f 7f3f
00000330: c189 803f 5665 803f c57d 7e3f 3648 803f
00000340: 05e7 803f bf15 803f 679a 803f d980 803f
00000350: e16c 7d3f 37dd 7f3f 8706 7e3f 628a 7f3f
00000360: ee5f 813f 4443 813f 96fd 7b3f d721 803f
00000370: 2874 813f 3c8a 7b3f 6e72 803f 9405 7d3f
00000380: ec0d 7b3f 738b 823f d966 853f 695f 7c3f
00000390: e60e 803f ced1 723f b53c 7f3f 6bff 7e3f
000003a0: 1136 7f3f 360c 803f 2210 813f 6512 803f
000003b0: 7504 803f 2001 803f 750c 803f a83f 7e3f
000003c0: e648 7f3f 3861 7f3f 1708 803f 58e0 7f3f
000003d0: ed7a 803f f1c0 803f 3ed3 803f 5c08 813f
000003e0: d83a 813f 29f5 7f3f a0ce 7e3f 6934 813f
000003f0: 1fe6 7d3f 43f1 7e3f 86f1 803f b5e0 803f

norm1.bias f4 [320, 64]
0.0039689466 0.00090788136 -0.0027762677 0.0055805524 0.007132712 0.0034551467 -0.006962353 0.0017864937
-0.00028887283 0.009550832 -0.0074278656 -0.0010687435 -0.0054272106 0.004334654 0.0011579148 0.007171623
-0.0067553828 0.0012531895 0.002868988 -0.0032473386 0.0053672106 0.0014516416 0.0010962129 0.0007363394
-0.0007655521 -0.0055778287 -0.0020661638 0.0032317082 -0.016793158 -0.0021554283 0.0028357706 -0.009297846
0.028960766 -0.0026226928 -0.024659004 0.0029090114 0.0015362466 0.007840116 0.009474737 0.00822855
0.00013123601 0.003748938 -0.006276285 -0.0058730617 0.0011476561 0.009704618 0.004948426 -0.012709403
0.001166299 -0.005164788 -0.012916044 -0.00034715037 -0.005758348 0.0026196484 0.006450409 -0.0020108281
-0.009795893 -0.0041243667 0.0039450764 -0.0004005513 0.005398273 0.0015549359 0.0016395854 -0.004244961
0.0077515384 0.008035546 0.00787313 -0.013330468 0.0073105367 -0.006252244 0.004032981 0.010197327
-0.0043329354 0.0046510333 -0.003956654 0.007698219 -0.0031769378 -0.0035309 0.010843701 -0.0048344177
-0.00090505934 -0.0077088214 0.0063269557 0.0045147007 0.0060929796 0.0002554657 0.002451217 -0.0029489773
0.0078642005 0.0006297537 0.0010713818 0.01362605 -0.030591805 -0.03629795 0.004572342 -0.009437617
-0.029529922 0.012731678 0.052394763 -0.012189223 0.012975927 0.0060558873 0.011566155 0.0041206423
-0.006152788 -0.0043557007 0.00083882123 -0.0062860604 0.008104744 0.0008194928 0.004387488 -0.008021054
-0.0010699037 -0.009493071 -0.008592544 0.003557932 -0.0064709764 -0.00906868 0.009354238 0.009374454
-0.0110969795 -0.008880529 -0.0038213527 0.0024465364 0.012427856 -0.0036454117 0.0017312003 0.008009317
0.009087013 0.0073123593 -0.002804492 -0.0026704813 0.011319262 -0.0006190869 -0.0072712107 0.0024942968
-0.0017707073 0.0021941508 0.0031528734 0.0050985627 0.0027696167 -0.00076909707 0.009224658 0.0028708067
-0.0007594404 9.465805e-05 -0.0016267883 0.0023700316 0.008892875 0.004385993 0.003447967 0.0016686195
0.0038967098 -0.0003282387 0.006074634 -0.017354306 0.024428533 -0.015432088 -0.009507818 0.003510987
-0.030265106 0.004711827 0.049961597 -0.004790214 9.397168e-05 -0.0055095083 0.013735488 0.016486399
0.004049629 0.00020931092 -0.0037340934 -0.005155371 0.006593832 0.004166171 -0.00273036 -0.0051661553
0.0070542987 -0.00351177 -0.0026159529 0.009129293 -0.0018395806 0.0022038238 0.012221063 -0.0012728138
-0.0052679265 -0.004280652 0.004176813 -0.0052217497 0.003520764 -0.003277215 -0.004951049 0.0014438842
0.0025114478 0.011343544 0.005225816 -0.0060206093 -0.004066425 -0.0128353415 -0.008082786 0.0028882243
-0.002945718 -0.007872608 -0.008290018 0.0009853445 -0.0037082094 -0.0031865619 0.0055900565 -0.0020041186
-0.0063754977 -0.0007686631 -0.004882672 -0.0037788243 0.008408838 0.00065892626 0.008284265 0.0014628068
-0.010172609 -0.0102606295 0.015916493 -0.0022797454 0.0107673835 0.005812411 -0.015676409 0.012265646
0.019792963 0.014667395 -0.043176424 -0.0038369552 -1.3202718e-05 0.008891373 0.0030591092 0.0031496638
0.0030410509 0.0010130887 -0.008564403 -7.0609894e-05 -0.0005688917 0.0011196974 -4.872455e-05 0.0064374837
0.0023076579 0.0034646392 -0.0012702326 -0.00018800657 -0.003562996 -0.005863464 -0.0071401997 -0.008434494
-0.009118502 0.0007866601 0.0049246196 -0.009299692 0.007866505 0.004223743 -0.0064431797 -0.006724653
00000000: f00d 823b e3fe 6d3a 0bf2 35bb 11dd b63b
00000010: 86b9 e93b be6f 623b 7324 e4bb c828 ea3a
00000020: db73 97b9 187b 1c3c 7465 f3bb 1515 8cba
00000030: bed6 b1bb b709 8e3b 2cc5 973a efff ea3b
00000040: 425c ddbb 1042 a43a a205 3c3b 4dd1 54bb
00000050: 6ddf af3b 0245 be3a cdae 8f3a e706 413a
00000060: 55af 48ba 38c6 b6bb 7a68 07bb 11cb 533b
00000070: ce91 89bc 1642 0dbb 56d8 393b fe55 18bc
00000080: 213f ed3c 7ce1 2bbb ae01 cabc 1da5 3e3b
00000090: e25b c93a d473 003c ed3b 1b3c 0ad1 063c
000000a0: 669c 0939 beb0 753b 4ba9 cdbb d072 c0bb
000000b0: f36c 963a 1e00 1f3c 6826 a23b 1a3b 50bc
000000c0: 80de 983a 623d a9bb d19d 53bc bc01 b6b9
000000d0: 86b0 bcbb 68ae 2b3b f45d d33b 19c8 03bb
000000e0: f47e 20bc b225 87bb b345 813b 1601 d2b9
000000f0: ffe3 b03b fece cb3a 5be7 d63a 5019 8bbb
00000100: 9e00 fe3b 86a7 033c 4dfe 003c 0968 5abc
00000110: 3a8d ef3b a0df ccbb 1927 843b b012 273c
00000120: 4cfb 8dbb b267 983b d2a6 81bb 5741 fc3b
00000130: 2c34 50bb ac66 67bb c7a9 313c 096a 9ebb
00000140: 8141 6dba 489a fcbb 5a52 cf3b 0ef0 933b
00000150: 9ea7 c73b 07f0 8539 99a4 203b a143 41bb
00000160: d9d8 003c 0e16 253a 9c6d 8c3a cc3f 5f3c
00000170: aa9b fabc 29ad 14bd 96d3 953b 3ca0 1abc
00000180: bce8 f1bc 8798 503c e49b 563d 4fb5 47bc
00000190: fc98 543c 7770 c63b f87f 3d3c 7406 873b
000001a0: 549d c9bb 44ba 8ebb 57e4 5b3a 4cfb cdbb
000001b0: c3c9 043c 3bd3 563a ebc4 8f3b bd6a 03bc
000001c0: 033c 8cba d388 1bbc bec7 0cbc 322c 693b
000001d0: 7c0a d4bb cd94 14bc 8542 193c 4f97 193c
000001e0: 1bd0 35bc a37f 11bc a96f 7abb 1256 203b
000001f0: 359e 4b3c dce7 6ebb 71e9 e23a 8339 033c
00000200: b2e1 143c 849c ef3b 91cb 37bb 3e03 2fbb
00000210: 6d74 393c 384a 22ba 5643 eebb 5b77 233b
00000220: 1417 e8ba becb 0f3b 70a0 4e3b d811 a73b
00000230: 7582 353b 3b9d 49ba 0523 173c 2524 3c3b
00000240: 2f15 47ba 2783 c638 f539 d5ba 8852 1b3b
00000250: 6cb3 113c 60b8 8f3b 4af7 613b 94b5 da3a
00000260: f15f 7f3b 7417 acb9 b90d c73b 9e2a 8ebc
00000270: 591e c83c ded6 7cbc aec6 1bbc 9618 663b
00000280: 87ee f7bc ab65 9a3b 88a4 4c3d 3af7 9cbb
00000290: a912 c538 1b89 b4bb d00a 613c 7c0e 873c
000002a0: c0b2 843b 797a 5b39 b1b7 74bb 63ee a8bb
000002b0: 1211 d83b 6084 883b d7ef 32bb da48 a9bb
000002c0: bf27 e73b b925 66bb 6870 2bbb 0893 153c
000002d0: 151e f1ba 076e 103b da3a 483c 8bd4 a6ba
000002e0: 929e acbb b644 8cbb a6dd 883b 361b abbb
000002f0: 9ebc 663b 8bc6 56bb 693c a2bb b740 bd3a
00000300: 1a97 243b 46da 393c 523d ab3b 8848 c5bb
00000310: a53f 85bb 534b 52bc a96d 04bc 5d48 3d3b
00000320: f20c 41bb 1cfc 00bc dbd2 07bc ad26 813a
00000330: 6e05 73bb a3d5 50bb cb2c b73b 8857 03bb
00000340: 8de9 d0bb 1c80 49ba d2fe 9fbb 27a6 77bb
00000350: 39c5 093c cbbb 2c3a baba 073c a7bb bf3a
00000360: 04ab 26bc 331c 28bc 4e63 823c c867 15bb
00000370: ae69 303c 0a76 be3b d06b 80bc d9f5 483c
00000380: da24 a23c 834f 703c c3d9 30bd 6d75 7bbb
00000390: 3e81 5db7 1fad 113c 567b 483b 976a 4e3b
000003a0: 5e4c 473b 9ec9 843a b651 0cbc 6614 94b8
000003b0: ad21 15ba cfc2 923a 965d 4cb8 87f1 d23b
000003c0: 133c 173b 000f 633b ef7d a6ba a123 45b9
000003d0: 2781 69bb 4d22 c0bb 56f8 e9bb d530 0abc
000003e0: c565 15bc de37 4e3a b45e a13b bc5d 18bc
000003f0: 83e2 003c 5367 8a3b 4f21 d3bb 7a5a dcbb

norm2.weight f4 [16, 64]
0.99603933 1.0024272 1.000561 1.0011253 1.0044764 1.0020554 0.99707 1.0021644
0.9991942 0.99741185 0.99370587 0.9975153 0.9987967 0.9975584 0.99911374 1.0012814
1.0015136 0.9996093 0.9990604 0.99756783 0.9968684 1.0036442 0.99778193 0.99829763
1.0013126 0.9958766 1.0046339 1.0003098 0.9936102 0.9839923 1.0049199 0.98204637
0.99807817 1.0091065 0.9822902 0.9870576 1.0041791 0.99312234 0.99929017 0.9966611
0.9979102 1.0037272 0.997735 1.0031431 0.9985258 1.0086516 1.0044752 1.0003208
0.99644166 0.99992543 0.994165 0.99857914 0.9976697 0.9990645 1.0023082 0.9955283
0.9960774 0.99733853 1.0021198 0.99586326 1.0032206 1.0058331 0.99941564 0.997753
0.9982097 1.0029291 0.9935896 1.007463 0.9967368 1.0049684 0.9994565 0.9992545
1.0017186 0.99843717 0.98814726 0.9965721 0.99690455 1.0053396 0.9912608 1.0014762
0.9957719 1.00639 0.99880457 0.98837376 1.0018365 0.996985 1.0008991 1.0065047
0.99388415 0.99529743 0.9972786 1.0087748 1.0103554 1.012219 1.0052296 1.0117251
0.97666794 0.99572223 1.0132865 1.0048623 1.0039667 0.991997 0.99636686 0.99252576
1.0046792 1.0016698 1.0025192 1.0037066 0.9919532 1.0014327 1.0030913 1.0032749
1.0011346 1.0019236 0.9980108 0.9999278 1.0026195 1.0053865 0.9968422 0.9968468
0.9967815 1.0011759 1.0021307 0.9980124 0.9982547 1.0024447 0.9975734 0.98942333
1.0198457 1.0050497 0.9978535 0.9993324 0.99226964 0.9949699 0.9891749 0.9947082
1.0023729 0.9964098 0.99434644 1.0158285 0.9835271 0.9986537 1.0119926 0.9931246
0.98158777 1.0065631 0.99752736 0.993371 1.017644 0.99802893 0.99884635 1.010298
1.0012431 0.9903519 0.9988869 1.0205314 1.0166401 1.0177709 1.0094142 0.99251103
1.0251697 1.0168988 0.9372492 1.001657 1.0032986 0.9929139 1.0061511 1.01706
1.0080215 0.9944785 1.00837 0.98778915 1.0064522 0.9792624 0.9926441 0.98980284
1.0062516 0.98797613 1.00599 1.0067618 0.99357504 0.99684787 1.0095376 1.0044527
0.9960476 0.9935347 0.9979627 1.009965 1.0045966 0.9939791 0.9852617 0.99454105
0.9919192 0.9925559 1.0008384 1.0016148 0.98568773 1.0029542 1.016513 0.9940412
1.0090897 0.9927725 1.0029863 0.9957708 1.0027076 1.0062577 0.98642504 1.0026942
1.0052519 1.0053252 1.0097543 0.9936752 0.994577 1.000074 1.001979 1.0033761
0.9905737 1.0111784 0.9903407 1.0024716 1.0546976 0.9966474 0.95664483 0.9906589
1.018518 1.0131218 0.9616197 0.988288 0.9833029 0.9444632 0.9876269 0.9881035
0.9968116 0.99898463 1.0077684 1.0084395 0.98582596 0.99856716 1.0020515 1.0021293
0.9900208 1.0079052 1.006029 0.98996556 1.0119785 1.0054942 0.9778299 1.0045102
1.0068462 1.0107344 0.993958 1.0011035 0.98920697 1.0021265 1.0051404 0.9923691
00000000: 6ffc 7e3f 894f 803f 6212 803f e024 803f
00000010: af92 803f 5a43 803f fb3f 7f3f ec46 803f
00000020: 31cb 7f3f 6256 7f3f 8263 7e3f 2a5d 7f3f
00000030: 24b1 7f3f fd5f 7f3f ebc5 7f3f fd29 803f
00000040: 9931 803f 65e6 7f3f 6cc2 7f3f 9b60 7f3f
00000050: c432 7f3f 6a77 803f a36e 7f3f 6f90 7f3f
00000060: 032b 803f c5f1 7e3f d897 803f 270a 803f
00000070: 3d5d 7e3f ebe6 7b3f 37a1 803f 6467 7b3f
00000080: 0d82 7f3f 672a 813f 5f77 7b3f cfaf 7c3f
00000090: f188 803f 443d 7e3f 7bd1 7f3f 2f25 7f3f
000000a0: 0b77 7f3f 227a 803f 906b 7f3f fe66 803f
000000b0: 639f 7f3f 7f1b 813f a592 803f 830a 803f
000000c0: cd16 7f3f 1dfb 7f3f 9981 7e3f e2a2 7f3f
000000d0: 4867 7f3f b1c2 7f3f a34b 803f f1da 7e3f
000000e0: eefe 7e3f 9451 7f3f 7645 803f e5f0 7e3f
000000f0: 8869 803f 24bf 803f b4d9 7f3f be6c 7f3f
00000100: ac8a 7f3f fb5f 803f e35b 7e3f 8cf4 803f
00000110: 252a 7f3f cea2 803f 62dc 7f3f 25cf 7f3f
00000120: 5138 803f 9499 7f3f 38f7 7c3f 591f 7f3f
00000130: 2335 7f3f f8ae 803f 45c3 7d3f 5f30 803f
00000140: e8ea 7e3f 63d1 803f a8b1 7f3f 1006 7d3f
00000150: 2e3c 803f 693a 7f3f 761d 803f 25d5 803f
00000160: 316f 7e3f d0cb 7e3f a64d 7f3f 881f 813f
00000170: 5353 813f 6490 813f 5dab 803f 3580 813f
00000180: e906 7a3f a7e7 7e3f 5fb3 813f 549f 803f
00000190: fb81 803f 84f3 7d3f e611 7f3f 2b16 7e3f
000001a0: 5499 803f b736 803f 8d52 803f 7579 803f
000001b0: a5f0 7d3f f22e 803f 4c65 803f 506b 803f
000001c0: 2e25 803f 083f 803f a37d 7f3f 45fb 7f3f
000001d0: d655 803f 81b0 803f 0d31 7f3f 5a31 7f3f
000001e0: 132d 7f3f 8826 803f d245 803f be7d 7f3f
000001f0: 9f8d 7f3f 1c50 803f f860 7f3f d94a 7d3f
00000200: 4e8a 823f 78a5 803f 5473 7f3f 40d4 7f3f
00000210: 6205 7e3f 59b6 7e3f 913a 7d3f 32a5 7e3f
00000220: c14d 803f b614 7f3f 7d8d 7e3f ab06 823f
00000230: 6fc8 7b3f c5a7 7f3f f988 813f 6a3d 7e3f
00000240: 5649 7b3f 0fd7 803f f45d 7f3f 904d 7e3f
00000250: 2942 823f d37e 7f3f 65b4 7f3f 7251 813f
00000260: bc28 803f b487 7d3f 0db7 7f3f c6a0 823f
00000270: 4321 823f 5146 823f 7c34 813f 3415 7e3f
00000280: c338 833f bd29 823f 90ef 6f3f 4c36 803f
00000290: 176c 803f 9b2f 7e3f 8fc9 803f 062f 823f
000002a0: d906 813f 2596 7e3f 4512 813f c0df 7c3f
000002b0: 6dd3 803f f1b0 7a3f ec1d 7e3f b863 7d3f
000002c0: dacc 803f 01ec 7c3f 48c4 803f 92dd 803f
000002d0: ef5a 7e3f 6c31 7f3f 8738 813f e891 803f
000002e0: fafc 7e3f 4a58 7e3f 7c7a 7f3f 8846 813f
000002f0: 9f96 803f 6a75 7e3f 1c3a 7c3f 3e9a 7e3f
00000300: 6bee 7d3f 2518 7e3f 791b 803f ea34 803f
00000310: 0856 7c3f ce60 803f 191d 823f 7c79 7e3f
00000320: da29 813f 5726 7e3f db61 803f d6ea 7e3f
00000330: b958 803f 0dcd 803f 5a86 7c3f 4958 803f
00000340: 18ac 803f 7fae 803f a13f 813f 7f61 7e3f
00000350: 999c 7e3f 6d02 803f d940 803f a16e 803f
00000360: 3d96 7d3f 4b6e 813f f886 7d3f fd50 803f
00000370: 5500 873f 4924 7f3f ade6 743f d29b 7d3f
00000380: cc5e 823f faad 813f b52c 763f 7100 7d3f
00000390: bdb9 7b3f 57c8 713f 1ed5 7c3f 5af4 7c3f
000003a0: 0c2f 7f3f 75bd 7f3f 8efe 803f 8c14 813f
000003b0: 175f 7c3f 19a2 7f3f 3943 803f c645 803f
000003c0: 0172 7d3f 0a03 813f 8fc5 803f 626e 7d3f
000003d0: 8388 813f 09b4 803f 0f53 7a3f ca93 803f
000003e0: 56e0 803f bf5f 813f 0874 7e3f 2924 803f
000003f0: ab3c 7d3f ae45 803f 71a8 803f e70b 7e3f
