model8_params.pkl (torch, 265979 bytes, 24 tensors)

conv1.weight f4 [320, 1, 3]
000000 cc e9 a0 3e 7c 6b 9d bd 87 9c 8b bd 23 31 ef 3d
       0.31428373 -0.07686517 -0.068169646 0.11679294
000010 30 9d 12 3f e7 e0 0d 3f 0a da 4c be 0c ba 81 3d
       0.572711 0.554213 -0.2000505 0.06334314
000020 37 14 22 3e 5e f4 89 be 37 e1 d0 bd 78 74 e0 3e
       0.15828024 -0.2694425 -0.10199206 0.4383886
000030 50 d7 84 3e ba 73 84 be 9a 84 41 3e 2d 41 0e bf
       0.2594552 -0.25869542 0.1889824 -0.555682
000040 50 c0 34 3e c9 b0 f7 3d 56 56 ec be 8b bf c7 be
       0.17651486 0.12094266 -0.4615962 -0.39013323
000050 de 2c fb be 50 16 cf be 3a 45 ab be 62 71 13 3f
       -0.49057668 -0.4044671 -0.33451253 0.57594883
000060 dc de f0 be 17 ab c7 3d dc 30 c7 3e 29 b1 cc be
       -0.47045028 0.0974943 0.38904464 -0.39978912
000070 c9 e5 d2 be 6d 46 d8 be 47 ff d7 3e c5 fc 0d bf
       -0.41190937 -0.4224123 0.4218695 -0.5546382
000080 24 5c dc be 61 10 16 3e fc fe 29 3e 8d 84 f8 3d
       -0.43039048 0.14654686 0.16601175 0.12134657
000090 16 9d d6 3e 4a e5 c6 3e 4c 21 d3 be 1a 50 8c be
       0.41916722 0.3884681 -0.4123634 -0.27404863
0000a0 66 e5 0a 3f 00 91 92 bd 31 2b fc be 2b 38 11 bf
       0.54256284 -0.07156563 -0.49251702 -0.5672633
0000b0 22 5e 10 bf 1e a4 05 3f 67 32 f6 3e 31 2d ec 3e
       -0.56393635 0.5220355 0.4808533 0.46128228
0000c0 d5 ad 44 3e 11 2d f8 be b4 a3 da 3e 0a 6d d3 3e
       0.19206937 -0.48471883 0.4270302 0.41294128
0000d0 ee bc 72 3e 1c e1 18 bf 5a 71 56 bd 49 62 9f be
       0.23704883 -0.5971849 -0.052354194 -0.31129673
0000e0 91 c4 ac 3e d8 a0 8b bd a3 38 d3 3d 48 54 9b be
       0.33743718 -0.06817788 0.10313537 -0.3033774
0000f0 c4 28 e0 3e ed f7 08 bf 44 7f e8 be 83 00 e3 3e
       0.43781102 -0.53503305 -0.45409596 0.44336328
000100 eb ff 05 bf b6 df 79 3e bc 61 0c be 2c 09 2b be
       -0.52343625 0.24401745 -0.13709158 -0.16702718
000110 6d 60 98 3e 2c f6 a8 be 8b 8b 5d 3d c7 10 7d 3e
       0.29761067 -0.33000314 0.054088157 0.24713431
000120 8e 24 0c 3f d8 08 c2 3e bb 42 86 3d 6e f1 a1 bd
       0.5474328 0.37897372 0.065556966 -0.07907377
000130 a9 67 9d 3e ac 4f 18 bf bb a5 ee 3e c7 2c b3 bd
       0.3074315 -0.5949657 0.46610817 -0.08748775
000140 7e ab 65 3d f8 dc ea be aa 64 1e bd e5 07 f7 bd
       0.05607175 -0.4587171 -0.03867022 -0.12062053
000150 ba b9 20 be 73 ad a7 3e 14 46 21 3e bb 1f 76 3d
       -0.15695849 0.3274952 0.15749389 0.060088854
000160 17 eb 01 3f d4 98 b2 be 2a 47 cf 3e 98 5e 0f 3f
       0.50749344 -0.34882224 0.4048398 0.56003714
000170 0e 3a 82 be cd 3c c2 be a2 1c 8a 3e f5 32 a1 be
       -0.25434917 -0.37937012 0.2697497 -0.3148419
000180 20 5f 8a be 8c 51 81 3e 11 48 e3 3e e4 d3 71 3e
       -0.270257 0.25257528 0.4439092 0.23615986
000190 47 63 85 3e ac e7 54 be 9a 82 10 bf 57 73 de bd
       0.26052305 -0.20791501 -0.5644928 -0.10861843
0001a0 f6 81 0b 3d a2 6f 89 3d 5e 75 5f 3e cb df 2e be
       0.034059487 0.067107454 0.21822116 -0.17077558
0001b0 43 3d 00 3f dc 6c e8 bd 70 d9 49 bd 1d 0b 97 bd
       0.5009348 -0.11348888 -0.04927963 -0.073751666
0001c0 46 1c 11 bf 1b 9c c0 be f2 fb d6 3c 5d a4 f3 be
       -0.56683767 -0.376191 0.026243184 -0.47586337
0001d0 7e c6 0e 3f 7c 28 26 3e 06 a3 0a bf 80 b2 1f be
       0.55771625 0.16226381 -0.54155004 -0.15595436
0001e0 55 2d 0a bf 22 74 03 3f 29 bd 0b 3e 32 75 90 3e
       -0.5397542 0.5134908 0.13646378 0.28214413
0001f0 f2 12 88 3e 4d d6 ca bc 40 2a ce 3e a6 47 d4 be
       0.26576954 -0.02476039 0.4026661 -0.41460913
000200 bb 4e 43 bd e6 e1 05 3f 9e 8e 0a 3e b6 cb ff be
       -0.047682505 0.5229782 0.13530967 -0.49960107
000210 7e 9f b2 be f9 48 66 be 3f 29 56 be 76 2e ad 3e
       -0.34887308 -0.22488774 -0.20914172 0.3382451
000220 9d 81 14 bd 9d 7b 4b be 83 a4 b5 3e 5f 13 43 3e
       -0.03625642 -0.19871373 0.35477075 0.19050358
000230 09 d4 b6 3b d0 ff e4 3c dc 88 d5 3e b1 8f 78 3e
       0.005579476 0.027954012 0.41705978 0.24273564
000240 9d c0 ed 3e df da c0 3e c0 43 03 3f 87 99 17 3d
       0.46436015 0.37666985 0.51275253 0.03701165
000250 0d 9a 88 be 7c 8f af 3e 83 05 b4 be 66 4f a3 3e
       -0.2668003 0.34289157 -0.35160455 0.31896514
000260 0f 5a 0f 3e 07 ea c7 3e 1f 44 37 be b7 17 8f 3e
       0.13999198 0.39045736 -0.1789708 0.2794778
000270 0e c9 bf 3c a2 f0 7e 3e d8 47 0c be d3 9b f7 3e
       0.0234113 0.24896482 -0.13699281 0.48361072
000280 e2 ba dc 3e 99 c5 c7 3e da 88 3b be 5b 62 c6 3e
       0.4311133 0.39017943 -0.18313923 0.38746914
000290 d5 78 f6 3a 0a 1e 78 be f8 fc 8f 3e 3c 1f 04 bf
       0.0018804321 -0.24230209 0.28122687 -0.5161016
0002a0 76 0f 4b 3e 64 e8 de be 70 e3 0e 3e 23 93 a5 3e
       0.19830117 -0.43536675 0.13953948 0.3233882
0002b0 39 32 89 3e f3 ad c2 be 73 d7 b5 bd aa 23 ee 3e
       0.2679613 -0.38023338 -0.08878984 0.46511585
0002c0 07 01 81 3e 7c ad b6 3e f2 be 3e 3d 8e f7 83 3e
       0.25196096 0.35679233 0.04656882 0.25774807
0002d0 3d ca 7e 3c be 81 fe 3e 59 55 bb 3e d0 8e 3e be
       0.015551147 0.4970836 0.36588553 -0.18609166
0002e0 15 1d 5f 3e de 43 e1 3e 15 50 a8 3e b2 ae 01 bf
       0.21788438 0.4399709 0.32873598 -0.5065719
0002f0 4b 1a 09 3f b8 9e e4 be b5 75 f8 be 1b e8 c8 bd
       0.53555745 -0.44652343 -0.48527303 -0.098098956
000300 f1 b0 8f 3e b9 1e 51 be 99 e4 ca 3e b5 f3 e2 be
       0.28064683 -0.20421876 0.3962753 -0.4432656
000310 c7 68 d3 be 25 8e 0b bf da 5e 2a be 88 51 a8 be
       -0.41290876 -0.5451377 -0.16637745 -0.32874703
000320 a3 6d 8d 3e 63 92 9d be ae ec 3d bd c1 74 ed be
       0.2762271 -0.30775747 -0.046368293 -0.4637814
000330 9c 25 c0 be 22 ff df be 72 06 c6 3e 4c ce c2 3e
       -0.37528694 -0.43749338 0.38676792 0.38048017
000340 0e 6a e2 3e ab bc b3 3e fa c1 0c 3f da ab 9d be
       0.44221538 0.3510488 0.54983485 -0.30795175
000350 4f 77 f9 be 55 1c 62 3e f6 0e b2 bb 1a 92 49 3e
       -0.48723838 0.2208112 -0.0054339124 0.1968464
000360 bc 49 db be fe 1c 62 bd e5 5c 4c be c5 47 0e 3e
       -0.42829692 -0.05520343 -0.19957311 0.13894565
000370 d6 69 c9 3e 36 7f c3 be 61 17 98 bc 89 7a b0 ba
       0.3933856 -0.38182992 -0.018565835 -0.0013464253
000380 69 a4 b1 be 3d 13 16 bf a3 11 b7 be 07 a3 9d bd
       -0.34695747 -0.58623105 -0.35755643 -0.076971106
000390 02 94 a7 bd df 9e da be 50 72 5f 3e 0a 60 26 3e
       -0.08182527 -0.42699334 0.2182095 0.16247573
0003a0 03 f7 50 3e 54 64 d2 bd c1 46 d2 be bf 3b 47 3e
       0.20406727 -0.10273042 -0.41069606 0.19456385
0003b0 f7 eb 98 3d 4e 9d 5b be 11 01 c5 3d fc e1 b0 3e
       0.07466882 -0.21446726 0.09619344 0.34547412
0003c0 27 98 d3 be c0 a8 bb be db 4d b1 3e c0 fd da be
       -0.4132702 -0.36652184 0.34629712 -0.4277172
0003d0 a7 1a 7d bd 69 ef 59 3d bd 2c bd 3e cc 03 17 bf
       -0.061792996 0.053206835 0.36948195 -0.5899017
0003e0 51 80 ef 3e 82 d8 ea 3e aa 07 07 bf cc e0 0e 3f
       0.46777585 0.45868307 -0.5274607 0.5581176
0003f0 f2 e3 b4 be cf 5b 07 bf 7a 1b e2 be cd 47 ff bd
       -0.35330158 -0.52874464 -0.44161588 -0.12464867

conv1.bias f4 [320]
000000 b4 3c d3 be 3b 94 64 3c 88 61 3c be 9b 8d 18 be
       -0.4125725 0.0139513565 -0.1839658 -0.14897768
000010 5c 9e df 3d 14 09 91 be 8b e4 2a be b2 6c 3f 3e
       0.109188765 -0.2832724 -0.16688745 0.18693808
000020 26 b2 db 3e fb ba c9 3e 2c 47 80 3e 63 9f 72 bc
       0.42909354 0.39400467 0.250543 -0.014808509
000030 3b 01 b7 be 3a 33 94 bd 68 c5 fa be d2 9e e2 3e
       -0.35743126 -0.07236333 -0.48978734 0.44261795
000040 2a 99 0c bf 3f cc d4 3c f3 53 b7 bc 07 e9 bd 3e
       -0.5492121 0.025976298 -0.022378897 0.37091848
000050 ba df d1 3e f7 5e a5 3e 2d 00 77 3e 13 78 81 be
       0.40991002 0.32299015 0.24121161 -0.25286922
000060 8b c1 9f 3e 8f 93 b6 bd 10 e6 ca 3e bd a8 74 be
       0.3120235 -0.08914863 0.3962865 -0.23892494
000070 41 68 d4 bd 3d 59 08 3f 58 c0 ce 3e dc b0 a8 be
       -0.10371447 0.53261167 0.40381122 -0.32947433
000080 1f 5b ab 3e 0a 0c 93 3e 48 c7 e5 3e cc 67 9b bc
       0.33467957 0.28720123 0.44878602 -0.018970393
000090 c5 de b6 be fa cd 36 3e c0 45 84 3e bb 06 18 3e
       -0.35716835 0.17852011 0.25834465 0.14846317
0000a0 9f 3b dc 3e 19 3f f4 3e b3 43 ae be 9c 74 c5 3e
       0.43014237 0.4770439 -0.34036025 0.38565528
0000b0 7a f8 9d 3d 54 1d c4 be ae 0c 88 3e 12 39 c9 3e
       0.07713409 -0.38303626 0.26572174 0.39301354
0000c0 3b 0b c7 3e ea 96 2b be 14 5a 5f 3e c6 cd 0a 3f
       0.38875756 -0.16756788 0.21811706 0.54220235
0000d0 dd 58 ad be 36 b3 1d 3e 26 72 f5 be 89 7d dc 3e
       -0.3385686 0.15400395 -0.4793865 0.43064526
0000e0 27 8f 01 be 1f 49 05 3d 40 77 e8 3e 24 ef ed 3e
       -0.12652265 0.032540437 0.4540348 0.46471512
0000f0 b6 5a 99 be 7b 43 e8 3e 7c c0 c3 be ac 62 a7 3e
       -0.2995202 0.45363984 -0.3823279 0.32692468
000100 a5 53 19 3f 1a 81 37 3e a2 e9 43 be 87 00 30 3e
       0.59893256 0.17920342 -0.19132093 0.17187701
000110 69 b9 b6 be 34 09 0f bf da 2c d5 3d e3 e7 14 3e
       -0.35688332 -0.5587342 0.104089454 0.14541583
000120 bc 25 71 3d 02 e9 85 3e 89 80 d5 3e 0a fb b4 3e
       0.058873877 0.26154333 0.41699627 0.35347778
000130 7c 21 0f be 0e 6c 29 be fe 95 98 3e 03 5d b8 3e
       -0.13977617 -0.16545126 0.29801935 0.36008462
000140 6a 8d 00 bf 02 3a 09 bf 21 93 92 be e6 76 ab be
       -0.5021578 -0.5360414 -0.28627875 -0.3348915
000150 5f 2d 48 3e 3d e0 9a 3e ee 6d 76 be fe 95 09 3f
       0.19548558 0.30249205 -0.24065372 0.53744495
000160 03 1f 91 bd 30 5a df be d3 b8 48 be ed 15 a0 be
       -0.07085993 -0.43623495 -0.19601755 -0.31266728
000170 e8 08 57 3e 47 10 21 3e 87 b0 09 3e 71 0c 0d be
       0.20999491 0.15728866 0.13446246 -0.13774277
000180 6c 21 eb 3e e8 f6 a8 be 0b eb 65 be 44 9d 19 3d
       0.45923936 -0.33000875 -0.22452943 0.037503496
000190 22 63 14 bf 1f 28 ae be 89 01 c4 be d1 1b 33 3e
       -0.57963765 -0.34014985 -0.3828242 0.1749108
0001a0 c0 2e d8 be 88 c9 68 3e 97 f3 19 bf 96 72 22 bd
       -0.42223167 0.22733128 -0.60137314 -0.03966006
0001b0 b4 d1 01 bf c9 4a 40 3b 40 76 92 be ac bc 12 bc
       -0.50710607 0.002934145 -0.28605843 -0.008956116
0001c0 96 a0 f3 3e 9c 51 0e bf bb 48 b1 be 70 0b d2 3e
       0.47583455 -0.55593276 -0.346258 0.4102435
0001d0 2a 8b d9 3e 8d f6 ad 3e 3a 17 8b 3e 61 c8 0e bd
       0.42488986 0.33977166 0.27166158 -0.034859065
0001e0 f8 07 0b 3f 5d da c2 be 1d f8 87 be 04 2a b6 be
       0.54309034 -0.38057223 -0.26556483 -0.3557893
0001f0 54 74 03 be bc 63 99 3d c3 8e f6 3e d0 e4 a1 3e
       -0.12837344 0.07489726 0.48155794 0.31619883
000200 64 0d 1c 3d 70 3a 88 be d0 82 94 bd e7 60 9b bd
       0.038098708 -0.26607084 -0.07251513 -0.07586842
000210 62 d4 e6 be d6 bf c3 3b 86 17 15 3f 56 f1 0b 3e
       -0.4508391 0.0059737964 0.5823902 0.13666281
000220 55 45 b1 3e 00 75 b1 be 3c c5 fb 3e 31 b0 10 3f
       0.3462321 -0.34659576 0.49173915 0.56518847
000230 20 f8 ca 3e 7f f6 19 3a 14 52 de be 2a 1c 21 3e
       0.3964243 0.00058732176 -0.43421996 0.157334
000240 a0 76 b8 3e 33 7b 66 bd f5 81 02 bf ef 45 d1 3e
       0.36028004 -0.056269836 -0.5097955 0.40873668
000250 1e 9c f1 bc 9e 52 06 bf 12 c5 51 3e b7 74 71 be
       -0.029493388 -0.52469814 0.20485333 -0.2357968
000260 d4 a8 0d bf 50 44 81 3e 0a 6c b9 3e 65 7e 50 be
       -0.55335736 0.2524743 0.3621524 -0.20360716
000270 65 db f3 3e 07 fb eb be cd 95 e4 be fb d4 0b 3f
       0.47628322 -0.46089956 -0.4464554 0.5462186
000280 d0 6e 02 bf 8e fd b5 be 95 5b dc be 09 a2 62 3e
       -0.50950336 -0.3554501 -0.43038622 0.22132124
000290 0d 21 4e 3e b1 be 7d be b3 1d 8a 3e f2 d6 be 3e
       0.20129795 -0.24779774 0.26975784 0.37273365
0002a0 23 6d 83 3e eb 64 1c be 70 d6 3e be 5e 07 8b 3e
       0.25669202 -0.15272872 -0.18636489 0.27154058
0002b0 6a 0f c0 3d 3f 5e c4 3e d9 8f 88 be 43 8a 02 3f
       0.0937794 0.38353154 -0.26672247 0.5099222
0002c0 5b 35 91 bd 0b 94 ee be 09 a0 45 3e 99 65 a4 3e
       -0.07090255 -0.46597323 0.1929933 0.32108763
0002d0 f1 f0 f3 be 69 c0 06 3f f7 07 c9 bd 45 40 b8 3d
       -0.4764476 0.52637345 -0.09815972 0.089966334
0002e0 72 31 08 3f 3c eb e8 be 13 4c 74 be 2d 4c 48 be
       0.5320045 -0.4549197 -0.23857145 -0.19560309
0002f0 c9 c2 d3 be 62 63 99 be f2 57 84 3e a4 d0 96 be
       -0.41359547 -0.29958636 0.25848347 -0.29456055
000300 f2 7f ef 3e cc c3 83 be 89 b0 b4 3e cd 90 48 3e
       0.46777302 -0.2573532 0.35290936 0.19586487
000310 c3 cf f5 be f3 bb 4b 3e 5e b6 91 be 24 f4 46 be
       -0.48010072 0.19895916 -0.28459448 -0.1942907
000320 78 19 cc 3e 5e 2d db be 03 3f a5 be 8d bf 9e be
       0.3986318 -0.4280805 -0.32274637 -0.31005517
000330 9a cc 68 3c 3b 3f e4 3e a4 58 8a bd 29 d1 bd 3d
       0.014208937 0.4457949 -0.06755188 0.0926841
000340 29 9a 0a 3f c0 a2 f0 3e 91 97 e5 be ab 9d bf be
       0.5414148 0.46999168 -0.44842198 -0.3742498
000350 79 73 e2 be a0 39 06 3f 5c d2 9e 3e 61 f8 fa be
       -0.44228724 0.5243168 0.31019866 -0.49017623
000360 a6 14 07 be b8 8f 72 3e 9e 04 b9 be 86 22 67 3e
       -0.1319147 0.23687637 -0.36136335 0.22571763
000370 95 5f b9 be dc 71 f5 be a7 8b 3d 3e e2 7b c3 3d
       -0.36205736 -0.4793843 0.18510304 0.09545113
000380 06 f4 9c bc 52 74 a1 bd 1a 74 85 3e a7 ce 5c bd
       -0.019159328 -0.078835145 0.2606514 -0.053908017
000390 f5 e0 ee 3e 2c b3 03 3f 53 ac 52 be d8 48 96 bb
       0.46656004 0.5144527 -0.20573549 -0.0045863204
0003a0 d4 9d c2 3e bb 9e da be 9a 81 a6 be 0d fa 75 3d
       0.38011038 -0.42699227 -0.32520753 0.06005292
0003b0 46 78 f4 be 47 ee f1 3d 8c 18 fb be 20 ac cc 3c
       -0.4774801 0.11813026 -0.49042165 0.02498442
0003c0 21 53 d4 3e 27 f8 02 3f 61 5e ba 3e df 8e 16 be
       0.41469672 0.511599 0.3640013 -0.14702938
0003d0 cf d6 f0 be 18 b8 9a be 7d 57 f4 3d fd f9 ec be
       -0.47038886 -0.30218577 0.119307496 -0.46284476
0003e0 8a 26 2f be bb 38 bf be f0 54 da 3e 85 02 92 3e
       -0.17104545 -0.3734797 0.42642927 0.28517547
0003f0 80 07 97 be 4f 64 06 3f a0 2a a1 be 46 00 e0 3e
       -0.2949791 0.5249681 -0.31477833 0.4375021

conv2.weight f4 [16, 320, 1]
000000 23 b0 34 bd 08 db 22 bc de de 1b bd d3 11 bf 3c
       -0.04411329 -0.009939916 -0.03805434 0.023323929
000010 57 06 68 bd 65 19 9b 3c 7c 57 aa 3c 40 74 be 3b
       -0.05664667 0.018933007 0.020793669 0.005812198
000020 53 a5 46 bc 43 06 0d bd ec 9d e4 3c 21 3c 12 3d
       -0.012124377 -0.0344298 0.027907334 0.035701875
000030 df 24 21 bc 4b 5b 85 bc f6 d0 81 bd a4 a7 5d bd
       -0.009835451 -0.016278883 -0.06338684 -0.054114953
000040 72 82 3a bd 2c fc 28 3c 24 34 b1 ba 0a 39 2b 3c
       -0.04553456 0.010314029 -0.0013519567 0.010450611
000050 83 de aa 3c dd ef bb bc 70 57 27 3d 08 71 05 3d
       0.020858055 -0.022941524 0.04085487 0.032578498
000060 a6 19 d0 3c a0 9f b7 bc e6 fd 18 bd e2 d7 67 bd
       0.025402855 -0.022414982 -0.03735151 -0.056602366
000070 b0 93 8b bd 6a f9 6b bd 22 46 1d bb f0 16 8e bc
       -0.068152785 -0.057610907 -0.0023998101 -0.017344922
000080 67 91 2a 3d 9f b2 16 bd 70 78 e3 bc 3d 77 37 3d
       0.041642573 -0.03679144 -0.02776739 0.04479145
000090 79 c0 10 3d 61 07 67 3c 6e 36 4c 3d 51 37 2a bd
       0.035339806 0.01410088 0.049856596 -0.04155666
0000a0 99 cd 96 bd bc 07 c4 3a 19 6b 2c bd 82 35 e4 bc
       -0.073634334 0.0014955918 -0.042094324 -0.027857546
0000b0 e0 4a 59 3d 33 5a 42 bd 83 90 c8 bc f9 7b b6 3b
       0.053049922 -0.047449302 -0.024482971 0.005568978
0000c0 f2 77 1d bd 7e 0d 03 bd 47 6f 22 3d 63 4f 0f 3d
       -0.038444467 -0.03199529 0.039656904 0.03498782
0000d0 dc 0d 04 3d ff c5 3d bd 6e d0 a6 3b 40 1e ad 3c
       0.03223978 -0.046331402 0.0050907647 0.021132588
0000e0 de 97 61 3c 4f 32 48 bd 5a 4b 2a 3c e3 0e 69 bd
       0.013769118 -0.048876103 0.010393942 -0.056898963
0000f0 f4 41 26 bc 62 75 19 bd 0f ae 8a bc 43 ba 0d 3d
       -0.01014756 -0.03746546 -0.0169287 0.03460146
000100 76 2e 39 3d dc c1 38 3c e0 a1 3a 3d da f0 44 3d
       0.045210324 0.011276688 0.045564532 0.048081256
000110 77 fa 09 bd 02 d6 93 3c 55 a9 cf bc 71 e3 8e bc
       -0.033686128 0.018046383 -0.025349298 -0.017442437
000120 a3 23 54 bd 5a 38 06 3d c0 65 13 bd d3 d0 ca 3c
       -0.0517918 0.032768585 -0.03598571 0.024757778
000130 4c e3 91 bc 16 ce 58 bd 68 68 97 bc 57 ca 3a bd
       -0.017808579 -0.052930914 -0.018482402 -0.045603123
000140 ad c8 7e bc 0f fd 6d bd af 4e 2e bd af b1 6c bd
       -0.0155507745 -0.058102664 -0.042555507 -0.05778664
000150 87 a1 2a 3b 3b 60 96 3c d3 ac e7 3b 2b 37 17 bc
       0.002603622 0.018356433 0.007070163 -0.009229462
000160 a4 5f 62 3c 11 f1 ab bc 0f 35 45 bc 76 1c 80 3c
       0.013816748 -0.020988973 -0.012036576 0.015638571
000170 d6 de 28 3d d2 03 4a bd 4f 3d 55 3d 34 41 e5 3c
       0.041228138 -0.04932005 0.05206042 0.027985193
000180 f8 63 38 bd de f5 00 3d 57 9a 00 3d 05 66 f5 ba
       -0.045017213 0.031484477 0.03139719 -0.0018722421
000190 31 f9 bc 3c b4 67 34 3b 6b 10 73 3c 2f fa 08 bd
       0.023068042 0.0027527632 0.014835457 -0.03344172
0001a0 ff e1 49 bc 3c af 40 bd 80 9a 83 3c 94 17 2b bd
       -0.012321948 -0.047042117 0.016064882 -0.041770533
0001b0 47 77 0f 3d 0b 9c 7c bd b3 b0 7c 3c 4a 70 2f bd
       0.03502586 -0.06167225 0.015422988 -0.042831697
0001c0 d4 81 6a bd ac 10 e7 3c 6c 7f 2c bd 66 59 2e 3c
       -0.05725272 0.028206192 -0.042113706 0.010641431
0001d0 28 25 29 3d d7 3c 10 bd a4 93 2c 3d ba a5 8e 3c
       0.0412952 -0.03521427 0.04213299 0.017413009
0001e0 d3 14 3c bc 70 04 f6 bb 79 7c 50 bd 07 41 5b bd
       -0.011479574 -0.007507853 -0.050899956 -0.05352881
0001f0 6f 11 3f bd 13 90 01 bd b4 47 19 bc 74 ad 02 bc
       -0.046647485 -0.03163154 -0.009355474 -0.007975925
000200 55 44 85 3c d8 bc 28 bd 90 45 cb 3c 44 c3 f5 bc
       0.016267935 -0.04119572 0.024813443 -0.030000336
000210 2a 71 68 bc 3b bb af 3c 39 74 cf bb f8 56 5c bd
       -0.014187137 0.021451583 -0.0063309935 -0.053793877
000220 cd 00 22 3d 18 3c 3e 3c 91 56 46 bd aa ca d8 bc
       0.039551545 0.011611007 -0.0484224 -0.026463825
000230 5c c1 71 3d 9d 2d f7 3c 74 79 06 bc 84 48 10 bd
       0.059022292 0.030173117 -0.008207668 -0.035225406
000240 49 fc 80 bd 87 48 2a bd b2 9d d6 3c 31 b6 1a bd
       -0.062981196 -0.041573074 0.026198242 -0.037771408
000250 ac 11 bb bc ae db 57 bb 78 b6 23 3c 97 7f af bc
       -0.022835575 -0.0032937336 0.009992234 -0.021423144
000260 a9 b4 82 3c 1b 01 40 bd 61 b8 08 bd 33 23 8a 3a
       0.015955286 -0.046876054 -0.033378962 0.0010539055
000270 74 cf 72 bd 61 9f 20 3d 70 85 9a 3b ee 67 35 3d
       -0.059279874 0.039214496 0.004715614 0.04428857
000280 7b 23 22 bd 8d 55 bd bc 2b 46 12 3d 30 c8 06 3d
       -0.039584618 -0.023112083 0.03571145 0.032905757
000290 d7 b5 1e bd e0 8b 0a bc 60 cc fd ba b3 e0 56 3d
       -0.038747635 -0.0084562 -0.0019363277 0.052460384
0002a0 a4 37 23 3d bb c8 9c 3b cf 4a 85 bd 56 0d 8a bd
       0.039847985 0.004784671 -0.06508409 -0.06740825
0002b0 26 52 15 3d d8 68 2c 3c 56 d0 16 bd dd 27 39 bb
       0.036455296 0.010523044 -0.03681978 -0.002825252
0002c0 1e 0d 20 3d e8 a5 86 bc fa 10 83 bb b9 17 47 bb
       0.03907501 -0.016436532 -0.0039998265 -0.003037913
0002d0 97 7b ca 3c 02 3a a2 bc 27 58 10 bd 4a 40 d8 bc
       0.024717135 -0.01980305 -0.03524032 -0.026397843
0002e0 07 24 3d 3d 6a 16 2b bb 4e 50 6d 3c 92 68 59 bc
       0.046176936 -0.002610589 0.014484478 -0.01326956
0002f0 5f 5c 44 bd ff 3a 41 3d df 85 dc bc e9 4c 94 bc
       -0.047939654 0.047175404 -0.026919303 -0.01810308
000300 0f 45 c6 bc 77 b3 2b bd b5 f7 00 3d 72 24 98 bc
       -0.024202852 -0.041919198 0.03148623 -0.018572066
000310 23 a5 2f 3b bd 5f e0 bc 3b b9 7e bd 78 c2 25 3c
       0.002680131 -0.027389402 -0.06218837 0.010117166
000320 c0 1b 87 3b c5 f5 0e bd 5a d6 37 bd 02 12 b0 bc
       0.004123181 -0.034902353 -0.044882156 -0.021492962
000330 1a f3 7d bd 92 74 a8 bc 9e e8 d1 3c a6 19 06 3d
       -0.061999418 -0.020563398 0.025623616 0.032739304
000340 87 53 9d bc 86 9e 8b bd 1a 46 3c bb 41 03 c7 bc
       -0.019204868 -0.06817345 -0.0028728307 -0.024293544
000350 06 f8 4a 3d 25 fe 30 bd c4 13 42 bc e5 bc 12 3d
       0.04955294 -0.04321112 -0.011845533 0.035824675
000360 28 47 00 bd a4 d2 45 bd ad ac 71 bd 91 5f fc 3b
       -0.03131786 -0.048296586 -0.059002567 0.007701822
000370 17 90 7d bd 7a 08 09 3d d7 fd 07 3d e9 6b 09 bb
       -0.061904993 0.03345535 0.033201065 -0.002096886
000380 8c af 52 bd c2 7d 4d 3d c5 8e 1f 3d cf a5 73 bd
       -0.051436946 0.05016876 0.038954515 -0.0594843
000390 b0 45 a0 bc d2 93 0f bd 16 ad 57 bd 05 06 db 39
       -0.01956448 -0.03505308 -0.052655302 0.0004177542
0003a0 9e 20 ec 3c 63 38 25 3d 16 b6 fb bc 65 b4 17 bd
       0.028824147 0.040336978 -0.030726474 -0.037037272
0003b0 e9 f4 2c bc f9 3b cd 3a 3d a8 9c 3c 54 0f 83 bc
       -0.010556438 0.0015658132 0.019123191 -0.01599852
0003c0 92 e9 04 bd 46 f6 4f 39 a3 0e c2 3c ff 06 cd bc
       -0.032449313 0.00019832802 0.02368862 -0.02502775
0003d0 01 78 03 3d 38 2b e8 bc 33 96 c3 3c 4c ab 30 bd
       0.032096867 -0.02834092 0.023875332 -0.04313211
0003e0 0a 6d f8 3b cf 02 2b 3d fd 6f 63 3c 21 b5 1b 3d
       0.007581358 0.041750725 0.013881681 0.038014535
0003f0 4b 97 1f 3d 9b 79 86 bc 1c db 15 bc b5 54 b9 3c
       0.038962644 -0.016415408 -0.009146478 0.0226234

conv2.bias f4 [16]
000000 e0 96 51 bd 1e 67 2d 3d 9f 0e d2 3c 25 51 d3 ba
       -0.051169276 0.04233467 0.025641738 -0.0016122205
000010 27 8c 6d bd 4f 24 2e 3c d8 02 52 3c 6e a2 bb bc
       -0.057994988 0.010628774 0.012818061 -0.022904601
000020 94 e0 d4 3c a7 c3 f9 bc 25 25 39 3d 3c bc 89 3d
       0.025985993 -0.030488802 0.04520144 0.06725356
000030 ca 07 10 bd ee 06 31 bc 33 86 4a bd b1 d9 e5 39
       -0.03516368 -0.010804875 -0.04944439 0.00043840476

conv3.weight f4 [64, 16, 1]
000000 0f 91 ee 3c 8c 8b 07 3c 50 a1 3b 3e 3d bf 5d bc
       0.029121904 0.008273017 0.18323255 -0.013534364
000010 86 ce b2 3d 8a 60 ae bc 89 f2 b4 bd b0 20 74 3e
       0.087307975 -0.021286268 -0.088353224 0.23840594
000020 0a 0a 6e be 78 a1 fd bd b9 32 41 bd 6f 8c 37 3e
       -0.23246017 -0.12384313 -0.047167514 0.17924665
000030 ce 06 39 3e 5c aa 61 bd ca 31 58 be 87 e5 c3 bd
       0.18069002 -0.055094108 -0.21112743 -0.09565263
000040 69 13 31 3e 71 52 fc bd 58 3c 62 bd 41 2c 42 3e
       0.1729256 -0.12320412 -0.05523333 0.18962194
000050 70 96 88 3e a0 7d 51 3e 25 d9 56 be d9 b2 b1 bd
       0.26677275 0.20458078 -0.20981272 -0.086766906
000060 64 1b 7d be 71 d1 73 3e 4c d4 0f 3e 45 60 be 3c
       -0.2471748 0.23810364 0.14045829 0.023239264
000070 bd bc c4 bb c7 7d 57 be bb 67 62 bd bc 1e 1e be
       -0.0060039447 -0.21044074 -0.055274706 -0.15441412
000080 a7 1c 60 be e3 dc 00 be d9 cb 4e 3e ca 25 25 3d
       -0.2188593 -0.12584262 0.20194949 0.04031924
000090 36 ab 42 be f8 25 8a bb e8 dd 3f be 04 9f f4 bc
       -0.19010624 -0.004215952 -0.18736994 -0.02986098
0000a0 e5 17 34 be c1 c8 38 3e d3 43 46 be fa fb 85 bd
       -0.1758724 0.18045332 -0.1936181 -0.06542201
0000b0 b7 cb e2 3d 0a 3b 13 3d b7 67 45 be c0 24 16 be
       0.11074012 0.035944976 -0.19277845 -0.14662457
0000c0 0b 8a 35 bd 66 e6 1b 3c ae b0 6c 3c 62 4b 58 be
       -0.0443211 0.0095153805 0.014446421 -0.21122506
0000d0 24 86 62 be 92 3d 67 bd 1e 87 0d be 75 8a 4d be
       -0.22121483 -0.056455202 -0.13821074 -0.20072348
0000e0 34 b4 fd bd bf 83 4b bd 06 d7 f7 3b dd 5e fa bc
       -0.12387887 -0.04968619 0.0075634746 -0.030562812
0000f0 b7 c0 7b bd a8 7d 21 be 0b 91 40 3d 10 72 e5 3d
       -0.061463084 -0.1577059 0.047013324 0.11203396
000100 36 ec f0 bd 39 3e 3f 3e 8d 6b 15 bd f0 9d 46 be
       -0.11763804 0.1867608 -0.03647952 -0.19396186
000110 c6 92 c9 bd aa 8d 7e 3d 1e 5f 63 3e 4f 49 fa 3d
       -0.09842448 0.06214682 0.22204253 0.12221014
000120 d6 a6 d4 3d d8 09 11 be ea d7 21 be c7 c5 09 be
       0.10383384 -0.14163911 -0.15805021 -0.13454352
000130 b3 df f3 3d 7b 5f f8 39 c0 96 aa bd cb 71 a3 3d
       0.119079016 0.00047373385 -0.083295345 0.07980689
000140 60 86 69 bd 01 be 16 3e 7d c5 3b 3b 67 18 08 3c
       -0.057012916 0.14720918 0.0028651648 0.008306599
000150 f0 9c 0a 3e dc ae 76 be 10 a7 7b 3d b7 23 e9 3d
       0.1353643 -0.24090141 0.06143862 0.11383765
000160 fa 3f 5e 3d 62 aa 03 be 00 e8 17 3e e1 4a c4 3d
       0.05426023 -0.12857965 0.14834595 0.095845945
000170 a2 55 56 3e 46 23 8d bc 6b 45 9e 3c 8b b6 d2 3c
       0.20931104 -0.017228734 0.01932021 0.025721809
000180 71 99 15 bb 50 85 13 3e 9f 3c 60 3e c5 46 87 3e
       -0.0022827054 0.14406323 0.21898125 0.2642118
000190 c5 ee 78 3e f3 57 21 3e 33 46 63 3e 60 d0 e8 3d
       0.24309833 0.15756206 0.22194748 0.113678694
0001a0 ef fb 13 3d 65 f5 39 bd 71 ea 27 3c 5d c2 ee 3d
       0.036128934 -0.045400042 0.010248766 0.116581656
0001b0 0a 29 80 be ac a0 2d bc d0 c8 e6 bd 30 80 5e 3e
       -0.2503131 -0.010597389 -0.11268771 0.21728587
0001c0 81 da 28 3c a2 0f cb bd 7f 2c 05 be 7f 58 6f bd
       0.010306002 -0.09915091 -0.13005255 -0.058434006
0001d0 64 ce 80 3d e4 4c 18 3e 33 16 4b bd a9 ca 5b be
       0.06289366 0.14873081 -0.049581718 -0.21464027
0001e0 4c 04 3e 3b 83 c7 af 3d e2 0c 46 3e 35 fe e5 3d
       0.002899426 0.08582976 0.19340852 0.11230127
0001f0 ab ee be bd 26 72 e8 bd 30 2d f3 3d 2e c5 66 3e
       -0.09322866 -0.11349897 0.11873853 0.22536156
000200 27 60 59 3e 24 27 dd 3a 30 88 85 bc f5 58 7e be
       0.21228085 0.0016872627 -0.01630029 -0.24838622
000210 41 fe b1 bd fb 97 a8 bd 4a 84 01 be 2a fb 81 be
       -0.08691073 -0.08232113 -0.1264812 -0.25386935
000220 73 21 5d 3e 22 5b 16 3e cf 77 aa 3d a4 3b f7 3d
       0.21594791 0.14683202 0.08323633 0.120719224
000230 92 0d 0c be 0a 45 0d bc 89 d6 3f be a5 c9 ec bd
       -0.13677052 -0.008622417 -0.18734182 -0.11561898
000240 75 a0 69 be 0a 5e 04 bd 45 8e 80 3e 57 eb 63 be
       -0.22815116 -0.032316245 0.25108543 -0.22257744
000250 3c cf 1b 3c 58 21 b8 bd c7 f9 d0 bc b1 90 f5 bc
       0.009509858 -0.08990735 -0.025509728 -0.02997622
000260 b9 ff 49 3d 78 1e b7 bd 42 d1 cb 3c 4c a1 01 3e
       0.04931614 -0.08941358 0.024880055 0.12659186
000270 2c f6 f8 3d 50 a4 5e 3e 89 75 c2 bc ea b7 a2 3d
       0.121563286 0.21742368 -0.023737686 0.07945235
000280 9d 8d 7b be f1 68 9c 3c d8 22 83 be 51 49 ff bd
       -0.2456574 0.019093009 -0.2561252 -0.12465156
000290 d3 4a 2e be 5f f5 27 bd 3c 0f 62 be 93 fa 18 3e
       -0.1702073 -0.04100549 -0.22076124 0.14939336
0002a0 1c d0 21 3e d4 97 cb 3d 3c 76 e3 3d 3b e7 69 be
       0.15802044 0.09941068 0.11106536 -0.22842114
0002b0 24 e6 76 be c8 e1 0b 3d 7a fa 58 bd 87 5e aa bd
       -0.24111229 0.03415087 -0.052973248 -0.08318811
0002c0 39 b3 b3 bd 18 cd 5c be a6 67 48 3e 73 f7 b1 bd
       -0.087744184 -0.21562612 0.19570789 -0.08689775
0002d0 e3 93 50 bc d4 67 65 be f2 84 38 3e 87 6e a1 3b
       -0.012730571 -0.22402889 0.18019465 0.004926506
0002e0 d3 60 b3 3d f6 2f 7a 3e 56 e5 73 3e 14 b7 18 be
       0.08758702 0.24432358 0.23817953 -0.14913589
0002f0 71 1e 66 be f1 da 7f 3d e9 ec 2d be ea fc 8c 3a
       -0.2247255 0.06246466 -0.16984905 0.0010756527
000300 3b b6 2e 3a af 36 24 3d db 34 fc 3c 2b 48 8b 3e
       0.00066647277 0.040091213 0.030786922 0.27203497
000310 72 23 0e 3e 10 49 51 3e 50 4a fc 3c 82 67 29 3e
       0.13880709 0.20438027 0.030797154 0.16543391
000320 a5 14 73 be f6 af 5c be 3d 0b d0 bd c3 2b 12 be
       -0.23738344 -0.21551499 -0.101583935 -0.14274506
000330 e4 b5 c0 bd 85 0a 61 3d bb c3 4b bb 3b af 24 be
       -0.09409693 0.054941673 -0.0031092006 -0.1608247
000340 be b0 fe 3d 05 c5 43 be 96 f6 b5 bd 73 43 0c be
       0.12436055 -0.19118126 -0.08884923 -0.13697605
000350 e5 f9 42 3e b6 ce 56 be 5c 3d 57 3e 37 03 58 be
       0.1904064 -0.20977291 0.210195 -0.21094976
000360 fc ba 2d be a5 a0 f6 bc 6f e3 21 bd 67 a8 91 3d
       -0.1696586 -0.030105898 -0.03952354 0.07112198
000370 a8 c4 14 3e 7a e4 00 be 90 ae 21 3e dd 78 76 3e
       0.14528143 -0.12587157 0.15789247 0.24069543
000380 cf 0c 2d be 93 30 ba 3d 0c 17 3e be 74 7a b9 bd
       -0.16899417 0.09091296 -0.18563479 -0.09056559
000390 65 5c ec bc 64 45 0f 3d 2f 15 0c be d9 90 7b 3d
       -0.02885265 0.034978285 -0.13679956 0.061417434
0003a0 c2 af c5 bd a9 40 47 bd 30 86 73 be 00 92 cf bd
       -0.09652664 -0.04864565 -0.23781657 -0.10135269
0003b0 26 60 4a 3e 08 35 51 3e c4 78 43 be b5 2d 4b be
       0.1976324 0.20430386 -0.19089037 -0.19841655
0003c0 de 0c ce bd 9d 5c 32 bd d1 48 be 3d a3 15 01 3e
       -0.10061048 -0.043545354 0.092912324 0.1260591
0003d0 68 aa f4 3c 46 28 00 3b e2 43 a5 3d 73 ef 31 be
       0.029866412 0.0019555255 0.08069588 -0.17376499
0003e0 5c f4 36 3e 73 0b 0d be eb a4 5e be 9d 80 24 bd
       0.17866653 -0.13773899 -0.21742599 -0.040161718
0003f0 b3 14 69 be 0c 2f 78 3d d5 50 d8 bc ff be 5d be
       -0.22761802 0.060591742 -0.026405731 -0.2165489

conv3.bias f4 [64]
000000 51 b9 ce 3d a2 1d 7d be 9d 5e 38 3e 6c 8e 28 3e
       0.1009394 -0.24718335 0.18004842 0.1646058
000010 18 66 ba bd a7 dd 3d 3e 58 fb 5c 3e b5 b3 c8 3d
       -0.09101504 0.18541585 0.21580255 0.097999014
000020 6f 01 2b 3e 5a 3f 49 3e 88 45 e2 bc 15 b3 f4 bd
       0.16699766 0.19653073 -0.027621046 -0.1194822
000030 de 1b 67 3e 32 2c 03 3e b1 06 e8 3d dd 0b 47 3e
       0.22569224 0.12809828 0.11329401 0.19438119
000040 28 55 db bd 0e 0d 13 3d 7e cc 18 be 17 4f 98 bd
       -0.10709602 0.03590112 -0.14921758 -0.0743696
000050 b9 ab 82 be 1a 1a 51 be c4 30 54 be 9f bd 77 be
       -0.2552164 -0.20420113 -0.20721728 -0.24193428
000060 cb 7b 7e be 1a 28 7b be 98 60 64 3e cc c6 4b 3e
       -0.24851911 -0.24527016 0.22302473 0.19900054
000070 2a 4e 3c bd bf 49 45 be 16 6b 08 be d1 88 59 be
       -0.04597298 -0.19266413 -0.133221 -0.21243598
000080 03 6c 5b be 02 7c fd bc 12 00 54 3e c6 6a 98 3c
       -0.21427922 -0.03094292 0.20703152 0.018605601
000090 01 c5 3d bc 50 c9 39 be b0 2d 7c 3e b0 79 4d 3e
       -0.011582614 -0.18143201 0.24626803 0.20065951
0000a0 34 a1 0c be 6f ca 39 3e 5b d3 4c be 15 5f 51 be
       -0.13733369 0.18143629 -0.200025 -0.20446427
0000b0 9d 8d 5d be be b9 69 be c0 54 9c 3d 08 87 38 3d
       -0.21636052 -0.22824761 0.07633352 0.04505065
0000c0 14 49 7c be 8f e4 ad 3d ac 55 01 3d 49 82 6e be
       -0.24637252 0.0849086 0.031575844 -0.23291887
0000d0 ae ed f7 bd 60 3e 0d 3e 15 93 4e bd 4c 1f 58 3e
       -0.12105881 0.13793325 -0.050433237 0.21105689
0000e0 77 95 bc bd 55 26 1a 3d c2 2c 60 3e 6c 9f 0c 3d
       -0.09208196 0.037634213 0.21892074 0.034331724
0000f0 41 24 a4 3d 54 4b 20 3e 20 70 8d bd 56 fb 19 be
       0.080147274 0.15653735 -0.06906152 -0.15037283

conv4.weight f4 [1, 64, 1]
000000 4f bf c1 bc fb 8e ec 3d 5d 8b d2 bc 63 47 c5 ba
       -0.023650793 0.11550709 -0.02570122 -0.0015051182
000010 bd 6d e0 bd 03 86 c0 3d bf 97 b0 3d d1 59 f8 3d
       -0.10958431 0.09400561 0.08622693 0.12126506
000020 f6 18 6b bd df e4 ef bd 43 ab a9 3c 0b e7 16 3d
       -0.05739685 -0.117135756 0.020711547 0.036841433
000030 2e 3e a6 3d 12 b9 e4 3d 7d 73 27 bd 3d 95 b0 bd
       0.081173286 0.11168112 -0.040881623 -0.08622215
000040 50 bd bf 3d 78 14 02 bd 55 29 98 3d 23 32 5b bd
       0.0936228 -0.0317578 0.074297585 -0.05351461
000050 39 b6 65 bd 61 6f b6 3d 8f bd 69 bc b2 2f d5 bd
       -0.056081984 0.089079626 -0.014266386 -0.10409488
000060 61 bf 8d 3d b8 ee a8 3d 57 63 1a bd 65 29 ea 3d
       0.06921268 0.08248657 -0.037692394 0.11433677
000070 e8 b0 cb 3d 16 b0 bc bd b9 af 5b 3d 3f 7d a8 ba
       0.099458516 -0.09213273 0.05363438 -0.0012854709
000080 80 61 49 bd eb ce cc bc b2 8d a2 bd dd d8 61 3c
       -0.04916525 -0.02500101 -0.079371825 0.013784614
000090 34 35 ca 3d cc 49 93 3d 63 ad 00 be d0 a1 51 bc
       0.09873429 0.0719181 -0.12566142 -0.012794927
0000a0 1d 6d 79 3c c5 82 90 bb 44 e7 86 ba af 11 a9 bd
       0.015223769 -0.00441012 -0.0010292311 -0.08255326
0000b0 04 0b f3 3d 40 37 9b bd f8 57 cd 3d 5f 68 b2 3c
       0.118673354 -0.075788975 0.10026544 0.021778284
0000c0 b0 a8 31 3d fe cc 5d 3c 1c ad 6c bd 44 9f 83 bd
       0.043373764 0.0135376435 -0.057782277 -0.06426862
0000d0 d1 45 ee bb 90 27 a3 bd 09 2e 81 3d 5c 99 b2 bd
       -0.0072715064 -0.0796653 0.06307609 -0.08720657
0000e0 0b 64 80 bd cc f2 88 3d eb 16 e1 bc 20 7e dd bd
       -0.06269082 0.06686935 -0.027476748 -0.10815072
0000f0 1b 72 db bd ba 96 ab bd 8a 38 41 bd 42 19 af 3d
       -0.10715123 -0.08378358 -0.04717306 0.085497394

norm1.weight f4 [320, 64]
000000 ff 73 7f 3f 20 cc 7f 3f 86 dc 7e 3f f0 1b 7f 3f
       0.9978637 0.99920845 0.9955524 0.99652004
000010 6a 53 7f 3f 83 c0 7f 3f ab a5 7f 3f c1 c5 7f 3f
       0.99736655 0.99903125 0.99862164 0.99911124
000020 63 52 7f 3f 9f 62 7f 3f 1c 50 7e 3f 5d 3d 80 3f
       0.9973509 0.9975986 0.9934099 1.0018727
000030 1e 41 7f 3f e3 45 80 3f cc 1f 80 3f a5 59 7f 3f
       0.99708736 1.0021328 1.0009704 0.9974616
000040 95 0a 80 3f 7a b3 7f 3f e2 57 7f 3f 72 89 7f 3f
       1.0003229 0.99883235 0.99743474 0.998191
000050 13 b6 7f 3f d1 fe 7f 3f 4f 01 80 3f e6 1f 80 3f
       0.998872 0.99998194 1.0000399 1.0009735
000060 85 2e 80 3f 50 3b 80 3f 56 32 80 3f 70 78 80 3f
       1.0014197 1.0018101 1.0015361 1.0036755
000070 58 49 80 3f d2 cc 80 3f 3e e8 80 3f 7c 11 80 3f
       1.0022383 1.0062506 1.0070875 1.0005336
000080 1c 3f 81 3f bb 12 7e 3f df 00 80 3f 31 f8 7e 3f
       1.0097384 0.9924733 1.0000266 0.9959746
000090 46 78 80 3f 9f 11 80 3f 5c 40 7f 3f 9b 0e 80 3f
       1.0036705 1.0005378 0.9970758 1.0004457
0000a0 ac 19 80 3f 6a ed 7f 3f a5 24 80 3f 0d 64 7f 3f
       1.0007834 0.9997164 1.0011183 0.9976204
0000b0 07 17 80 3f 24 e5 7e 3f fe 19 80 3f 58 fc 7f 3f
       1.0007027 0.9956839 1.0007932 0.9999442
0000c0 ab 41 7f 3f 9f 08 80 3f 9a a4 7f 3f 71 ce 7e 3f
       0.99709576 1.0002631 0.9986054 0.99533755
0000d0 09 4b 7f 3f 61 8e 7f 3f 93 a2 7f 3f 22 f1 7f 3f
       0.9972387 0.9982663 0.99857444 0.99977314
0000e0 15 7e 7f 3f af 22 7f 3f b5 46 7f 3f 4c 11 80 3f
       0.9980176 0.996623 0.99717265 1.0005279
0000f0 28 2a 80 3f 1d a0 7e 3f 18 0f 7f 3f 67 0c 7f 3f
       1.0012865 0.99463063 0.99632406 0.996283
000100 3d dc 7f 3f ad 01 80 3f ba d3 7e 3f 77 55 7f 3f
       0.9994543 1.0000511 0.9954182 0.99739784
000110 94 a6 7f 3f 2a d8 7f 3f 28 f9 7f 3f e0 39 80 3f
       0.99863553 0.99939215 0.9998956 1.0017662
000120 6b b4 7f 3f 66 a3 7f 3f 80 21 7f 3f 94 35 80 3f
       0.9988467 0.998587 0.9966049 1.0016351
000130 15 75 7f 3f f3 35 80 3f 40 1c 80 3f a0 48 7f 3f
       0.9978803 1.0016464 1.0008621 0.9972019
000140 08 10 80 3f 95 28 7f 3f fc 3b 7f 3f ba d4 7f 3f
       1.0004892 0.996713 0.99700904 0.9993397
000150 d4 b8 7f 3f f0 2f 80 3f 90 32 80 3f 4a 27 80 3f
       0.998914 1.0014629 1.001543 1.001199
000160 92 76 7f 3f d8 07 80 3f a1 41 81 3f 2f 75 82 3f
       0.997903 1.0002394 1.0098153 1.0192012
000170 65 d3 82 3f 7a 08 85 3f d8 73 82 3f 46 19 80 3f
       1.0220762 1.0393212 1.0191603 1.0007713
000180 72 9c 80 3f 2f 07 80 3f 40 05 7c 3f 81 9e 7f 3f
       1.0047743 1.0002192 0.9844551 0.9985123
000190 83 3c 81 3f 03 46 80 3f 01 b7 7f 3f 8a f0 7f 3f
       1.0096592 1.0021366 0.99888617 0.9997641
0001a0 3d d2 7f 3f 2d f1 7f 3f 71 35 80 3f 3e ea 7f 3f
       0.99930173 0.9997738 1.0016309 0.999668
0001b0 64 e8 7f 3f 54 a6 7e 3f 71 bc 7f 3f d0 6d 7f 3f
       0.99963975 0.99472547 0.99896914 0.99776936
0001c0 63 b0 7f 3f ed 11 80 3f d7 a3 7f 3f 78 27 7f 3f
       0.9987852 1.000547 0.99859375 0.996696
0001d0 6a ae 7f 3f ac 9c 7f 3f 2b 2b 7f 3f 91 58 7f 3f
       0.9987551 0.9984844 0.99675244 0.99744517
0001e0 18 ae 7f 3f 7f f0 7e 3f e0 55 7f 3f 9f ff 7f 3f
       0.9987502 0.9958572 0.9974041 0.9999942
0001f0 4f 3d 80 3f ab 44 7e 3f 4a f5 7e 3f 38 d0 7e 3f
       1.001871 0.9932353 0.9959303 0.99536467
000200 ed 16 80 3f 7a 49 7f 3f 37 91 80 3f 62 4c 80 3f
       1.0006996 0.9972149 1.0044316 1.002331
000210 3e 0e 80 3f 9d 11 80 3f ed 3c 7f 3f 1d 90 7f 3f
       1.0004346 1.0005375 0.9970234 0.99829274
000220 af 74 80 3f e0 0f 80 3f ee 48 80 3f 38 83 7f 3f
       1.0035609 1.0004845 1.0022256 0.998096
000230 ea 45 80 3f 61 e9 7f 3f c3 94 7f 3f 52 42 80 3f
       1.0021336 0.9996548 0.9983637 1.0020239
000240 43 06 80 3f 63 ff 80 3f f9 54 80 3f be 1c 80 3f
       1.0001911 1.0077938 1.0025932 1.0008771
000250 85 1b 80 3f ef bc 7f 3f e1 aa 7f 3f 59 cc 7f 3f
       1.0008398 0.99897665 0.99870116 0.99921185
000260 0e 3b 80 3f aa c3 7f 3f 97 f1 7e 3f f4 31 7c 3f
       1.0018022 0.99907935 0.99587387 0.9851372
000270 91 a2 80 3f 89 37 7b 3f bd 70 7b 3f 95 29 80 3f
       1.0049611 0.98131615 0.982189 1.001269
000280 c2 7e 80 3f 73 2c 7a 3f 64 36 7f 3f d9 40 80 3f
       1.0038683 0.97724074 0.9969237 1.001979
000290 37 99 7d 3f 63 5a 7f 3f 66 c2 7f 3f 1c 9b 7f 3f
       0.9906191 0.99747294 0.99906003 0.99846053
0002a0 b6 19 80 3f 5e 1e 80 3f 75 cd 7f 3f 98 9c 7f 3f
       1.0007846 1.0009267 0.9992288 0.9984832
0002b0 03 5d 80 3f 5e a6 80 3f 90 0d 80 3f ab 64 80 3f
       1.0028385 1.0050771 1.0004139 1.0030721
0002c0 13 40 80 3f ef c9 7f 3f 41 21 80 3f 68 44 80 3f
       1.0019554 0.999175 1.0010148 1.0020876
0002d0 52 22 80 3f 9d 69 80 3f a1 97 80 3f 74 8d 80 3f
       1.0010474 1.0032231 1.0046273 1.0043168
0002e0 8f 52 80 3f 37 73 80 3f ca 3f 80 3f 95 a7 7f 3f
       1.0025195 1.0035161 1.0019467 0.99865085
0002f0 c2 85 7f 3f da e2 80 3f c0 78 80 3f b6 cb 80 3f
       0.99813473 1.006923 1.003685 1.0062168
000300 b6 2d 80 3f 6f 04 80 3f ba 98 80 3f eb 4e 80 3f
       1.001395 1.0001353 1.0046608 1.0024084
000310 2e 36 80 3f 65 13 80 3f 11 12 80 3f 73 b5 7f 3f
       1.0016534 1.0005919 1.0005513 0.99886245
000320 a9 43 80 3f 28 33 80 3f 7d 7b 80 3f a8 87 7f 3f
       1.0020648 1.0015612 1.0037686 0.9981637
000330 ad 47 80 3f c6 80 7f 3f 79 a7 7f 3f d9 53 80 3f
       1.0021874 0.9980587 0.9986492 1.0025588
000340 03 dd 7f 3f b3 58 80 3f 63 60 80 3f 5c 18 80 3f
       0.9994661 1.0027069 1.0029415 1.0007434
000350 38 07 80 3f 62 c5 7f 3f 38 a1 7f 3f 16 a0 7f 3f
       1.0002203 0.9991056 0.99855375 0.99853647
000360 9d 3d 80 3f 9c ef 7f 3f 5b 0c 7e 3f 02 cd 7c 3f
       1.0018803 0.9997499 0.992376 0.9875032
000370 53 ff 81 3f 36 1a 7d 3f aa 00 7d 3f 82 b3 80 3f
       1.0156044 0.9886812 0.9882914 1.0054781
000380 e0 fa 7d 3f ce c2 80 3f e2 08 80 3f ac 34 7d 3f
       0.9921093 1.005945 1.0002711 0.98908496
000390 c3 cf 7e 3f cd ad 7f 3f 3d 33 80 3f 6b f4 7f 3f
       0.9953577 0.99874574 1.0015637 0.9998233
0003a0 d2 e7 7f 3f e6 0e 80 3f ac ac 7f 3f f9 01 80 3f
       0.99963105 1.0004547 0.9987285 1.0000602
0003b0 87 0c 80 3f e2 99 80 3f 5f f0 7f 3f db 21 80 3f
       1.0003823 1.0046961 0.9997615 1.0010332
0003c0 e2 50 80 3f 2e dd 7f 3f a3 36 80 3f 9f 76 80 3f
       1.0024683 0.9994687 1.0016674 1.00362
0003d0 2b 38 80 3f 76 3f 80 3f 68 41 80 3f 6e 37 80 3f
       1.0017141 1.0019367 1.001996 1.0016916
0003e0 03 3d 80 3f a4 7c 80 3f 20 3d 80 3f 8f ae 7f 3f
       1.0018619 1.0038037 1.0018654 0.9987573
0003f0 c7 93 7f 3f 7d cc 80 3f e1 83 80 3f 01 95 80 3f
       0.99834865 1.0062405 1.0040246 1.0045472

norm1.bias f4 [320, 64]
000000 fc a7 26 3b 41 b4 92 3a 73 08 91 3b 08 76 6e 3b
       0.0025429716 0.0011192636 0.004426056 0.003638627
000010 37 ef 46 3b ec 3f aa 3a 44 65 b2 3a de 63 99 3a
       0.0030354986 0.0012989021 0.0013610502 0.0011702736
000020 d6 ef 3a 3b dc 92 35 3b ba e6 dd 3b af 5b b7 ba
       0.00285243 0.0027705943 0.0067718895 -0.0013989116
000030 29 9f 24 3b 28 f3 0a bb 51 0d 1c ba 7a 70 28 3b
       0.002511928 -0.0021202061 -0.0005952912 0.0025701807
000040 50 7a d3 b8 b4 8a 52 3a e3 03 18 3b 47 35 0c 3b
       -0.000100840465 0.00080315326 0.0023195676 0.002139406
000050 10 3e a2 3a b2 a0 9b 39 f0 ef 2e b9 48 39 30 ba
       0.0012378115 0.0002968363 -0.00016683317 -0.0006722403
000060 59 e8 98 ba ba 10 d9 ba 2b 6e b8 ba 60 da 77 bb
       -0.0011665925 -0.0016560771 -0.0014070919 -0.003781937
000070 ae 61 15 ba fa 99 40 bc 00 e0 2e bb 26 b0 5c ba
       -0.00056984543 -0.011755461 -0.0026683807 -0.0008418582
000080 21 f5 16 bc 69 b6 27 bc 87 b1 2b 39 c1 58 d4 b7
       -0.009213717 -0.010236361 0.00016373965 -2.5313699e-05
000090 98 6e 73 bb 4f 4d 07 3b 2f cb 35 3b c2 ae 4d ba
       -0.0037144776 0.0020645445 0.0027739515 -0.00078461703
0000a0 74 a1 a0 ba 07 dd 16 3a b7 f0 6b ba 1c e0 36 3b
       -0.0012255148 0.00057549815 -0.0009000408 0.0027904576
0000b0 fc 57 9c ba c3 22 7a 3b 74 5c 97 ba 5c 94 21 b9
       -0.0011928077 0.0038167692 -0.0011547939 -0.00015409425
0000c0 e8 dd 3d 3b 35 91 ba 39 cb 98 85 3a 99 03 92 3b
       0.0028971378 0.00035584872 0.001019263 0.0044559953
0000d0 de aa 14 3b ee ce ee 3a e0 9d 39 3a 1e e3 f3 b8
       0.0022684853 0.0018219629 0.0007080715 -0.00011629447
0000e0 3b 21 da 3a d6 c2 47 3b 90 13 5a 3b 11 60 1d b9
       0.0016641984 0.0030481122 0.003327582 -0.00015008474
0000f0 09 d9 78 ba 6f 4c a7 3b cc 51 54 3b 92 38 59 3b
       -0.000949279 0.005105547 0.0032397388 0.003314529
000100 fc 74 47 3a ac 8d 5c 39 2d a8 92 3b 98 03 3d 3b
       0.00076086796 0.00021033612 0.0044756145 0.0028841253
000110 31 d3 f6 3a 71 2c 82 3a f0 1b f2 b7 e0 1d a3 ba
       0.001883125 0.0009931457 -2.8861657e-05 -0.0012444817
000120 bf d8 ca 3a 9b f3 d8 3a 9e d3 6c 3b 07 11 80 ba
       0.0015475972 0.0016552092 0.0036136876 -0.00097707
000130 0c 67 cd 3a 1f ca b5 ba 48 aa 01 ba 4c 57 2d 3b
       0.0015670969 -0.0013869441 -0.00049463334 0.0026449738
000140 6f 68 e4 b8 0a 24 4b 3b 7d 6a 24 3b 5d 4c 99 3a
       -0.000108913395 0.0030996823 0.0025087886 0.0011695732
000150 fa 7f a2 3a 40 e8 7a ba 59 75 c4 ba 0c ca 44 ba
       0.0012397759 -0.0009571351 -0.0014988586 -0.0007506914
000160 7c fb 19 3b f7 54 2e b8 ed f6 0e bb 72 c8 cf bb
       0.0023495844 -4.1563962e-05 -0.002181466 -0.0063410336
000170 b0 54 90 ba 25 9b 30 bc 83 00 bc bb 02 e8 78 bb
       -0.0011011567 -0.010779177 -0.0057373657 -0.0037980084
000180 96 13 e5 3b d1 bc 31 b9 52 e3 37 bc a0 14 07 bc
       0.00699086 -0.00016950375 -0.011223631 -0.0082446635
000190 72 b6 9f bb 34 10 3c ba f9 94 34 3a 49 41 8c b9
       -0.004874044 -0.00071740453 0.0006888654 -0.00026751522
0001a0 ad 8f 2f 39 d8 ba 04 3a 0c 14 c0 ba a0 de 58 3a
       0.00016742824 0.0005063242 -0.0014654412 0.000827292
0001b0 d0 9f 16 b9 62 91 94 3b 7a 5c 21 3a 2b 98 fa 3a
       -0.0001436465 0.0045339325 0.00061554427 0.0019118836
0001c0 19 fd b0 3a 3a a4 cc 38 4f 89 67 3a 51 e5 49 3b
       0.0013503163 9.7580676e-05 0.0008832411 0.003080685
0001d0 e6 df 6f 3a 69 b4 03 3b 02 ed 1d 3b 4d 3e 14 3b
       0.000915049 0.0020096547 0.0024097566 0.0022620142
0001e0 9d dd 89 3a c9 91 6c 3b 76 26 4e 3b ec 91 14 3a
       0.0010518316 0.0036097637 0.003145603 0.0005667496
0001f0 60 9d b3 ba 99 87 ce 3b 0d 8a 5d 3b 9b e3 88 3b
       -0.0013703518 0.0063027856 0.0033804209 0.0041775233
000200 5f 42 85 ba 56 84 1e 3b 73 6a 93 bb ce 79 2b bb
       -0.0010166875 0.0024187765 -0.0044987737 -0.002616513
000210 16 0e 84 ba a1 34 84 ba 37 77 42 3b 11 de a3 3a
       -0.0010074999 -0.0010086485 0.0029673108 0.0012502094
000220 05 16 7f bb d8 d3 53 ba 3a ea 25 bb 0a b0 a7 3a
       -0.0038923037 -0.00080805784 -0.0025316612 0.0012793553
000230 88 94 d5 ba 4c 70 7a 39 8f 1c 96 3a 4b ce fe ba
       -0.0016294876 0.00023883692 0.0011452603 -0.0019440142
000240 98 2b 0d ba 8d 1e f3 bb 32 e8 0c bb 5e be b5 ba
       -0.0005385219 -0.0074194134 -0.0021500704 -0.0013865938
000250 dd eb 79 ba f8 16 1a 3a 27 f0 b4 3a 13 9d c8 39
       -0.00095337426 0.00058780564 0.0013804481 0.00038264002
000260 ae 54 0f bb 87 28 32 3a 58 51 37 3b 02 cc 34 3c
       -0.0021870541 0.00067962 0.0027972069 0.011034967
000270 bd 92 b9 bb 74 90 73 3c 90 46 89 3c 45 3e a6 3b
       -0.0056632445 0.014865983 0.01675728 0.005073341
000280 2e de ea 3b b0 1e ca ba 8c 99 85 3b 24 54 12 bb
       0.007167599 -0.0015420523 0.004077142 -0.0022327984
000290 ee 6a 16 3c 81 87 fc 3a 9a 3e 99 3a 18 16 05 3b
       0.009180767 0.0019266458 0.001169163 0.0020307358
0002a0 2c 80 48 b9 9e 06 92 ba 6e d3 21 3a ff 07 80 3a
       -0.00019121234 -0.0011140888 0.0006173168 0.0009768008
0002b0 65 ae 14 bb e9 8c 8e bb 4f d4 0e 39 cd a9 33 bb
       -0.0022686955 -0.004350294 0.00013621266 -0.0027414442
0002c0 1c 28 02 bb c3 68 13 39 2d 10 f7 b9 39 5f fd ba
       -0.0019860333 0.00014058039 -0.00047123563 -0.0019330747
0002d0 9a c7 0a ba ae d3 69 bb 85 10 70 bb cb 46 7c bb
       -0.0005294025 -0.003567915 -0.003663094 -0.0038494344
0002e0 fd f8 0e bb 1e 40 46 bb 47 36 25 bb 1e bb 49 3a
       -0.002181589 -0.003025062 -0.0025209354 0.0007695424
0002f0 39 05 b5 3a e0 38 d5 bb 1e 6f 49 bb 3b ee ba bb
       0.001381076 -0.006507024 -0.0030736397 -0.005704669
000300 6b 3d e3 ba fa 64 02 ba e3 87 98 bb 35 79 2b bb
       -0.001733703 -0.0004974153 -0.004654871 -0.0026164774
000310 1a fb 0b bb eb 01 80 ba d4 a0 f5 b9 25 0d 43 3a
       -0.0021359385 -0.0009766197 -0.00046849868 0.00074406184
000320 76 3a 18 bb 0d 5f fc ba 98 ff 82 bb 8f 52 a4 3a
       -0.0023228205 -0.0019254402 -0.0039977543 0.0012536811
000330 6b 32 e1 ba cf c4 ef 3a 50 1d 7f 3a ad c5 25 bb
       -0.0017181163 0.0018292906 0.0009731846 -0.0025294826
000340 29 e8 75 39 92 e9 1a bb 2b a5 29 bb b2 a9 99 ba
       0.00023451507 -0.0023637754 -0.0025885801 -0.0011723547
000350 53 76 b8 b9 9f 43 08 3a 45 72 c7 3a 39 4d 91 3a
       -0.00035183373 0.00051980646 0.001521655 0.0011085636
000360 b4 25 0d bb 33 47 a0 38 43 c6 1e 3b 45 02 a7 3b
       -0.0021537365 7.6426564e-05 0.002422706 0.005096706
000370 5f 9f 2f ba 7e 4e 15 3c c4 d5 e2 3b a6 52 ea 3b
       -0.00066994684 0.009112952 0.0069224555 0.0071509657
000380 cd de 00 3c cf 06 2d 3b cc 77 2d ba 22 e7 29 3c
       0.00786562 0.0026401763 -0.00066172774 0.010370048
000390 34 fa 9f 3b e9 58 3e 3a 19 d5 a9 ba f8 14 1b 3a
       0.0048821215 0.00072611735 -0.0012957185 0.00059159053
0003a0 5a 27 61 3a ce 35 4b ba a3 89 86 3a ef d3 0f ba
       0.00085889327 -0.0007751853 0.0010264408 -0.00054865977
0003b0 94 2f 03 39 de f3 84 bb cc e7 23 3a 93 e2 48 ba
       0.00012510858 -0.0040573915 0.0006252497 -0.0007663157
0003c0 8b 9d 24 bb 0a 58 08 b9 40 ce 9d ba 98 c3 5c bb
       -0.0025118317 -0.00013002768 -0.0012039617 -0.003368592
0003d0 46 ec a2 ba c5 29 0e bb 6b 00 95 ba 64 7e ae ba
       -0.0012430034 -0.0021692377 -0.0011367922 -0.0013312814
0003e0 db ca ce ba 96 0e 5c bb 8c 31 1d bb 72 cd 41 3a
       -0.0015777008 -0.003357803 -0.002398583 0.00073929795
0003f0 e2 16 a0 3a 65 e7 c0 bb da 46 63 bb b9 b7 86 bb
       0.0012213851 -0.0058869594 -0.0034679682 -0.004111257
