model7_params.pkl (torch, 265979 bytes, 24 tensors)

conv1.weight f4 [320, 1, 3]
000000 dc c3 ac be d2 cf af 3e 3f d4 ad 3e 15 5b 24 3d
       -0.3374318 0.34338242 0.33950993 0.040125925
000010 9f 48 00 3f db 6d 57 bd 56 56 15 bb 04 7c dd be
       0.5011081 -0.052595 -0.0022787056 -0.4325868
000020 90 6d e2 3d ae a6 2f 3d 16 05 bf be 57 e4 f3 be
       0.11056054 0.042883568 -0.37308568 -0.47635147
000030 3e b8 81 3e 8a 4c f0 3e 7a 9f 3f 3e cf 1e 36 bd
       0.25335878 0.46933395 0.18713179 -0.044462975
000040 fc d4 57 be c3 b6 9a 3e b2 01 99 3d 7e f8 ca be
       -0.21077341 0.3021756 0.074710265 -0.3964271
000050 e7 96 06 3f f3 a8 02 bf bf 14 cd 3e 2f 81 6e 3e
       0.5257401 -0.51039046 0.4005489 0.23291467
000060 f4 ac 62 be de 53 03 bf 8c 01 b5 3e b7 2f ed 3e
       -0.22136289 -0.51299846 0.35352743 0.46325466
000070 01 fa 87 3d ec 46 4f be 96 22 7b 3b 78 3d 74 3d
       0.06639481 -0.20241898 0.0038320175 0.059628934
000080 29 72 c8 3e aa 5c fc be 6b d9 53 be 78 2e db 3e
       0.39149597 -0.49289447 -0.20688407 0.4280889
000090 26 c4 a6 3e f0 ea 04 bf 36 54 95 be e4 23 dd be
       0.32571524 -0.51920986 -0.2916581 -0.43191445
0000a0 3c 83 81 3e 2f 46 24 3e 42 d7 32 3e 45 40 0b bf
       0.25295436 0.16042398 0.17464927 -0.5439494
0000b0 6c 8d ad 3c 0b 11 f8 be 6b 1a 80 3e 5b 66 db 3d
       0.0211856 -0.48450503 0.25020155 0.10712882
0000c0 ef 7b c5 3e f7 c4 d4 be 46 33 e3 be 69 c7 8b be
       0.38571116 -0.41556522 -0.44375056 -0.27300575
0000d0 6c 59 1d bf 81 3a 80 be 87 e1 39 3d 3e c0 a9 3e
       -0.6146457 -0.25044635 0.045381095 0.33154482
0000e0 5b f7 23 3e 99 79 ed 3e fd 5e 13 bf 86 74 ae 3e
       0.16012327 0.46381834 -0.57566816 0.34073275
0000f0 21 6a 98 3e be 00 f5 3e 0e 57 21 bd 9d 2c b2 bc
       0.2976847 0.4785213 -0.039389662 -0.021749789
000100 31 35 80 3e 8a c3 74 be cc 67 9e 3e 6c 82 f2 3e
       0.25040582 -0.23902717 0.30938566 0.4736513
000110 80 4b 82 be a5 02 bf 3e b7 65 d4 3e 3d b5 0c 3f
       -0.25448227 0.37306705 0.41483852 0.5496405
000120 2c 39 2d 3e 3f ad 55 3e 7f 09 07 3d af 60 84 3e
       0.1691634 0.2086687 0.03296804 0.25855014
000130 0c 05 dc 3e 4c f9 fa be 80 4c f6 3e 87 9e b2 3e
       0.429726 -0.49018323 0.4810524 0.34886572
000140 c4 b0 0e 3f 53 91 47 be 5f 66 b5 bd 93 7b 72 3e
       0.5573847 -0.1948903 -0.08857416 0.23679952
000150 c6 c1 0d bf 58 77 9b 3e 6c bf cc be 20 0a 90 be
       -0.553738 0.3036449 -0.39989793 -0.28132725
000160 2a 5b b2 be 35 27 6b 3e 75 b9 77 be 12 13 1d bf
       -0.34835178 0.22964175 -0.2419184 -0.61357224
000170 9c 65 20 be 42 af d4 be 7a cf 74 be bc c7 12 bf
       -0.15663761 -0.4153996 -0.23907271 -0.5733602
000180 ee 7b d2 3e ed 21 0f bf 40 9b 6d 3c 69 14 4a 3d
       0.41110176 -0.5591114 0.0145023465 0.04933587
000190 69 2c f6 3d a5 4d 52 3e 2f 92 b4 be 53 5c b7 3d
       0.12020189 0.20537432 -0.3526778 0.08953156
0001a0 9c 75 c9 3d 9b 64 9f 3d c0 32 83 3e 9a e9 01 3f
       0.09836885 0.07782861 0.25624657 0.5074707
0001b0 96 51 01 be a4 8a ec be 04 00 0d bf 8e 49 fc 3e
       -0.12628779 -0.46199524 -0.5507815 0.49274868
0001c0 75 64 82 3e d5 01 db be b6 4b ea be cc 33 90 3e
       0.25467268 -0.42774835 -0.45760888 0.28164518
0001d0 b8 4e 29 be 59 34 95 be 0b 20 96 3e 56 7e f5 3e
       -0.16533935 -0.291415 0.29321322 0.4794795
0001e0 40 f5 75 3d 2b 95 c0 be 8e 0f b8 3e fa e2 65 3e
       0.06004834 -0.37613806 0.35949367 0.22449866
0001f0 bf b0 19 3e bb e4 b4 3e f5 45 7e 3e 57 ff 14 3e
       0.1500883 0.35330757 0.24831374 0.1455053
000200 81 f8 d7 3e a0 77 c7 bd 84 b1 b2 3e b0 bc 8e be
       0.4218178 -0.097396135 0.3490106 -0.27878332
000210 01 5d cc 3e 93 70 bd be f1 87 2b be 6a e9 03 be
       0.39914706 -0.3699995 -0.16751076 -0.12882009
000220 5a 02 02 3f fc 4c f0 3d 28 8f 43 be 78 78 da be
       0.5078484 0.117334336 -0.19097579 -0.42670035
000230 0c 29 0f 3e 6e ca c7 bd 9b a3 b2 3e ac 64 99 be
       0.13980502 -0.09755407 0.34890446 -0.2995962
000240 fe 0b e2 3e 24 3a 49 3e f4 5d 6c be 8b ea 40 3d
       0.44149774 0.19651085 -0.23082715 0.047098678
000250 13 d2 f2 be b9 23 57 be 96 48 f1 bd 9e d3 02 bf
       -0.474259 -0.21009721 -0.11781423 -0.5110415
000260 31 2d 47 3e 53 51 05 bf be cf 59 be 4d 26 c2 3e
       0.19450833 -0.52077216 -0.21270654 0.37919846
000270 98 b6 fd 3e 6b 00 79 be 3b 5b 2f 3e 1e 14 e2 3e
       0.4955337 -0.24316566 0.17124645 0.44155973
000280 0d 62 b7 3e dd 81 e3 3e 3e 39 5b 3e 86 ac d3 be
       0.35816994 0.44435015 0.21408555 -0.41342562
000290 84 7f e5 3e 80 20 e3 3e 27 60 3c 3e 6e 9e 20 be
       0.4482385 0.44360733 0.18396054 -0.15685436
0002a0 c7 01 2c 3e 80 2b 03 3e 32 79 f7 3e d3 28 b5 be
       0.16797553 0.12809563 0.48334652 -0.3538271
0002b0 a3 f4 aa be e7 4f 2b 3e 9d 38 9e 3e 7e 14 05 3e
       -0.33389768 0.16729699 0.30902568 0.12996098
0002c0 0d c7 c8 bd 51 f8 93 be c1 bc b8 be d4 55 35 3e
       -0.09803591 -0.28900388 -0.36081508 0.17708522
0002d0 49 15 dd be 98 10 19 bf d5 39 f4 bd 04 a4 6d 3d
       -0.43180302 -0.59790945 -0.11925093 0.058017746
0002e0 41 ac fc 3e 2e a1 01 3e a0 82 ed bd e0 28 7f be
       0.4935017 0.12659141 -0.1159718 -0.24917936
0002f0 0d 63 8c 3e 36 7f eb bd ec 6c 80 be 79 d2 16 3e
       0.2741932 -0.11498873 -0.250831 0.14728726
000300 08 0d 10 bf 67 96 ff bd 87 8f ef be d4 f9 07 3f
       -0.56269884 -0.12479859 -0.4678919 0.5311558
000310 e3 bb 4f 3e 28 e8 b1 3e c9 f6 b8 3c ff 5f 3c 3e
       0.20286517 0.34747434 0.022578614 0.18395995
000320 d2 0e 1b be 39 7d a9 bd 6f ec a4 3e 9b 54 14 bf
       -0.15142372 -0.082758375 0.32211635 -0.579416
000330 a1 aa 8b 3e 8c 09 15 3f b9 b2 09 be 4d c5 52 3e
       0.27278617 0.5821769 -0.13447084 0.20583077
000340 4d 9b 36 be 68 46 a5 be 06 54 f0 be c6 84 d9 3d
       -0.1783268 -0.32280278 -0.46939105 0.10621028
000350 7c 43 07 3f a3 29 bb 3e 04 b0 ff 3e 59 bd 09 bf
       0.5283735 0.36555204 0.49938977 -0.53804547
000360 f1 bc 28 bd 6f 42 2a be af 7b 07 3e 03 f6 8a 3e
       -0.041195814 -0.16626905 0.13230775 0.27140817
000370 22 f4 da bd cb 90 a0 3d 26 cf d4 3c fe 0d b8 be
       -0.10691096 0.07840117 0.025977682 -0.35948175
000380 1a 16 ee be dc 9c f0 3d ae 1f 05 3e 14 20 b0 3d
       -0.46501237 0.117486686 0.13000366 0.085998684
000390 d3 03 e2 3e 3e c8 27 bf 5b 24 8c bd 36 a3 31 3e
       0.44143543 -0.6553992 -0.06842872 0.17347416
0003a0 7f 11 f2 be 37 f4 83 3e 44 77 d3 be 45 21 dd be
       -0.47278973 0.2577226 -0.4130193 -0.43189445
0003b0 a2 91 d3 3e ab 35 79 3d ac dc c5 38 6a 7c fa 3e
       0.41322047 0.060842197 9.434795e-05 0.48923045
0003c0 08 5a 30 3e 15 11 11 3f 5f a8 c6 3e c2 a7 23 3e
       0.17221844 0.5666669 0.38800332 0.15981963
0003d0 42 76 47 bd 84 5f 0b be e9 25 08 3f 1f b9 79 3e
       -0.048696764 -0.13610655 0.53182846 0.24387024
0003e0 a0 4a 07 3f 58 df 1a 3d ef 9e 1c bf 87 1d a5 3e
       0.52848244 0.037810653 -0.61180013 0.3224909
0003f0 cd 7a f5 3d 81 8b 4a be fd 68 2a bd 7c 9f 88 3c
       0.11986313 -0.19779779 -0.04160403 0.01667761

conv1.bias f4 [320]
000000 5a bd f9 be 9d 29 15 3f d4 26 ff 3d 0f 04 f5 3e
       -0.48777276 0.5826662 0.12458578 0.4785466
000010 b2 e6 17 be fd b6 6b 39 99 3f 32 be a6 fa 03 3f
       -0.14834097 0.00022479515 -0.17407073 0.51554334
000020 74 da 83 be 75 b5 05 3f 34 8e 13 3f 8a 98 c0 3e
       -0.25752604 0.52230006 0.5763886 0.37616378
000030 65 fc 92 3e 73 ee 26 be ea 63 de be 8c 44 0f 3e
       0.28708187 -0.16301899 -0.43435603 0.13990992
000040 5a 40 fc bc 8a 11 93 3d a2 db 1a be 0f 0b 9d bc
       -0.030792404 0.0718108 -0.15122846 -0.019170312
000050 df ba fb bd 4c fe 28 3e 2d bf 79 be 5f e7 f8 be
       -0.12291502 0.16503257 -0.24389334 -0.48614022
000060 1c e1 64 be ba 92 c3 3e 21 a4 fb 3e 4e bf 9c bd
       -0.22351497 0.3819788 0.49148658 -0.07653676
000070 ec 70 67 be e5 89 bc 3e 1b 8e c7 be 42 93 89 3e
       -0.2260167 0.36823955 -0.38975605 0.2687016
000080 b7 d3 f6 be ce f2 9e 3e f0 50 c3 3d 73 b2 b3 3a
       -0.482084 0.3104462 0.09536922 0.0013709798
000090 d7 43 9c be ef 5f 98 be e9 ba 14 3e 7c eb b1 3e
       -0.30520508 -0.29760692 0.14524426 0.34749973
0000a0 5c 81 b1 3d c4 76 ca 3e e5 46 36 3e c9 20 88 be
       0.086672515 0.39543736 0.17800482 -0.26587513
0000b0 97 ae 0f bf 2b 7d ba 3e 07 8c f2 be 4a f3 fb 3e
       -0.5612578 0.3642362 -0.47372457 0.49209052
0000c0 79 0b 3c 3e df 5b e3 be 8d 37 35 3c a1 99 50 be
       0.18363751 -0.4440603 0.011060608 -0.20371105
0000d0 38 0e ed be 00 38 82 be e2 43 ee 3e 66 94 58 3e
       -0.4629991 -0.2543335 0.46536165 0.2115036
0000e0 b7 cb af 3e e8 e8 91 bd 0e 38 aa 3d 3b b3 4a bc
       0.3433511 -0.071245015 0.08311473 -0.012371833
0000f0 2a 04 83 bc 8b 8d 23 be 40 a2 08 bf af c9 f8 3e
       -0.015993197 -0.15971963 -0.53372574 0.48591372
000100 87 09 39 be 94 dd d5 bd 36 de dc 3e 04 5a 8d bd
       -0.1807004 -0.10442653 0.43138283 -0.06901935
000110 95 ed 74 3c dc f0 0c 3e ca 17 a3 3e 52 3f 84 3e
       0.014949222 0.13763756 0.31854087 0.2582956
000120 85 98 b3 3e 60 c2 0a bf 57 0b 05 bf 9a 86 94 be
       0.350773 -0.5420284 -0.5197043 -0.29008943
000130 d4 40 c9 3e ff b3 6d 3e 48 4a b1 be c8 d8 83 3d
       0.39307272 0.23213194 -0.34626985 0.06437832
000140 31 ff 9a 3e 50 b1 2a 3e 4d 86 e0 be bb dc ed 3d
       0.3027282 0.16669202 -0.43852463 0.116143666
000150 9c 6c b8 3e 77 d7 ea 3e 6f be 17 be d6 62 8d 3e
       0.36020362 0.45867512 -0.14818738 0.27614468
000160 71 59 8e be 1a 39 c5 be a8 fd d9 3e 60 30 e2 bd
       -0.27802613 -0.38520128 0.42576337 -0.11044383
000170 03 b3 f8 3d 6c 3a 89 3e 04 07 02 bf 22 c1 a2 be
       0.12143519 0.26802385 -0.50791955 -0.31787974
000180 ad d3 b1 bc bd fb 98 3c fa b6 35 be 74 50 c5 3e
       -0.02170738 0.018674726 -0.17745581 0.38537943
000190 37 e6 96 3e da fa 69 be 56 ea 45 3e 28 fd 0c bd
       0.29472515 -0.22849599 0.19327673 -0.034421116
0001a0 3a 49 38 be 36 ec b7 3e 56 e9 09 3e ef 8f 92 bd
       -0.17996684 0.35922402 0.13467917 -0.071563594
0001b0 e4 4a cf 3e 1c ed b1 be e3 e8 c1 be 01 a9 ef be
       0.40486825 -0.34751213 -0.3787299 -0.46808627
0001c0 c2 1e 00 3f 74 19 b8 be c7 82 80 3e ea f7 ea 3e
       0.5004693 -0.3595692 0.25099775 0.45892268
0001d0 ea 93 cf bd bf 4a 47 bd b3 a5 17 bf 21 de cb 3e
       -0.10135634 -0.048655268 -0.5923721 0.39817908
0001e0 53 eb 09 bf 8d 18 dc 3e 0d c1 ef 3e b0 b1 e3 3e
       -0.538747 0.4298748 0.46826974 0.44471502
0001f0 fc e6 0e bf 04 e4 10 bf 72 48 ee 3e 3f c8 8a be
       -0.55821204 -0.56597924 0.46539646 -0.271059
000200 35 6d 84 be 77 f9 ee 3d 0d d9 e8 be 99 79 dc be
       -0.25864568 0.116686754 -0.45478097 -0.43061522
000210 d1 90 5d 3d 15 53 9b be d8 0a 03 be 36 46 45 be
       0.054093186 -0.30336824 -0.12797105 -0.19265065
000220 8b 17 94 be 65 ea 0f 3e ac c2 63 3e 4a 05 10 3e
       -0.28924212 0.14054258 0.2224223 0.14064518
000230 2e 90 82 3d f5 f5 86 be cc e0 b6 3e 66 9e a1 3e
       0.06375156 -0.26359525 0.3571838 0.3156616
000240 7e c2 1a be cf fd ba 3d 7f fb 04 bf ef 31 52 3d
       -0.15113255 0.091304414 -0.5194625 0.05131715
000250 18 ee b0 3e 2e 73 cc be ce 07 c8 3e 04 30 ad be
       0.3455665 -0.39931625 0.39068455 -0.33825696
000260 77 16 14 3e f3 db a0 be 20 d5 e4 be a9 1a 65 3e
       0.14461695 -0.31417808 -0.4469385 0.22373451
000270 8b e6 b1 3e f1 0a 72 3e b8 9c f1 be f2 91 c6 3e
       0.34746203 0.23636986 -0.4718988 0.38783222
000280 65 b6 8d 3e 4b 30 08 be 89 f4 d3 3e 6c e3 0f bf
       0.27678218 -0.13299672 0.41397503 -0.56206393
000290 79 c8 e8 be 90 02 8b be 68 3b 5f 3d f0 39 db bd
       -0.45465448 -0.27150393 0.054500014 -0.1070441
0002a0 48 24 c7 3e b3 cf af be 8c e8 9c be f5 4f 3c 3e
       0.38894868 -0.3433815 -0.3064617 0.18389876
0002b0 26 ae 5d 3e 3f d7 20 be 74 a0 a6 3d 36 94 0c be
       0.21648464 -0.1570711 0.08136073 -0.13728413
0002c0 3a ce 35 3e d9 97 58 3e 02 b8 c3 3e d2 71 e6 3e
       0.1775445 0.21151675 0.38226324 0.45008713
0002d0 b9 0b 61 be 46 ba 80 3e 58 5c f6 bd 88 db e8 be
       -0.21977128 0.25142115 -0.12029332 -0.4547999
0002e0 fd 12 a1 bd b9 25 d8 3c e2 1a 03 bf 42 d1 b9 be
       -0.0786495 0.026385175 -0.51212895 -0.36292464
0002f0 51 9d d7 3d f0 a6 98 3e 57 88 02 3f e1 ee bf 3c
       0.105280526 0.29814863 0.5098929 0.023429336
000300 d2 7e 03 3f 39 59 ee be 59 7b 07 3f ef 83 4e bd
       0.5136539 -0.46552446 0.5292259 -0.05041879
000310 10 b9 ed 3d a9 1f 1a 3e 26 22 07 bf 94 a5 d9 3e
       0.116075635 0.1505114 -0.5278648 0.4250914
000320 12 09 f0 be e5 b5 bd be de 28 70 3e 6d b0 e7 bd
       -0.4688192 -0.37052837 0.2345309 -0.113129474
000330 31 de 91 3e 44 4c 24 bc ac 44 64 3e 55 ad 67 ba
       0.2848983 -0.010027949 0.22291821 -0.0008837779
000340 8e 09 b1 be 36 1f bf 3d 37 fd f3 be 1b 46 a9 3d
       -0.34577602 0.09332125 -0.47654125 0.08265325
000350 88 40 33 3e 42 60 df 3e 4b 16 e0 be f6 37 92 be
       0.17505085 0.43628126 -0.43767008 -0.2855832
000360 72 45 07 3f 5d 1f 9b 3e d6 cd b5 3e 54 b6 19 3f
       0.5284034 0.30297366 0.35508603 0.60043836
000370 a1 e1 91 3e d7 9f de 3d d4 ad c6 3e 88 1e db 3e
       0.28492454 0.10870331 0.38804495 0.4279673
000380 22 be 7f be c7 e8 9e 3e 05 4d 05 3f 57 13 75 be
       -0.24974874 0.3103697 0.5207065 -0.23933159
000390 b1 d3 ae 3e bf 6a 45 3e 99 0c df 3e c3 6f 88 3e
       0.34145883 0.19279002 0.435643 0.26647767
0003a0 c3 f1 51 be 88 8b 0e 3f 69 d3 85 be 9f f2 d0 3e
       -0.20502381 0.5568166 -0.26137856 0.40810105
0003b0 ac f6 c1 3e 1f d3 b6 be 72 af f4 be 12 f5 e0 3d
       0.37883508 -0.35707948 -0.47790104 0.109842435
0003c0 7d df de 3e d5 b1 e7 be 8b f2 31 3e 46 30 da 3e
       0.43529883 -0.45252863 0.17377679 0.42614955
0003d0 0e c6 25 3e 83 c0 a3 3e 5a aa 4e be a3 18 17 3e
       0.16188833 0.31982812 -0.20182171 0.14755492
0003e0 0a 6b 3e be 5d 52 bc 3e e1 fd 9a be 4f 5b fa 3e
       -0.1859552 0.36781588 -0.3027182 0.48897788
0003f0 7d 92 ce be 94 2a bc 3d ae cc bc bd 67 e3 73 3e
       -0.40346137 0.09187809 -0.09218727 0.23817216

conv2.weight f4 [16, 320, 1]
000000 2b ed 60 bd a7 36 df 3b 5f a3 e7 bc 41 d0 b8 bc
       -0.05491368 0.006811935 -0.028276144 -0.02256024
000010 fb 89 4a 3c cf b3 2d bd 25 27 84 3b 56 7f 41 bd
       0.012361999 -0.042407807 0.0040329867 -0.047240578
000020 c2 cc c4 3b 68 f4 0c 3c a2 35 32 bd cf bb 32 bc
       0.0060058543 0.008603193 -0.04350818 -0.010909035
000030 32 e6 a1 3c fa ce 9f 3c ff 08 7a 3b 2f 0f 21 bd
       0.019763086 0.019507874 0.0038152335 -0.03932112
000040 d8 fd 9d bc 0b 15 0f bd 18 a3 6b bb 33 8e 5b bc
       -0.019286081 -0.034932178 -0.0035955366 -0.013400602
000050 e3 64 88 3c b7 8d 67 3d 3a de 2f bd cc f3 51 bd
       0.016649669 0.056531634 -0.04293654 -0.051257893
000060 e3 d4 15 3c 4d 9f 4a 3d 66 28 dd bc a8 05 87 3c
       0.009144994 0.049468327 -0.026996803 0.01648219
000070 e5 a2 34 bc af f6 24 3b d8 3e 45 3d 7d d6 44 3d
       -0.011025165 0.002517145 0.048155636 0.048056114
000080 16 e9 1c bd 03 76 f7 3c 0f 3b 46 bd e8 43 43 3c
       -0.038308226 0.03020764 -0.048396166 0.011918046
000090 da 11 7f 3d 26 1a 59 3c e7 f7 47 bc f4 bc 56 bc
       0.062272884 0.013250863 -0.012205101 -0.013106573
0000a0 b3 a4 2d 3d 4d 19 35 bd fa 9d 91 bd 6a a8 3c bc
       0.042393398 -0.04421358 -0.0711021 -0.011514762
0000b0 28 2a 53 3d 93 12 00 3c cd 3e 3f bc 52 38 5b 3d
       0.051553875 0.007816928 -0.011672688 0.053520508
0000c0 fb fe 24 3d 19 6d af bc 9f ae 1a bc 6d 21 15 bd
       0.04028223 -0.021414327 -0.009441047 -0.03640883
0000d0 82 a6 dd bc 10 26 7f bd a3 d3 02 3d 66 15 09 bd
       -0.027056936 -0.06229216 0.031940114 -0.033467673
0000e0 ef 2b 7d 3c 5b f8 80 3c f1 61 e5 bc e9 87 28 bd
       0.015452369 0.015743425 -0.028000804 -0.04114524
0000f0 1d 61 fa 3c 35 c4 14 3d e9 8a 6e 3d 37 24 bc bc
       0.030563885 0.03631993 0.058237944 -0.022966487
000100 be 70 65 bd 3f cd 95 bc 50 e0 d1 bc c3 df 23 bd
       -0.056015722 -0.018286346 -0.025619656 -0.040008318
000110 d5 93 f6 3c bd c7 82 3c 63 9c 8d bd ab bf b1 bc
       0.030099789 0.015964383 -0.06914594 -0.02169784
000120 31 1a 1d 3b 5a a3 02 bd d6 5c 28 3d d6 14 1a 3d
       0.002397191 -0.031894065 0.04110416 0.037617527
000130 c4 2f 15 3d 7c 73 7b 3d 5b e1 31 3d eb 14 e2 bc
       0.036422506 0.06138943 0.043427806 -0.027597865
000140 24 a8 17 bd 18 5b ff 3c b5 ac 31 bd b9 4a 55 3d
       -0.037025586 0.031171367 -0.043377597 0.052073214
000150 e7 4c 50 bd 5b fc 04 3d be b4 0a 3d 9c fc d5 bb
       -0.05085459 0.032467227 0.033863775 -0.0065303575
000160 39 d3 f4 3c b9 76 80 3c b6 fa 51 bc 52 5b 32 ba
       0.029885875 0.015681611 -0.012816122 -0.0006803769
000170 66 fb 1d 39 35 b9 33 bd e4 1b 0c bc ad 61 59 ba
       0.0001506634 -0.0438778 -0.0085515715 -0.0008292448
000180 85 ea 1a 3d 0f 02 c1 bb 67 dc 57 bd bb b7 1d bd
       0.03782131 -0.005890138 -0.052700426 -0.038505297
000190 b7 c9 85 3a 49 23 67 3b ae 54 26 3c 41 90 b2 bc
       0.001020721 0.0035268834 0.010152025 -0.021797301
0001a0 61 dc 30 3d 16 e8 3a bd 2d 4c 25 3d 64 bc ac bb
       0.04317892 -0.04563149 0.04035585 -0.0052714814
0001b0 ab b4 28 3b f9 00 47 3c ae 27 7b bd ea 9b 43 bc
       0.0025742452 0.012146228 -0.06131714 -0.011939028
0001c0 a2 41 80 bd e2 34 89 3c 17 22 1a 3d f8 e1 cd bc
       -0.062625185 0.01674885 0.037630167 -0.025132164
0001d0 02 f8 cd 3c bb 8c 32 bd ff 39 0a 3d 73 a8 01 bc
       0.025142673 -0.043591242 0.033746716 -0.007913697
0001e0 ec f3 d0 3c ec 44 07 3c 43 ae d2 3c b9 1c db 3b
       0.025506936 0.008256178 0.02571786 0.0066867736
0001f0 2f ef d7 bc 02 c4 47 3d 1b 01 0b 3d ce 16 35 3d
       -0.026359169 0.048770912 0.0339366 0.0442112
000200 d3 35 cf 3a e4 6a 77 3c 92 be 19 bd 6f 39 6c bd
       0.0015808888 0.015101168 -0.037535258 -0.05767196
000210 70 91 23 bc 72 ae 45 bd 08 44 5f bd b2 2a 59 bd
       -0.0099834055 -0.048262067 -0.05450824 -0.053019233
000220 cd 6a 55 3d 29 98 e7 3c e9 7c 09 bc e1 5d 89 bc
       0.052103806 0.028270798 -0.008391597 -0.016768398
000230 dd 11 01 3d 5d 5d 71 bc 5a 28 07 bd 8e a6 ac 3c
       0.031511176 -0.014731732 -0.032997467 0.021075513
000240 30 4c 2a 3b d7 49 15 3d d9 cf 43 bd d9 cb 28 bd
       0.0025985353 0.036447372 -0.04780564 -0.04121003
000250 fa 80 97 bd 40 52 48 3b 9f 9e 2c 3c cd 89 7d 3c
       -0.07397647 0.0030566603 0.010535865 0.015474749
000260 04 28 8c 3c df f5 87 3d 92 7c 5e 3c 68 a6 27 bc
       0.017108925 0.06638693 0.013579505 -0.010232545
000270 11 48 1b bd 78 1d 8d bc 51 71 69 3d 80 7d 93 bc
       -0.037910525 -0.017225966 0.056992833 -0.018004179
000280 43 59 e8 39 80 cb 86 bd 74 b1 a6 bc a4 72 f4 3c
       0.00044316993 -0.06581783 -0.020348288 0.029839821
000290 cd d2 b8 bc 64 03 84 3c 71 ee 1f bd 26 ab 45 3d
       -0.022561455 0.016114898 -0.039045755 0.048258923
0002a0 f3 f8 31 3d d8 46 ff bc 43 d5 3f 3d ab ee 23 3d
       0.043450307 -0.03116171 0.04683424 0.040022533
0002b0 aa ae 8a bd 7a 6e d7 3c 57 46 04 bd 61 ac d0 3c
       -0.06771596 0.026297797 -0.032293644 0.025472822
0002c0 75 45 46 bd df 15 c7 3c da 37 75 3d 78 bd 94 bd
       -0.048406083 0.024302421 0.059867717 -0.07262701
0002d0 09 70 43 bd bd 5f 0a b9 9c 34 02 bd d2 41 15 bd
       -0.047714267 -0.00013196371 -0.031788453 -0.036439724
0002e0 37 cc 34 bd 56 e4 b1 bc d3 46 16 3d 2c 1b 37 3d
       -0.044140067 -0.021715324 0.036688637 0.044703647
0002f0 c7 80 b3 3b 58 62 72 3d 32 5e 88 bc 4f 1d e7 bc
       0.005477998 0.05917582 -0.016646478 -0.028212218
000300 52 c7 b5 3c 7e 24 03 3d 99 ce 6e bb 27 eb 62 bc
       0.02218977 0.032017224 -0.003643906 -0.01385001
000310 32 9d 6d bd ed 7c 00 bd fd be df bb 8d bf 04 3d
       -0.05801124 -0.03136914 -0.0068281875 0.03240924
000320 d9 d3 8e 3b 59 73 13 bc d1 d7 14 3d a0 0e c9 3b
       0.0043587503 -0.008999669 0.03633863 0.0061357766
000330 11 b7 02 bd aa 28 5c bc 8f a2 6c bc b0 f1 31 3d
       -0.031912867 -0.013437429 -0.014443054 0.04344338
000340 52 10 79 3d 00 29 43 bd 8d 49 1d bd 35 9b 05 bd
       0.06080658 -0.047646523 -0.03840022 -0.03261872
000350 61 97 d6 3a e8 fe 65 bd 9a 79 91 3d 13 0f 29 3d
       0.0016372019 -0.0561513 0.07103272 0.04127414
000360 40 c6 71 3d 3b ef 7a bd 05 0c 0a 3d aa a8 63 3d
       0.059026957 -0.061263304 0.03370287 0.055580772
000370 6a bd bc bc 5a 46 8a bc 0b 6f 93 3d 98 b2 ea bb
       -0.023039538 -0.01687925 0.07198914 -0.0071624033
000380 c1 4f 2f bd 18 a4 a7 bc 0b 67 94 3c 59 dd 3c bd
       -0.04280067 -0.020463988 0.018115541 -0.04610953
000390 1c a2 fb 3c 45 46 dd 3c a7 ad 26 3b ec 66 ff bc
       0.030716948 0.027011046 0.0025433095 -0.031177007
0003a0 c3 89 65 bc ae af c6 3c 24 74 00 3d c3 f8 d6 3c
       -0.014009896 0.024253692 0.03136076 0.026241666
0003b0 be ee 91 bd 32 0d 81 bc 3d 0c 31 bd d2 41 ee bc
       -0.071256146 -0.015753362 -0.043224562 -0.02908412
0003c0 21 4b 31 bb 3b eb 71 bd 9e 3c 3c 3c 66 25 3b 3d
       -0.0027052837 -0.059062224 0.011489062 0.045689963
0003d0 21 7d 11 bd 5d 6a b1 3c e0 d1 22 3d 4d a8 57 bd
       -0.035519723 0.021657163 0.039750934 -0.05265074
0003e0 94 c0 4c bc 07 69 47 3d 2b c0 b5 bc d8 15 1c 3c
       -0.012497086 0.048684146 -0.02218636 0.009526692
0003f0 dc 1a 52 bd 5c d1 e5 bc c2 f5 22 3d 34 b9 c1 3c
       -0.051295146 -0.028053932 0.039785154 0.023647882

conv2.bias f4 [16]
000000 3d 17 43 3d d4 91 c5 3c 0f c4 ff bc fa 60 ad 3c
       0.047629584 0.024117388 -0.031221418 0.021164406
000010 19 09 00 3d f9 11 be 3c 8d 31 a8 3c 9a ac ae 3c
       0.031258676 0.02320193 0.02053144 0.021322537
000020 b2 1a 6d 3c 51 37 35 3d 1c 1b f3 3c e5 1a 7d bc
       0.014471697 0.044242207 0.029676013 -0.015448307
000030 ca de 02 3b 1f 48 67 3d 59 53 cb bc 7a 65 48 3c
       0.0019969218 0.056465264 -0.024820017 0.012231225

conv3.weight f4 [64, 16, 1]
000000 3c 9d 5a 3e 56 09 3e be 71 04 95 3d 9f 02 7e bd
       0.21349043 -0.18558249 0.07276238 -0.06201422
000010 02 7c 27 3e 17 17 b2 3d b7 3c 29 3d 20 45 a8 3d
       0.16355899 0.0869581 0.041317668 0.082163095
000020 66 a6 28 3e f7 f9 d4 3d 18 c9 44 3e a0 6b 19 be
       0.16469726 0.103992395 0.19217336 -0.14982462
000030 0d e4 0a 3a eb eb 4d 3e 98 bf 6b be 74 d1 6b be
       0.00052982644 0.20109527 -0.23022306 -0.23029119
000040 28 9a bd 3b 30 49 bc bd 83 da c3 bd c9 c3 80 be
       0.005786199 -0.09193647 -0.09563162 -0.25149372
000050 02 dc 2b 3e e4 a4 0a be b0 36 ad 3d 47 bb 5b be
       0.16783145 -0.13539463 0.084576964 -0.2145816
000060 ef 67 83 3e 53 be 05 3e b7 9a 30 3a 38 94 57 3e
       0.25665233 0.13060884 0.00067369215 0.21052635
000070 58 a1 49 3e 32 3c 15 3d 94 04 f6 bd 87 9c ac bb
       0.19690454 0.03643436 -0.12012592 -0.005267683
000080 72 48 f3 bd 80 44 50 3e bf 5c 3b be c6 7f 37 bd
       -0.11879052 0.2033863 -0.18297099 -0.04479959
000090 79 70 41 be be ed d7 bd 73 d6 d9 bc ca ac 44 bc
       -0.18890561 -0.105433926 -0.026591515 -0.012004087
0000a0 fd b6 e9 3d dc 29 7d 3e cd f9 32 bd e6 bf 9a 3d
       0.11411855 0.24723 -0.04369526 0.07556133
0000b0 95 5e ba 3d ce 83 64 be ed 06 98 3d 61 12 37 3e
       0.09100071 -0.22315904 0.07423196 0.17878105
0000c0 0f 7a 4f 3e ee ad d9 3d c8 89 7a 3d 22 44 d4 3c
       0.20261405 0.106288776 0.061166555 0.025911395
0000d0 3e 65 eb bd 3c 69 3e 3e 87 ed c5 3d ee ad ec 3d
       -0.1149392 0.18594831 0.09664445 0.11556612
0000e0 d6 d9 28 3d f7 34 4f be 84 cc 84 be 06 3d b8 3d
       0.04122337 -0.20235048 -0.25937283 0.08996014
0000f0 2a 28 34 3e c3 e7 63 bd b5 30 6a bd 7e 7b 17 bd
       0.17593446 -0.055640947 -0.057175357 -0.036983006
000100 50 c1 75 3e 33 a7 66 3d ba ce 22 3d 31 1c 00 3e
       0.23999524 0.056311797 0.03974793 0.12510754
000110 1a f8 11 bd 07 b9 08 be 7b cc 02 be 9c 04 37 be
       -0.035637 -0.13351832 -0.12773316 -0.17872852
000120 76 1b 18 3e 05 37 0f be 75 ea f9 bd 11 5c 20 be
       0.14854226 -0.13985832 -0.12202922 -0.1566012
000130 a8 1c 11 be a1 da 57 be d4 83 4e 3e 90 9f 2f 3e
       -0.14171088 -0.21079494 0.20167476 0.17150712
000140 12 a5 85 bc 47 75 5e 3e c9 a5 65 3e 5c 37 c6 3d
       -0.016314063 0.21724425 0.22426523 0.09678528
000150 c4 00 65 3e f3 19 d6 3d 48 e4 05 be ea 78 2c bd
       0.22363573 0.10454168 -0.13075364 -0.0421075
000160 76 04 34 bd f7 f9 d7 bc a6 43 60 3e 76 34 ce 3d
       -0.043949567 -0.02636431 0.21900806 0.100686
000170 68 2b bb 3c 4f e1 11 3e 24 55 9c 39 c6 d5 6c be
       0.022847846 0.14246105 0.00029818073 -0.23128423
000180 c9 5f 59 3e 96 4f dd 3d 21 8d b4 bd 63 cf 87 3d
       0.21227945 0.108061954 -0.08815981 0.06631353
000190 91 ab 19 be cc 9e 80 bd 5b 1f f0 bc 85 67 21 3e
       -0.15006854 -0.06280288 -0.029311826 0.15762146
0001a0 ab c3 46 be b3 b1 af bd ce 6e f4 bd 8b 16 54 3e
       -0.19410579 -0.08578815 -0.11935197 0.20711724
0001b0 43 04 e3 bd d7 86 62 be 10 96 a1 3d 9a 6e f3 bd
       -0.11084797 -0.2212175 0.0788995 -0.1188633
0001c0 c7 7d 29 bd 5b 1d 1b 3d b6 30 5d ba a9 99 bd 3b
       -0.041379716 0.037869792 -0.00084377395 0.00578614
0001d0 0c a3 65 3e e3 18 8b bd d0 e5 61 3e ae 37 44 3e
       0.22425479 -0.06791856 0.22060323 0.19161865
0001e0 d6 0c 56 be 98 44 56 3e 54 3a 0f be 4a f6 45 3e
       -0.20903334 0.20924604 -0.13987094 0.19332233
0001f0 18 c0 fc bd 14 0f cc 3d 69 ad 3b 3c 6a d9 2a be
       -0.123413265 0.099638134 0.011454918 -0.166845
000200 81 f8 7b be a7 3b 73 3c 80 15 da 3c 39 e5 b4 bc
       -0.24606515 0.014845765 0.02662158 -0.022081958
000210 f9 00 4b 3e 0b 1e 26 3d e7 5e a3 3d 13 88 17 3e
       0.1982459 0.040555995 0.079770856 0.14798002
000220 ad 7a 71 3e 39 33 8d bd b2 bf 45 3e 0a c9 20 3e
       0.23581953 -0.068945356 0.19311407 0.1570169
000230 64 9f a3 3d ba 1f 3f be 2c dd c2 3c 2f fe 32 be
       0.07989386 -0.18664446 0.023787104 -0.17479776
000240 28 69 5e bc c5 3b 11 be 99 be 34 3e 97 1a 67 3e
       -0.013574876 -0.14182957 0.17650832 0.22568737
000250 c5 7f d6 bc a2 6c 44 bd c2 74 44 bd 4a c6 3b 3d
       -0.026183972 -0.047955163 -0.04796291 0.0458434
000260 1b 8f e7 bc a8 4d 1f be d3 8a 3a 3e 4b e5 38 3e
       -0.02826648 -0.15556967 0.1821702 0.18056218
000270 d8 aa be bd 2f cf 6c be 91 a6 26 3e ea d6 de 3d
       -0.093099296 -0.2312591 0.16274478 0.10880835
000280 6a 88 81 3d d9 c2 24 be 0a 28 2c bd b1 65 eb ba
       0.06324847 -0.16089953 -0.04203037 -0.0017959384
000290 36 0f 2a 3e 9c 8b 20 3e a3 82 35 3d 9f f6 d9 3d
       0.16607365 0.15678257 0.044314038 0.10642742
0002a0 5c 1a 27 bd fa 56 a9 bb 8e 01 24 be 18 76 37 3e
       -0.040796623 -0.005167839 -0.16016218 0.17916143
0002b0 1c bd 8a bc d6 8e 9c 3d 3c ce ca bd 1b e4 b8 3d
       -0.016935878 0.07644431 -0.09902617 0.09027883
0002c0 e4 60 b2 3d d2 b1 5c 3e 20 a9 8f 3d be 0c 03 be
       0.08709887 0.21552208 0.0701468 -0.1279783
0002d0 84 98 86 3d 57 d1 30 3e 7e 50 8a bd 35 c9 25 3e
       0.06572059 0.17267357 -0.06753634 0.16190036
0002e0 b8 bc 4f 3e 2d 41 35 3e 02 d9 22 3c cf ce 7c 3e
       0.20286834 0.17700644 0.009939434 0.24688266
0002f0 c4 d3 30 3d ad 63 d6 3b 4a ab 6c be d5 7d 78 bd
       0.043170705 0.006542644 -0.23112217 -0.060666878
000300 b2 b6 75 be a1 d0 bb 3d 00 01 28 be b8 7d 3d 3e
       -0.23995474 0.09170652 -0.16406631 0.18504989
000310 ef 66 42 be 18 78 6a 3e ad 86 c4 3d 70 69 01 3d
       -0.18984579 0.22897375 0.09596 0.031594694
000320 7a 00 79 3e f4 45 52 be 09 0a 3a 3d 51 09 1d be
       0.24316588 -0.20534497 0.045419727 -0.15335585
000330 b2 f7 4a 3e 0d c8 49 be 22 45 3a 3e 62 ce 3f be
       0.19821051 -0.1970522 0.18190435 -0.18731073
000340 62 eb ab 3d 98 44 5a 3e 25 e8 05 bd 55 80 5e be
       0.08394505 0.21315229 -0.032692093 -0.21728642
000350 70 f6 04 bd 09 25 fe 3d 8d d4 05 3e cf 79 52 bd
       -0.032461584 0.12409408 0.13069363 -0.051385697
000360 7b e0 d5 bd ac 7f 43 be 2d cf 61 3e 3f 1a ca bd
       -0.10443207 -0.19091672 0.22051688 -0.09868287
000370 b5 5d a9 3d f3 82 0c 3e 7a 57 71 be cc 11 07 be
       0.08269826 0.13721828 -0.23568526 -0.13190383
000380 8b 87 80 bd 26 58 02 be 65 f7 7f 3d ed 49 3e 3e
       -0.06275853 -0.12728938 0.062491793 0.18582888
000390 81 fe 5f 3e d3 25 90 3d 97 d5 4f be f3 c5 2b be
       0.2187443 0.070384644 -0.20296322 -0.1677473
0003a0 76 a4 34 be 7a 24 30 be 63 2d 78 3e 7f e1 72 3d
       -0.17640862 -0.17201415 0.24236064 0.05929708
0003b0 b2 a6 9f bc bd 04 29 be 9c 9b 76 3d 3e 3b b2 bd
       -0.019488666 -0.16505714 0.060206994 -0.08702706
0003c0 6a 4c a7 bd 0d e3 49 be 2f f3 17 be 97 e3 61 3e
       -0.08168872 -0.19715519 -0.14838861 0.22059475
0003d0 5a 31 f3 3d 9c 8f 1d 3d 55 6f 05 3d ef 60 6b be
       0.118746474 0.038467035 0.032576878 -0.22986196
0003e0 cb 15 67 be 32 51 ed 38 ed 2e 17 be 3e b2 e8 3d
       -0.22566907 0.000113161645 -0.14763995 0.11362122
0003f0 06 4f 81 be 87 30 38 bc a6 10 00 be ea 65 4f bd
       -0.25255603 -0.011242039 -0.12506351 -0.050634302

conv3.bias f4 [64]
000000 b9 99 06 3e a7 67 fa bd e0 ea 51 bd 90 a5 bd 3c
       0.13144578 -0.12226801 -0.051249385 0.023150235
000010 71 cc 2a 3e 5a 8c b8 3d 80 04 52 bb 4c bd 1d 3e
       0.1667955 0.09011145 -0.003204614 0.15404242
000020 90 c9 6b 3e 56 3b 67 3d 6d a6 b9 bd df 1b 5b be
       0.23026109 0.05645307 -0.09064946 -0.2139735
000030 2c 8c 08 3e fc bf 5a be 64 39 21 3e 5e af 2a 3e
       0.13334721 -0.21362299 0.15744549 0.1666846
000040 1c 73 19 3e 71 21 bb bc d8 ec 5e be 17 a4 68 be
       0.14985317 -0.022843095 -0.21770036 -0.22718845
000050 06 6e 34 3e 13 66 36 be 07 67 9b 3d 58 4a ca bd
       0.17620096 -0.17812376 0.0758801 -0.09877461
000060 80 ef ef bd 1b e5 7c be b6 c5 93 bd 7b 5c 85 3e
       -0.11715603 -0.24696772 -0.07215445 0.2604712
000070 14 f5 85 bd c6 54 f5 3d 54 bb 70 bd f8 5d 79 3e
       -0.065408856 0.1197906 -0.0587724 0.24352252
000080 f4 ec 13 3e 24 75 43 be 71 31 a4 3d 79 4d ae bb
       0.14445859 -0.19087654 0.08017243 -0.005319294
000090 97 26 34 3e 0b 6b 19 be 92 6e 51 3e dc 8e 64 3c
       0.17592846 -0.1498224 0.20452335 0.013950076
0000a0 3e 9a 31 3e 48 eb 2a be 99 21 20 bd 45 f0 0c be
       0.17343995 -0.16691315 -0.03909454 -0.1376353
0000b0 59 0b 8f bd 08 5a b5 bd bb f8 0f be 0f bc f5 bc
       -0.06984586 -0.08855063 -0.14059727 -0.0299969
0000c0 4f ca 56 3e 73 0b 0c 3e aa d9 05 3e 16 b4 19 bd
       0.20975612 0.13676243 0.13071314 -0.03752526
0000d0 b3 02 35 be 7c af a4 bd b9 78 f4 3d b6 f9 4b 3e
       -0.17676811 -0.080412835 0.119370885 0.19919476
0000e0 8b c6 7c 3e 4e e7 36 be 96 3f 4b 3e 54 10 bc 3d
       0.24685113 -0.17861673 0.19848475 0.09182802
0000f0 48 18 78 bd f2 38 44 bd ec 9f 82 3d 7a ed c0 3c
       -0.06057003 -0.04790587 0.06378159 0.023550738

conv4.weight f4 [1, 64, 1]
000000 eb 3c 44 3d ab dd dc bd a7 81 85 bc 5e de 19 bc
       0.04790966 -0.10784467 -0.016297175 -0.009391395
000010 43 1d a3 3c f3 19 31 bd 53 2d e6 bd 74 44 e1 bd
       0.019911414 -0.043237638 -0.11239114 -0.109993845
000020 d7 9a 65 3b 6c 2f bc bb 9b 5b bb 3d 8a 3d a2 3d
       0.0035034919 -0.005742958 0.09148332 0.07921894
000030 be 38 8d bd 91 e7 e7 bd a3 ac f7 3b f4 c7 d8 bd
       -0.06895588 -0.11323465 0.0075584217 -0.10585013
000040 b1 85 9b bc 13 b2 3b 3d 05 c8 4c 3d 94 6c 8d bd
       -0.018984647 0.04582412 0.04999544 -0.06905475
000050 c5 5f 1f bd 6c d4 00 3d fc d7 2f 3d 3f 0a 5c 3d
       -0.038909692 0.03145258 0.042930588 0.05372071
000060 90 78 1e bc fc d0 92 bd ca c2 ca bb d7 4d 96 bc
       -0.009672299 -0.07168767 -0.0061877714 -0.018347664
000070 a7 b8 c6 ba 8d 84 31 3c 45 f5 c5 3c 9d 5f 85 3d
       -0.0015161232 0.010834825 0.024164805 0.065123774
000080 5d 7f 46 bd 44 82 c7 3c aa 52 f1 3d 58 72 c1 3d
       -0.048461307 0.024354108 0.11783345 0.094456375
000090 9f 17 c2 3d 11 7f e5 bc 15 bf f5 bd 93 76 fb 3d
       0.094771616 -0.028014692 -0.11999337 0.122784756
0000a0 4a 72 16 3d a2 1a 05 3d 86 a1 be bc 6d d1 d6 bc
       0.03673009 0.032496102 -0.02327038 -0.026222909
0000b0 7b 26 36 bd 42 cd a7 3c 55 c4 78 bd 4e b0 0c 3d
       -0.04447029 0.020483617 -0.06073411 0.034347825
0000c0 34 a4 55 3c 23 67 d0 bd ee 87 97 3d 02 41 a8 3d
       0.013039637 -0.10175922 0.073989734 0.08215524
0000d0 35 6f b5 3b 13 11 e4 bd 4a 3f d3 bd 9d 83 9c 3d
       0.0055369386 -0.11136069 -0.10314806 0.07642291
0000e0 88 47 61 3d 76 f0 bf 3d 62 9f 57 bd 30 ca ef bd
       0.05499986 0.09372036 -0.052642234 -0.11708486
0000f0 ec b2 bb bd 06 6b 50 bd fb 8e f8 bd 0f c7 87 3b
       -0.09164986 -0.050883316 -0.12136646 0.0041436027

norm1.weight f4 [320, 64]
000000 65 a1 7e 3f be 81 80 3f 9b 1b 80 3f 1f 79 7e 3f
       0.9946502 1.0039594 1.0008425 0.99403566
000010 00 4f 80 3f b3 9f 80 3f df 0d 7d 3f 02 cd 80 3f
       1.0024109 1.0048736 0.9884929 1.0062563
000020 18 02 80 3f 50 55 7f 3f 18 0f 7f 3f 30 d2 7f 3f
       1.0000639 0.9973955 0.99632406 0.99930096
000030 cd d7 7f 3f c4 76 7f 3f 21 da 7f 3f f5 5b 80 3f
       0.9993866 0.99790597 0.99942213 1.0028063
000040 8c 9a 80 3f c8 2d 80 3f 67 2f 80 3f a1 4c 7f 3f
       1.0047164 1.0013971 1.0014466 0.997263
000050 8b c0 7e 3f 75 f0 7f 3f 4c 6f 80 3f ca b6 80 3f
       0.9951255 0.99976283 1.0033965 1.0055783
000060 4c 0b 80 3f 2d 65 80 3f d0 40 80 3f c4 7c 7f 3f
       1.0003448 1.0030876 1.0019779 0.9979975
000070 df f2 81 3f 86 85 7e 3f a6 77 80 3f 34 76 80 3f
       1.0152243 0.9942249 1.0036514 1.0036073
000080 2f 26 83 3f 5c 64 6f 3f a5 57 7d 3f 08 bd 7c 3f
       1.0246028 0.9351251 0.9896186 0.9872594
000090 7b d6 7f 3f 88 b8 7f 3f a7 e3 7d 3f f6 4b 7e 3f
       0.99936646 0.9989095 0.99175495 0.9933466
0000a0 2e f6 7f 3f a2 71 7f 3f b2 69 80 3f 96 21 7f 3f
       0.99985015 0.99782765 1.0032256 0.99660623
0000b0 28 82 7f 3f e5 a5 7f 3f c0 b7 7f 3f 1b 41 80 3f
       0.9980798 0.9986251 0.99889755 1.0019869
0000c0 1e 56 7f 3f ad 74 7f 3f d1 0d 7e 3f 20 2f 7f 3f
       0.9974078 0.9978741 0.9923983 0.9968128
0000d0 7b 68 7f 3f 46 8e 80 3f 83 91 7e 3f 1a eb 7f 3f
       0.997688 1.0043418 0.99440783 0.9996811
0000e0 3c 61 80 3f f6 49 80 3f ed 65 80 3f 4c f8 7f 3f
       1.0029674 1.0022571 1.0031105 0.99988246
0000f0 82 f6 7f 3f 71 1d 7d 3f 50 39 80 3f 1f 83 7f 3f
       0.99985516 0.9887305 1.001749 0.9980945
000100 d3 fc 7f 3f d3 9b 80 3f 08 8e 80 3f 1e da 7e 3f
       0.99995154 1.0047554 1.0043344 0.9955157
000110 ed 6f 80 3f 0b c0 7f 3f 04 ba 7e 3f ec 1d 80 3f
       1.0034157 0.9990241 0.9950259 1.0009131
000120 4b 38 80 3f f7 82 7e 3f c9 32 80 3f 8e 8d 7f 3f
       1.0017179 0.99418586 1.0015498 0.9982537
000130 9a 18 80 3f f5 0b 7f 3f 40 a3 7f 3f be db 7f 3f
       1.0007508 0.9962762 0.99858475 0.99944675
000140 2f 90 7f 3f 32 8a 80 3f c3 20 80 3f e1 b4 7f 3f
       0.9982938 1.0042174 1.0009998 0.99885374
000150 ee 51 80 3f e3 be 7f 3f fb 9a 7e 3f 3f e9 7f 3f
       1.0025003 0.99900645 0.9945523 0.9996528
000160 35 d3 7f 3f 93 15 7f 3f cf 4e 80 3f e4 fe 80 3f
       0.9993165 0.99642295 1.002405 1.0077786
000170 e2 bd 83 3f 30 03 82 3f 98 2b 7c 3f 10 01 7d 3f
       1.0292323 1.0157223 0.9850402 0.98829746
000180 9f bc 7e 3f b7 4c 80 3f c3 9f 7e 3f c9 4f 80 3f
       0.9950656 1.0023412 0.9946253 1.0024348
000190 33 a9 7f 3f a6 2b 7f 3f d4 18 80 3f c3 53 7e 3f
       0.9986755 0.9967598 1.0007577 0.9934656
0001a0 47 74 80 3f c5 4e 7e 3f f2 0f 80 3f f2 8e 7f 3f
       1.0035485 0.9933894 1.0004866 0.9982749
0001b0 2d 57 7d 3f 52 c3 7f 3f 2b 87 7f 3f d3 3e 80 3f
       0.98961145 0.9990741 0.99815625 1.0019172
0001c0 a3 67 7f 3f 67 fc 7f 3f e7 08 7f 3f ce a2 7f 3f
       0.9976751 0.9999451 0.9962296 0.99857795
0001d0 f9 4b 7f 3f e6 7e 80 3f 33 93 7d 3f 8b 54 7e 3f
       0.997253 1.0038726 0.99052733 0.9934775
0001e0 1d be 7f 3f db 00 80 3f a7 25 80 3f 4c 8c 7f 3f
       0.99899465 1.0000261 1.001149 0.9982345
0001f0 99 20 7f 3f 8d 4f 7f 3f 15 68 7f 3f 06 19 7f 3f
       0.99659115 0.9973076 0.9976819 0.9964756
000200 fb 07 7f 3f fa e7 7e 3f 34 c9 7f 3f 4c cc 7e 3f
       0.9962155 0.9957272 0.99916387 0.9953048
000210 80 20 80 3f 57 36 80 3f e1 3c 7e 3f c7 c8 7f 3f
       1.0009918 1.0016583 0.99311644 0.99915737
000220 9e 45 7e 3f 42 c7 80 3f b6 0e 80 3f 86 30 80 3f
       0.9932498 1.0060809 1.000449 1.0014808
000230 41 ea 7f 3f 55 3f 80 3f 69 37 7f 3f e2 46 80 3f
       0.9996682 1.0019327 0.99693924 1.0021632
000240 44 0c 80 3f d7 08 7f 3f bf 61 7e 3f be 8a 80 3f
       1.0003743 0.99622864 0.993679 1.0042341
000250 28 3f 7f 3f cd 91 7f 3f 10 e0 7f 3f 36 99 7f 3f
       0.99705744 0.9983185 0.9995127 0.99843156
000260 45 a7 7f 3f fd 9f 80 3f 60 ce 7e 3f 2c 44 7f 3f
       0.9986461 1.0048825 0.99533653 0.997134
000270 37 9e 7f 3f 77 4b 7f 3f b7 f0 82 3f b0 d1 7d 3f
       0.9985079 0.99724525 1.022971 0.9914808
000280 f2 19 7a 3f a7 b5 81 3f 88 01 7d 3f 8a 5d 7c 3f
       0.9769584 1.0133561 0.9883046 0.9858023
000290 09 c4 7d 3f fd fa 7e 3f 80 fd 7d 3f d1 14 80 3f
       0.9912725 0.9960173 0.99214935 1.0006353
0002a0 bb c7 7f 3f 3f a0 80 3f 6f 92 7f 3f d1 22 7f 3f
       0.9991414 1.0048903 0.99832815 0.996625
0002b0 2d 3d 80 3f 20 e0 7d 3f 32 61 80 3f e9 24 80 3f
       1.0018669 0.9917011 1.0029662 1.0011264
0002c0 c5 af 7e 3f c6 c3 7f 3f b9 77 7f 3f f8 89 7e 3f
       0.99486953 0.999081 0.9979206 0.99429274
0002d0 cf c4 7e 3f e9 c6 7e 3f ea 58 80 3f 0e 47 80 3f
       0.99519056 0.9952226 1.0027134 1.0021684
0002e0 71 5d 80 3f 04 f9 80 3f 99 4f 80 3f 42 8a 80 3f
       1.0028516 1.0075994 1.0024291 1.0042193
0002f0 5f 1f 80 3f 34 b2 7f 3f 76 d3 80 3f 22 dc 80 3f
       1.0009574 0.9988129 1.0064533 1.0067179
000300 a8 a9 80 3f d9 27 7c 3f 83 16 81 3f 86 30 7f 3f
       1.0051775 0.984983 1.0084995 0.99683416
000310 12 1e 80 3f c0 33 7f 3f e3 bb 7e 3f 9a 60 7f 3f
       1.0009177 0.9968834 0.9950544 0.9975678
000320 93 a5 7e 3f 1c c7 81 3f 56 ef 80 3f af 4e 80 3f
       0.99471396 1.0138888 1.007304 1.0024012
000330 3b 68 7f 3f 8d 0c 80 3f 7e 7d 80 3f 48 ca 7d 3f
       0.9976842 1.000383 1.0038297 0.9913678
000340 63 bc 7e 3f f2 65 80 3f bc 37 80 3f f3 2c 80 3f
       0.99506205 1.0031111 1.0017009 1.0013717
000350 74 6f 80 3f fd 51 7e 3f 30 79 7f 3f d3 0c 80 3f
       1.0034013 0.99343854 0.9979429 1.0003914
000360 f9 19 80 3f 82 dd 7f 3f 63 a5 7f 3f a9 82 7e 3f
       1.0007926 0.9994737 0.99861735 0.9941812
000370 1b d5 7c 3f 92 68 7e 3f 38 1f 82 3f 51 c6 7f 3f
       0.98762673 0.9937831 1.0165777 0.9991198
000380 3b 1d 83 3f 9b 00 80 3f 0a b9 80 3f 38 b8 82 3f
       1.0243295 1.0000185 1.005647 1.0212469
000390 28 04 81 3f 33 30 81 3f 17 7e 80 3f 2a 50 81 3f
       1.0079393 1.0092834 1.003848 1.0102589
0003a0 42 a5 80 3f f0 b2 80 3f 82 dc 7e 3f 8d 8e 7e 3f
       1.0050433 1.0054607 0.9955522 0.99436265
0003b0 26 03 80 3f 27 77 7f 3f 4d 61 80 3f 2b 39 80 3f
       1.0000961 0.9979119 1.0029694 1.0017446
0003c0 bc 24 7e 3f 27 a4 7e 3f 98 30 80 3f 50 ed 7f 3f
       0.992748 0.99469227 1.001483 0.99971485
0003d0 88 cc 7f 3f c8 17 80 3f 9d d5 7f 3f bf d0 80 3f
       0.99921465 1.0007257 0.99935323 1.0063704
0003e0 d6 9b 80 3f e8 1d 80 3f fe 21 7f 3f 6d 62 80 3f
       1.0047557 1.0009127 0.9966124 1.0030037
0003f0 ff a2 7f 3f dd 78 81 3f c7 e2 7f 3f 16 1e 80 3f
       0.9985809 1.011501 0.9995541 1.0009181

norm1.bias f4 [320, 64]
000000 8f 1c cf 3b 6d 9d 11 bb 8a c3 58 b9 40 5b e8 3b
       0.006320543 -0.0022219077 -0.00020672209 0.007090956
000010 7f 7b 4b bb e1 f6 a6 bb 1f 9d 49 3c 5f 32 ae bb
       -0.0031048951 -0.005095348 0.012305527 -0.0053160633
000020 5b f1 65 3a 2e a7 24 3b 9e 85 5e 3b 2e ff a4 3a
       0.00087716215 0.002512406 0.0033954154 0.0012588257
000030 34 bc 76 3a 01 fd b1 3a 87 dc e5 3a d3 72 6e bb
       0.00094122 0.0013579429 0.0017537036 -0.0036384359
000040 c9 54 a4 bb a9 1b f4 b9 ad e7 4e b9 05 ad 42 3b
       -0.00501499 -0.00046559915 -0.00019731997 0.0029705178
000050 84 53 bd 3b 15 68 13 ba 0a 73 35 bb 08 cc b6 bb
       0.005777778 -0.00056231144 -0.0027686977 -0.0055785216
000060 50 bd 00 ba d6 62 21 bb 58 a3 3b ba cf cb 4d 3a
       -0.0004911022 -0.0024625561 -0.0007157824 0.0007850499
000070 1a b0 88 bc b1 26 0f 3b 24 12 ff ba fd 0b 09 3c
       -0.016685534 0.002184313 -0.0019460362 0.008364675
000080 ef 4d 05 3d 60 7f c3 3a 3e 7e 2e 3c cc f2 34 3c
       0.032545026 0.001491528 0.010650216 0.011044215
000090 56 f1 ef 3a 20 77 92 3a 6b 94 03 3c 6a 94 d3 3b
       0.0018306177 0.0011174418 0.008030991 0.0064569013
0000a0 6e 8e 3a b6 3e 1f 0b 3b 28 5c 20 bb bc cb 70 3b
       -2.7799065e-06 0.0021228339 -0.0024468992 0.003674253
0000b0 fe 11 04 3b 61 aa 1d 3b fd be 79 39 d0 c1 bb ba
       0.0020152326 0.0024057853 0.00023817639 -0.0014324728
0000c0 88 25 15 3b d2 c4 cb 3a 77 04 f2 3b 1c bd 8c 3b
       0.0022757966 0.0015546328 0.007385786 0.0042950045
0000d0 9b ae 5e 3b 8b e2 5f bb fb b3 c3 3b 2c ab 5c b9
       0.0033978585 -0.003416213 0.005972383 -0.00021044601
0000e0 81 66 2a bb b8 72 43 bb 1a a6 70 bb 88 02 59 ba
       -0.0026001038 -0.0029823016 -0.0036720098 -0.000827827
0000f0 94 c1 69 ba 70 9d 29 3c b4 87 0c bb e1 fa 53 3a
       -0.000891709 0.010352477 -0.002144319 0.0008086395
000100 0f f2 9c 39 03 07 3e bb 66 48 8d bb 7a 98 ae 3b
       0.00029934986 -0.0028995879 -0.004311609 0.005328235
000110 ca 3f 5d bb 49 e2 d0 3a a1 5c 92 3b 40 26 af b9
       -0.0033759945 0.0015936579 0.0044666086 -0.000334071
000120 89 09 a9 ba 71 e5 c5 3b 07 a8 2b bb 90 e0 ae 3a
       -0.0012896518 0.0060393144 -0.0026192681 0.0013342071
000130 9e 9a ec b8 ab 22 6c 3b b8 ac ef 3a 01 49 c9 ba
       -0.000112821566 0.0036031406 0.0018285727 -0.001535684
000140 19 80 f7 3a 7a 25 7a bb d5 02 46 b8 d4 4c f8 3a
       0.001888278 -0.003816931 -4.7209516e-05 0.0018943795
000150 7f 7c 0f bb 9a 1f 0e 3a 2e 42 c2 3b 84 f7 89 3a
       -0.0021894274 0.0005421579 0.0059282994 0.0010526036
000160 2c fe d0 39 26 23 5d 3b f9 5b 46 bb 76 b0 5d bb
       0.00039862224 0.0033742874 -0.0030267222 -0.0033827103
000170 9c 33 ad bc 5e 36 0c bc dc 85 4a 3c 37 38 4c 3c
       -0.021142773 -0.008557884 0.012361016 0.012464575
000180 d3 d3 8b bc bf 99 7e bc d6 d0 7d b9 b8 66 0d bc
       -0.01706878 -0.015539586 -0.00024205758 -0.008630447
000190 20 53 47 bb 5e 8b 48 3b ed a8 ba ba dc 01 bd 3b
       -0.0030414537 0.0030600647 -0.0014241018 0.005768044
0001a0 53 c3 82 bb e0 c5 dd 3b c1 10 0d ba f0 d1 24 3b
       -0.0039905696 0.0067679733 -0.00053812197 0.0025149547
0001b0 eb 3a 22 3c 3d 55 bc 3a 5b 71 be 3a 54 aa 0a bb
       0.009901742 0.0014368665 0.0014529632 -0.0021158652
0001c0 98 39 de 3a 47 4c 27 39 48 38 20 3b 41 b4 14 3b
       0.001695442 0.00015954777 0.0024447609 0.0022690448
0001d0 27 46 4b 3b 0b fd 56 bb 1b cb 14 3c 00 37 a9 3b
       0.0031017156 -0.0032804634 0.009081627 0.005164027
0001e0 e2 b2 08 3a 06 f2 be 36 bd 99 cc ba b4 72 c6 3a
       0.0005214644 5.6906165e-06 -0.0015609782 0.0015140385
0001f0 02 12 3a 3b 3d d1 89 3a fa b0 fc 3a 2b 09 46 3b
       0.002839208 0.0010514628 0.0019278817 0.0030217867
000200 e8 fa ac 3a c8 7a 6c 3b a7 bf e3 ba e7 ac 8d 3b
       0.0013197334 0.0036083926 -0.0017375842 0.00432359
000210 ec de 3e 3a 16 d0 30 3a 9b d8 a6 3b 34 fa 8c ba
       0.0007281143 0.00067448744 0.0050917394 -0.0010755719
000220 b8 21 89 3b d3 dd 84 bb 6c 38 01 bb d0 0e 80 bb
       0.004184928 -0.004054764 -0.0019717468 -0.003908016
000230 1a da d6 3a f5 c1 19 3a 10 a1 76 3a 3f 26 2e bb
       0.0016391904 0.00058653887 0.00094081555 -0.002657309
000240 92 50 c1 3a dd 1f b0 3a 79 b4 82 3b 4c f0 22 bb
       0.0014748743 0.001343723 0.003988799 -0.0024862466
000250 4a d8 e5 38 95 21 74 3b b3 7b a6 b9 a4 8c 29 3b
       0.00010959858 0.0037251462 -0.0003175415 0.0025871182
000260 35 01 af 3a 4b 41 b3 bb 0e 9d d3 3b cf 78 c2 3b
       0.00133518 -0.00547043 0.0064579314 0.0059348117
000270 13 41 f7 3a a4 74 07 3b a4 7f c2 bb ea 61 b2 3b
       0.0018863998 0.0020668888 -0.005935626 0.005443801
000280 c8 84 c7 3c 3f 49 5e 3c c2 ef 23 3c f2 1c 12 3c
       0.024355307 0.013567268 0.010005893 0.008918034
000290 6b 8c ec 3b 06 73 3f 3b e4 4c cb 3b de 3f 09 ba
       0.0072188876 0.0029212846 0.0062042344 -0.0005235652
0002a0 46 c5 e9 39 cc 4b 5b bb 26 70 53 ba 73 3e 95 3b
       0.00044588203 -0.0033461927 -0.00080657226 0.0045545637
0002b0 7e a6 fd ba 55 69 da 3b aa 84 d9 b9 58 66 71 bb
       -0.0019351987 0.0066653886 -0.00041488308 -0.0036834683
0002c0 64 a6 a9 3b a0 6b 4a 3b 6c e1 36 3a bd cd a8 3b
       0.005177306 0.0030886903 0.00069763395 0.005151479
0002d0 da c3 f5 3a 93 af 1e 3b 19 d3 91 bb 85 a2 49 bb
       0.0018750385 0.0024213537 -0.0044502136 -0.0030767035
0002e0 ba 21 af bb ec 3f a8 bb 1f 0d 27 ba 5b 8c cb ba
       -0.0053445967 -0.005134573 -0.00063724996 -0.00155295
0002f0 c1 2f c5 3a 45 1a ae 3a 2a ae a7 bb c3 5f 7d bb
       0.0015044139 0.0013282975 -0.0051171975 -0.0038661815
000300 e5 b3 a7 bb 79 11 5f 3c 20 51 05 bc f7 51 39 3b
       -0.0051178806 0.013615006 -0.0081370175 0.0028277615
000310 6a 84 a4 ba ce 16 0d 3b 09 06 b1 3b 3f bd 20 3b
       -0.001255167 0.0021528485 0.005402331 0.0024526862
000320 0e a6 b1 3b 9c ee 71 bc db 12 d5 bb 18 a9 ea ba
       0.0054214066 -0.014766362 -0.006502492 -0.0017903177
000330 56 9f e3 3a f5 f7 52 ba f4 2f 80 bb af c7 20 3c
       0.0017366211 -0.0008047813 -0.0039119665 0.009813233
000340 e6 f2 9c 3b b6 0e 52 bb e1 10 11 bb d3 bd 09 bb
       0.004789698 -0.0032052225 -0.0022135305 -0.0021017685
000350 25 78 55 bb 98 67 dc 3b 4f 37 0a 3b 75 a5 5d ba
       -0.0032572832 0.0067262165 0.0021090095 -0.0008455136
000360 1a da 46 ba 36 3c 27 3a d2 a1 cb 3a 78 57 ef 3b
       -0.00075856 0.00063795166 0.0015535897 0.0073041283
000370 26 d0 05 3c fe 1c d0 3b e0 68 29 bc 9d e4 97 39
       0.008167302 0.0063511124 -0.010339946 0.00028971295
000380 35 af cf bc 07 e9 86 39 8c a1 81 bb 18 5c 1f bc
       -0.0253521 0.0002573209 -0.0039560255 -0.009726547
000390 fc 33 04 bc d1 13 16 bc 38 20 41 bb b2 00 1e bc
       -0.008069035 -0.009159998 -0.0029468667 -0.00964372
0003a0 ef df 94 bb 64 c7 ca bb 17 b2 9e 3b 14 a2 aa 3b
       -0.0045432965 -0.00618832 0.0048430073 0.0052073095
0003b0 01 2b d1 39 62 e9 09 3b 27 7f 55 bb 90 d8 a8 ba
       0.00039895627 0.0021043648 -0.003257701 -0.0012881923
0003c0 10 45 f6 3b 0f 92 9c 3b 93 c7 06 ba a3 b7 c4 b9
       0.007515557 0.0047781537 -0.0005141433 -0.00037520853
0003d0 3b cb 4e 3a 3b 87 40 ba 62 0e 9a 3a be 04 ac bb
       0.000788856 -0.00073443697 0.0011753554 -0.0052495888
0003e0 9c 93 7a bb 16 90 b1 ba c6 25 60 3b b0 40 5f bb
       -0.0038234955 -0.0013546969 0.0034202202 -0.0034065656
0003f0 dd 59 cf 3a d7 47 2b bc 56 d8 8d 39 d7 40 a2 ba
       0.0015819628 -0.01045414 0.000270548 -0.0012378943
