model4_params.pkl (torch, 265979 bytes, 24 tensors)

conv1.weight f4 [320, 1, 3]
0	0xbf2c2a91	-0.6725245
1	0xbe79bc07	-0.24388133
2	0xbef490a7	-0.4776661
3	0x3edcaa01	0.43098453
4	0x3efda072	0.49536473
5	0x3d929eb7	0.07159179
6	0x3ef54988	0.47907662
7	0xbf07c4e4	-0.53034806
8	0xbe05486e	-0.13015911
9	0x3ea862a3	0.32887754
10	0x3c9e6078	0.01933311
11	0xbed61856	-0.41815442
12	0x3dd24b8f	0.10268318
13	0x3e9f80e4	0.31153023
14	0x3e39d899	0.18149032
15	0xbec53a42	-0.3852101
16	0xbe399793	-0.18124227
17	0x3c90e7c4	0.01768864
18	0xbeffaa7a	-0.4993475
19	0x3ec84b40	0.3911991
20	0xbe3e05da	-0.1855692
21	0x3e83512a	0.2564786
22	0x3e1422f3	0.14466457
23	0x3ed7883d	0.4209613
24	0xbe0bfee2	-0.13671449
25	0x3f052368	0.5200715
26	0xbe0ff5f6	-0.1405867
27	0xbe0f9be5	-0.14024313
28	0xbddf0754	-0.108900696
29	0xbcaf9b64	-0.0214364
30	0x3ee21017	0.441529
31	0xbe57bb93	-0.21067648
32	0x3e000fa5	0.12505968
33	0xbe354cfd	-0.1770515
34	0x3e9d4e84	0.30723965
35	0xbf072a69	-0.5279909
36	0xbeb8e62c	-0.36113107
37	0x3e4a13d4	0.19734126
38	0xbf145c9d	-0.57953817
39	0xbd4d48d2	-0.050118275
40	0x3dd580f9	0.1042499
41	0x3ea46e45	0.3211538
42	0xbf13c70b	-0.5772559
43	0x3e80a205	0.2512361
44	0x3ecf4094	0.40478957
45	0x3dd8006f	0.10546958
46	0x3e4c84ea	0.19972578
47	0x3f030189	0.5117422
48	0xbefe244b	-0.49637064
49	0xbed88590	-0.422894
50	0x3e5fac51	0.21843077
51	0x3ef7a2c9	0.48366383
52	0x3f09b18f	0.5378656
53	0xbf18c24b	-0.5967147
54	0x3ea7b297	0.3275344
55	0xbeb40923	-0.3516322
56	0x3e3fed5d	0.1874289
57	0x3e662c57	0.22477852
58	0xbe46f08f	-0.19427703
59	0xbec92139	-0.3928316
60	0xbef51979	-0.47870997
61	0x3e5db003	0.21649174
62	0xbe82dab4	-0.25557482
63	0x3f047cac	0.51752734
64	0x3f070c15	0.5275281
65	0x3ede5fdb	0.43432507
66	0x3e6de43f	0.232316
67	0xbd36b036	-0.04460164
68	0x3ea057dd	0.31317034
69	0xbad82f35	-0.0016493561
70	0xbe4ac7b2	-0.1980274
71	0xbf36485a	-0.7120415
72	0xbf17b9cf	-0.59267896
73	0xbf278bf3	-0.6544792
74	0x3e5b3919	0.214085
75	0xbd8b43c0	-0.06800032
76	0x3bbbb2c4	0.0057280976
77	0xbef61d7e	-0.48069376
78	0x3ee12995	0.43977037
79	0xbea7c63a	-0.32768422
80	0x3f082e92	0.5319606
81	0xbdd38cec	-0.10329613
82	0xbe6eccb2	-0.23320273
83	0x3ef46443	0.47732744
84	0x3e02e0fd	0.12781139
85	0xbe17381c	-0.14767498
86	0xbf056106	-0.5210117
87	0xbe925341	-0.28579143
88	0xbef23f4d	-0.4731392
89	0xbe30e684	-0.17275435
90	0xbe2bf6e5	-0.16793402
91	0x3efee504	0.497841
92	0x3eeebc0e	0.4662785
93	0xbe66f1b2	-0.22553137
94	0xbf02266f	-0.50839895
95	0xbf15d5ca	-0.5852934
96	0xbda25b2e	-0.079275474
97	0x3e5bc782	0.21462825
98	0xbf0a5963	-0.54042643
99	0x3ebaf5d6	0.36515683
100	0xbe9859b3	-0.29755935
101	0xbe782a21	-0.24234821
102	0x3f0bb0b5	0.5456651
103	0x3e820832	0.25396878
104	0xbdbbdf17	-0.091734104
105	0x3df82f0a	0.12118347
106	0x3c9e209e	0.019302662
107	0x3e82d41a	0.25552446
108	0x3ece179a	0.40252382
109	0xbf018365	-0.5059112
110	0x3f088acc	0.5333679
111	0xbf13d31e	-0.57744014
112	0x3d3cf3ed	0.046131063
113	0xbe1bb7ac	-0.15206784
114	0xbf13d79d	-0.57750875
115	0x3eac48cf	0.336493
116	0xbda762f1	-0.081731685
117	0x3efdbfed	0.4956049
118	0xbe0944da	-0.13405171
119	0xbd556700	-0.05210018
120	0x3eb9232f	0.36159655
121	0x3ee5652f	0.4480376
122	0x3e9364a6	0.28787726
123	0xbe8c5ca1	-0.2741442
124	0xbf184dc8	-0.59493685
125	0xbe022091	-0.12707736
126	0x3c1c5c92	0.009543555
127	0x3e0721da	0.13196507
128	0xbf10f8ab	-0.5662944
129	0xbe1224b4	-0.14271814
130	0x3eea1268	0.45717168
131	0xbe7c6139	-0.24646463
132	0x3eb338ee	0.3500437
133	0x3dd1457a	0.1021833
134	0xbe253440	-0.16133213
135	0x3e6f284f	0.2335522
136	0x3ee3768f	0.4442639
137	0xbed52cf6	-0.41635865
138	0xbf000e8a	-0.50022185
139	0xbe067ed6	-0.13134322
140	0xbde0e969	-0.109820195
141	0xbe33693e	-0.17520615
142	0x3eb84f64	0.3599807
143	0x3de1aa16	0.110187694
144	0x3b970625	0.004608887
145	0x3ecabc01	0.3959656
146	0x3ebba742	0.36651045
147	0xbef0d8b7	-0.4704034
148	0xbe91582f	-0.2838759
149	0x3e8da159	0.2766216
150	0xbf061aef	-0.5238485
151	0x3ec79677	0.38981983
152	0xbe6b55f7	-0.22982012
153	0xbe792426	-0.24330196
154	0x3ea3e66e	0.3201174
155	0x3ea3da92	0.32002693
156	0xbdf683fb	-0.12036892
157	0x3f057f54	0.5214741
158	0xbefcbc2e	-0.4936232
159	0x3f0d6648	0.55234194
160	0x3c086537	0.008324913
161	0x3ea31544	0.31852162
162	0x3e9faf17	0.3118827
163	0x3d9c1450	0.07621062
164	0x3e8cde10	0.2751317
165	0xbd9fcfc1	-0.07803298
166	0x3ee588a7	0.4483082
167	0xbe4a695d	-0.19766755
168	0xbed20ce9	-0.41025475
169	0x3b596782	0.0033173268
170	0x3f0786a1	0.529398
171	0xbeed8e7d	-0.46397772
172	0xbe9b3a5c	-0.30317962
173	0xbeab5aac	-0.33467615
174	0x3dab619f	0.08368229
175	0x3e0df8de	0.13864467
176	0x3db49030	0.08816564
177	0x3f06cf37	0.52659935
178	0x3e917f5e	0.28417486
179	0x3ea859b3	0.32880935
180	0x3d818a01	0.0632515
181	0x3ef7ab3e	0.48372835
182	0x3ef2c3de	0.4741506
183	0x3ece797f	0.4032707
184	0x3e2213fc	0.15827936
185	0x3bbbeddc	0.005735142
186	0xbe1ab089	-0.15106405
187	0x3ed41661	0.41423324
188	0xbe290f4d	-0.16509743
189	0x3eadedd1	0.33970502
190	0xbd9b2b42	-0.0757661
191	0x3ed8c98d	0.4234127
192	0xbf068653	-0.5254871
193	0xbdbf12e7	-0.09329777
194	0xbececd1d	-0.40390864
195	0xbf015795	-0.50524265
196	0xbeb3bca6	-0.35104865
197	0x3e389446	0.18025312
198	0xbee8474d	-0.45366898
199	0x3f051752	0.5198871
200	0x3f0230e7	0.5085587
201	0xbeb401e6	-0.35157698
202	0xbdc5f17e	-0.096652016
203	0x3d934814	0.07191482
204	0x3ecd1772	0.4005695
205	0x3e9fa4c5	0.31180397
206	0xbef1d4ab	-0.47232565
207	0x3ec6b77c	0.38811862
208	0x3ec37229	0.38173035
209	0xbe67e755	-0.2264684
210	0x3efe88e0	0.49713802
211	0x3ee4910c	0.44641912
212	0x3f003f69	0.50096756
213	0x3dde3b25	0.10851125
214	0x3e8d8fa7	0.2764866
215	0x3e3523c5	0.17689426
216	0x3d210796	0.039313875
217	0x3d0d5883	0.03450824
218	0x3e564bd1	0.20927359
219	0xbcb83e0c	-0.022490524
220	0xbeb37fcc	-0.3505844
221	0x3eabdf0f	0.33568618
222	0xbe5317bd	-0.20614524
223	0x3d5e83a9	0.05432478
224	0xbf1fc0f8	-0.6240382
225	0xbbb854d3	-0.005625346
226	0xbf00ed94	-0.50362515
227	0xbeda0266	-0.42579955
228	0x3dfb757e	0.12278269
229	0x3eecb033	0.4622818
230	0xbeb9713c	-0.36219203
231	0xbf108e2d	-0.56466943
232	0x3e0a9928	0.13534987
233	0x3ecce515	0.40018526
234	0xbefff049	-0.4998801
235	0xbf08d792	-0.53453934
236	0x3efc0505	0.4922258
237	0xbec34a02	-0.381424
238	0x3e9e9a31	0.30977014
239	0x3c08a170	0.008339271
240	0xbf0b1f63	-0.5434477
241	0x3ed0abf1	0.4075618
242	0x3ea309bd	0.31843367
243	0xbe133abb	-0.14377873
244	0xbdb27082	-0.087128654
245	0x3f0991c0	0.5373802
246	0x3e127c4e	0.14305231
247	0xbed6fb98	-0.41988826
248	0xbd6aba16	-0.05730637
249	0x3ece2e5d	0.40269747
250	0x3e2f5730	0.17123103
251	0x3f063633	0.5242645
252	0xbe521731	-0.2051666
253	0x3efc482e	0.4927382
254	0x3ec1755d	0.37784854
255	0xbc0cf6b2	-0.008603739

conv1.bias f4 [320]
0	0x3f085cc6	0.5326656
1	0xbdc47dd2	-0.09594311
2	0xbf10e425	-0.5659812
3	0x3e9f2637	0.31083843
4	0x3e784b29	0.24247421
5	0x3ec6f959	0.38862112
6	0x3edc2287	0.42995092
7	0x3f15e445	0.58551437
8	0x3f09264e	0.53574073
9	0x3e4715a4	0.19441849
10	0x3ede37e7	0.43402025
11	0xbd8a9b87	-0.06767946
12	0xbe556507	-0.2083932
13	0xbf0997f1	-0.5374747
14	0xbdb243da	-0.08704348
15	0x3ef8a934	0.48566592
16	0x3edaee19	0.4275978
17	0xbe27c032	-0.1638191
18	0x3f1e525b	0.61844414
19	0xbd6041b1	-0.05475015
20	0x3ec3ee28	0.38267636
21	0x3e9e8c06	0.30966204
22	0xbdac3462	-0.08408429
23	0xbeae7f8b	-0.34081683
24	0x3e910eaa	0.283315
25	0xbb5fe89f	-0.0034165753
26	0xbe3e17df	-0.18563794
27	0x3e7b4617	0.24538456
28	0xbe1eff4b	-0.15527074
29	0x3f0c9fe8	0.549315
30	0xbf16c6c6	-0.58897054
31	0x3ebb1666	0.36540526
32	0xbdb05420	-0.086097956
33	0x3f2207e5	0.63293296
34	0xbee30431	-0.44339135
35	0xbeb31a0a	-0.34980804
36	0xbe132f1e	-0.14373443
37	0x3ec423b3	0.38308486
38	0x3e477aa8	0.19480383
39	0xbe778972	-0.24173525
40	0x3f1370c8	0.57593966
41	0x3f004646	0.5010723
42	0x3e330685	0.17482956
43	0xbeb104ea	-0.34574062
44	0x3e9560b5	0.29175344
45	0x3e8d32b8	0.27577758
46	0x3da8c07a	0.08239837
47	0x3edfff9d	0.43749705
48	0xbec29fb8	-0.3801248
49	0xbe662139	-0.22473611
50	0xbed6ca89	-0.41951397
51	0x3e9e8d82	0.30967337
52	0xbe02cef8	-0.12774265
53	0x3ed83d9e	0.4223451
54	0x3e250735	0.1611603
55	0x3ed73da0	0.42039204
56	0xbeeb7602	-0.4598847
57	0xbe1ff316	-0.15620074
58	0x3d9c3534	0.07627335
59	0xbe9c532f	-0.30532214
60	0x3eb8fa66	0.3612854
61	0xbdbe8aa4	-0.09303787
62	0x3e6521a7	0.22376119
63	0xbedf6204	-0.43629467
64	0x3ef3fce2	0.47653872
65	0x3f273996	0.65322244
66	0xbefc32c5	-0.49257484
67	0xbdc7d899	-0.097581096
68	0xbe79cfdd	-0.243957
69	0xbe802fed	-0.25036564
70	0x3e9fdc8c	0.3122295
71	0xbe8d9ca1	-0.2765856
72	0xbf0bc00d	-0.5458992
73	0xbe2bbd5a	-0.1677145
74	0x3e8518a7	0.2599537
75	0x3e8ea102	0.27857214
76	0x3caba2a1	0.020951571
77	0x3f0fecf3	0.5622093
78	0x3c8a77bf	0.016902803
79	0x3e8025de	0.2502889
80	0xbf24b3b8	-0.6433673
81	0xbebf3302	-0.37343603
82	0xbdfd57c7	-0.12370258
83	0x3db3b98b	0.08775624
84	0xbf0431ac	-0.51638293
85	0xbf1468fe	-0.57972705
86	0x3d749bae	0.05971878
87	0x3e64e32a	0.22352281
88	0xbe4ce60b	-0.2000963
89	0x3e246203	0.16053014
90	0xbd504abd	-0.050852526
91	0xbed7fd50	-0.4218545
92	0x3e38e9d5	0.1805795
93	0x3ef33a34	0.47505343
94	0x3e406baa	0.1879107
95	0x3ed79ac3	0.4211026
96	0xbeddccf4	-0.4332043
97	0x3eef8b4f	0.46785972
98	0x3f1a65c1	0.60311514
99	0xbe28db3a	-0.16489878
100	0x3ea3fb1e	0.32027525
101	0x3e827651	0.25480893
102	0x3e99c786	0.30035037
103	0x3f056f6a	0.5212313
104	0x3e29ce0d	0.16582508
105	0xbeeeade4	-0.46617043
106	0x3e86595a	0.26240045
107	0xbedd0aca	-0.43172294
108	0xbe448e72	-0.19194964
109	0xbeb56b92	-0.35433632
110	0xbb0eb8a5	-0.0021777537
111	0x3eb4959d	0.35270396
112	0x3e9e49ee	0.3091578
113	0xbdd45ca0	-0.10369229
114	0x3f04bf9f	0.5185489
115	0x3e36a8e9	0.17837872
116	0x3eb3270b	0.34990725
117	0x3ef9d5f8	0.48796058
118	0xbec91b41	-0.39278606
119	0x3da22e15	0.07918946
120	0x3e9fc856	0.31207532
121	0xbe95efe0	-0.29284573
122	0xbb950aec	-0.004548421
123	0xbda2847d	-0.079354264
124	0x3e9454b2	0.28970867
125	0x3d279416	0.04091271
126	0xbe9c2f57	-0.30504867
127	0xbea7d669	-0.3278077
128	0xbe765b21	-0.240582
129	0xbee4ab95	-0.44662157
130	0xbca0bead	-0.019622171
131	0x3ddc6530	0.107614875
132	0x3f251dfd	0.64498883
133	0xbeec7969	-0.4618638
134	0x3e295a4b	0.1653835
135	0x3e6df559	0.23238124
136	0x3f0012a8	0.5002847
137	0x3e6239c7	0.22092353
138	0x3e436b95	0.19084008
139	0xbecbb456	-0.39786023
140	0xbea36427	-0.31912348
141	0xbeb7d035	-0.35901037
142	0xbeab18c6	-0.33417338
143	0xbebfe8c8	-0.37482285
144	0xbed5fe07	-0.4179537
145	0x3e8aa160	0.27076244
146	0x3ecac1c4	0.39600956
147	0x3db7198e	0.08940421
148	0x3dea2e7a	0.11434646
149	0x3efbc64d	0.4917473
150	0xbee1bd6b	-0.44089827
151	0x3f12d21a	0.5735184
152	0x3f2058a6	0.62635267
153	0xbe75b303	-0.23994069
154	0xbe5bd990	-0.21469712
155	0x3eca01ff	0.39454648
156	0x3dca493f	0.09877252
157	0x3ec4beee	0.38426918
158	0xbe810640	-0.2520008
159	0xbe9492b3	-0.29018173
160	0xbe617bf7	-0.22019945
161	0xbee5b281	-0.4486275
162	0xbd8895b3	-0.06669178
163	0x3eb14997	0.34626457
164	0x3efbf0e0	0.4920721
165	0x3e4ef63e	0.20211121
166	0x3c323d0d	0.010878813
167	0xbf077aa3	-0.52921504
168	0xbe7028bc	-0.23453039
169	0x3f2ad45e	0.66730297
170	0xbea931be	-0.33045763
171	0x3ea03171	0.3128772
172	0xbd663099	-0.05619869
173	0x3ee88b9f	0.45419022
174	0x3f09252b	0.5357234
175	0x3e08fac5	0.13376911
176	0xbf0d77cc	-0.5526092
177	0x3ec37236	0.38173074
178	0xbda08a35	-0.07838861
179	0xbea13456	-0.31485242
180	0x3ea0c157	0.31397507
181	0x3ee54eae	0.4478659
182	0xbede29f9	-0.43391398
183	0xbea0021e	-0.31251615
184	0xbd26caf9	-0.040720914
185	0x3d033350	0.032031357
186	0x3ed21c6c	0.4103731
187	0x3dc67c96	0.09691732
188	0x3eae6189	0.34058788
189	0x3dc53843	0.09629872
190	0xbb92c04c	-0.00447849
191	0x3ecb44b3	0.3970085
192	0x3edd9c5f	0.43283364
193	0xbedeec9e	-0.435399
194	0xbe1125d1	-0.14174582
195	0xbbf239da	-0.0073921503
196	0xbe8f2785	-0.27959839
197	0x3ec25c4d	0.37961045
198	0xbdd81d22	-0.10552432
199	0xbeec0e3a	-0.46104604
200	0x3e87c1aa	0.2651494
201	0xbedbb70f	-0.429131
202	0xbebd5fa9	-0.36987045
203	0x3e9eb922	0.3100062
204	0xbef4e3fa	-0.47830182
205	0xbeec9335	-0.4620606
206	0x3d0fba9e	0.03509008
207	0x3e963321	0.29335883
208	0xbebff7d2	-0.3749376
209	0xbf09b09f	-0.5378513
210	0xbbfdd2bd	-0.007746069
211	0xbe6e4627	-0.23268948
212	0xbdf8d10d	-0.12149248
213	0xbeed9106	-0.46399707
214	0x3ecf4f9e	0.4049043
215	0x3e88f6ef	0.26750895
216	0x3cb44b1e	0.022008475
217	0xbe5b1623	-0.21395163
218	0x3e80602c	0.25073373
219	0xbd20e343	-0.039279234
220	0xbe92445c	-0.2856778
221	0xbe82f756	-0.25579327
222	0x3ef81f3c	0.4846133
223	0x3efb108c	0.49036062
224	0xbecc0e35	-0.3985459
225	0x3f085dfe	0.5326842
226	0x3ea2f70f	0.31829116
227	0x3e0006c9	0.12502588
228	0x3e9b7faf	0.30370852
229	0xbeae69bd	-0.34065047
230	0x3edd932b	0.43276343
231	0xbeae68c1	-0.34064296
232	0x3e08e97f	0.13370322
233	0x3e8faea1	0.2806292
234	0x3e692ea6	0.22771701
235	0x3e4faf49	0.2028171
236	0x3cb9ab57	0.022664709
237	0x3e8d1d67	0.27561495
238	0x3e37d2df	0.17951535
239	0x3f0659e3	0.52480906
240	0x3ee13452	0.4398523
241	0x3e7bea88	0.24601185
242	0xbf06e402	-0.5269166
243	0xbe4aec15	-0.1981662
244	0x3f074761	0.5284329
245	0x3e74cffd	0.23907466
246	0xbed07f35	-0.4072205
247	0x3c9f675f	0.01945847
248	0x3e959c86	0.2922098
249	0x3ee9ef30	0.45690298
250	0x3cdc99b9	0.02692877
251	0x3f14ef4f	0.58177656
252	0x3e5e0cfe	0.21684644
253	0x3ebec48b	0.37259325
254	0x3f080cd6	0.53144586
255	0xbd91dee3	-0.071225904

conv2.weight f4 [16, 320, 1]
0	0xbbd1b686	-0.0063999323
1	0x3d41ffac	0.04736297
2	0xbcf2396d	-0.029568398
3	0xbd3809b2	-0.04493112
4	0x3d43f79d	0.047843564
5	0x3a9af5c3	0.001182251
6	0x3d424717	0.047431078
7	0xbcbfa542	-0.02339423
8	0x3c441a1b	0.011969115
9	0x3d0fdf93	0.035125326
10	0xbb982776	-0.004643376
11	0x3cb4ffea	0.022094686
12	0x3d48487d	0.048897255
13	0xbd10a923	-0.03531755
14	0xbd1704cf	-0.03686982
15	0xbd1025f4	-0.035192445
16	0xbc12f6e9	-0.008970001
17	0x3cbb17cc	0.022838496
18	0x3c1c2fa1	0.00953284
19	0x3ca789f0	0.020451516
20	0x3cd2ac03	0.025716787
21	0x3d5c0a45	0.05372073
22	0x3d1fb52d	0.038991142
23	0xbd219b77	-0.039454903
24	0xbb3f72d6	-0.0029212735
25	0xbcef8b97	-0.029241366
26	0xbce4b56f	-0.027918546
27	0x3d0af33a	0.033923365
28	0xbd56d0d6	-0.052445255
29	0x3d24afff	0.040206905
30	0xbca93435	-0.020654777
31	0x3cf3959c	0.029734425
32	0xbcaa3ac1	-0.02077997
33	0xbd108fa9	-0.035293255
34	0xbd65dc5c	-0.056118354
35	0x3ccbb952	0.024868641
36	0xbc60d533	-0.013722706
37	0xbc8937bc	-0.016750209
38	0xbd0b1217	-0.0339528
39	0xbc26f6fc	-0.010190722
40	0xbd5cf4e8	-0.0539445
41	0x3d37608d	0.044769812
42	0x3afe6bf7	0.0019410838
43	0x3c51594f	0.0127776405
44	0x3d1a5d1b	0.03768645
45	0xbcb2f14c	-0.021843575
46	0xbc47ad2d	-0.012187284
47	0x3d37d9f3	0.044885587
48	0x3c3b00d2	0.01141377
49	0xbce05d04	-0.027388103
50	0xbcb30b2d	-0.021855915
51	0xbd1887be	-0.03723883
52	0x3cb83746	0.022487294
53	0xbd0f285c	-0.0349506
54	0xbc316234	-0.010826636
55	0xbc9bb450	-0.019006878
56	0x3ce10164	0.027466483
57	0x3d6d2ef0	0.05790609
58	0xbd58bba7	-0.052913334
59	0x3d0e411a	0.034730054
60	0x3c2e0fa9	0.010623851
61	0xbc52216c	-0.012825351
62	0x3cbf01c1	0.023316266
63	0x3bc9157e	0.0061365953
64	0x3a330d41	0.0006830283
65	0x3cd19ea4	0.025588341
66	0x3ad5afa7	0.0016302959
67	0x3d288042	0.04113794
68	0xbd494b4a	-0.049144067
69	0x3c886c4c	0.016653202
70	0x3d31f791	0.04344899
71	0x3c396ea3	0.011317882
72	0x3c5a7ee4	0.013335917
73	0xbbac5820	-0.0052595288
74	0xbd0465d8	-0.03232369
75	0x3d4a4e55	0.04939111
76	0xbd46b6d6	-0.04851421
77	0xbd3204ae	-0.043461494
78	0xbd49d89e	-0.049278848
79	0xbd181a9d	-0.037134755
80	0x3d58f2d8	0.05296597
81	0xbd374413	-0.044742655
82	0xbbcfda38	-0.0063431524
83	0xbc215de2	-0.009849044
84	0xbd31da55	-0.04342111
85	0xbd2ee864	-0.042702094
86	0x3cadab65	0.021199891
87	0x3d31b32c	0.043383762
88	0x3c2c4dec	0.010516625
89	0x3cd1075d	0.025516206
90	0x3cc0abf8	0.023519501
91	0xbcc17365	-0.023614595
92	0xbcf005d6	-0.029299658
93	0xbd05bf12	-0.032652922
94	0xbd090741	-0.033454183
95	0x3c19aef4	0.009380091
96	0xbc54e2e2	-0.012993546
97	0xb85586ca	-5.090869e-05
98	0x3d38df1e	0.045134656
99	0x3d2dfc2a	0.04247681
100	0x3cb3044e	0.021852639
101	0xbcbc42e9	-0.022981124
102	0xbc9298c1	-0.017895104
103	0xbd310c43	-0.043224584
104	0x3c250c1b	0.010073687
105	0xbcfe80e3	-0.031067317
106	0xbd22d2f2	-0.039751954
107	0x3c6a9fd0	0.014320329
108	0xbd17a17f	-0.03701925
109	0x3d68729e	0.056749932
110	0xbc18d8a0	-0.009328991
111	0xbd052e95	-0.032515127
112	0xbd38f5bd	-0.04515623
113	0x3cebc64e	0.028781082
114	0xbd31ebad	-0.04343765
115	0x3cd4881e	0.025943812
116	0xbd70dfcc	-0.05880718
117	0xbc19b11f	-0.009380608
118	0xbd39a88c	-0.045326754
119	0x3cb9c04b	0.0226747
120	0x3c59c6a2	0.013291987
121	0xbc28b5c4	-0.010297243
122	0xbd33bfd3	-0.04388411
123	0x3cc4a85a	0.024006058
124	0xbd1ea19c	-0.03872834
125	0x3c8ea2a9	0.017411547
126	0x3d25f0f2	0.040512986
127	0x3c892d5b	0.01674526
128	0x3d429600	0.047506332
129	0x3ce8c9cf	0.028416542
130	0xbce9ed14	-0.02855543
131	0xbd2fad63	-0.042889964
132	0xbc84f99b	-0.016232302
133	0x3c7abb37	0.015303425
134	0x3cf9d567	0.030497266
135	0x3d390a35	0.04517575
136	0x3c578ff7	0.0131568825
137	0xba71e049	-0.00092268415
138	0xbcf393ba	-0.029733527
139	0x3cbb1561	0.022837343
140	0x3cfb0af5	0.030644873
141	0xbcca8dc3	-0.0247258
142	0x3ca1ced4	0.019751944
143	0x3d169faf	0.03677338
144	0x3ce16935	0.027515987
145	0xbd4e4a28	-0.05036369
146	0xbd1dec46	-0.038555406
147	0xbd3761ae	-0.04477089
148	0x3c9b025a	0.01892202
149	0x3d2b1534	0.041768268
150	0xbcd90d25	-0.026495526
151	0xbd6d9725	-0.05800547
152	0xbd4f92d6	-0.050677143
153	0x3b9be0de	0.004757031
154	0x3d41e4a5	0.047337193
155	0xbc426a6f	-0.011866196
156	0xbafe49a0	-0.0019400604
157	0x3d01f9ac	0.031732246
158	0x3d1f8086	0.03894093
159	0x3c727bf6	0.014800062
160	0x3cab421e	0.02090555
161	0x3c9a1bb7	0.018812044
162	0x3d5161ce	0.051118664
163	0x3ccaeec7	0.024772061
164	0xbd163582	-0.036672123
165	0xbca560eb	-0.020187816
166	0xbd1dc752	-0.038520165
167	0xbd197fad	-0.037475277
168	0x3ba13c61	0.004920528
169	0x3b21b38a	0.0024673664
170	0xbc20f6bb	-0.00982445
171	0x3c08ad0f	0.008342042
172	0xb990f0fc	-0.00027645368
173	0xbd114149	-0.03546265
174	0xbb9772b5	-0.0046218284
175	0x3cecef63	0.028922742
176	0x3d0693f7	0.032855954
177	0xbcd34eea	-0.025794465
178	0x3d060a3a	0.032724597
179	0xbd386d88	-0.045026332
180	0x3d25e72f	0.040503677
181	0x3d13ab9b	0.036052328
182	0xbd4f1b2b	-0.05056302
183	0xbd177158	-0.036973327
184	0x3d278ba9	0.040904675
185	0x3d3ba94c	0.04581575
186	0x3cd3ab3b	0.025838485
187	0xba687cc5	-0.000886869
188	0x3c4f60fe	0.012657402
189	0x3d4778a5	0.04869904
190	0xbd4244c3	-0.047428858
191	0xbbdac10a	-0.006675844
192	0xbaa29630	-0.0012404379
193	0xbd0ef842	-0.034904726
194	0xbd1e7a4b	-0.038690846
195	0xbce132d9	-0.027490066
196	0xbceb42bd	-0.028718347
197	0x3cc8bd52	0.024504337
198	0x3d2fe0ef	0.042939123
199	0x3d18f09a	0.03733883
200	0xbbf2a3bd	-0.007404773
201	0x3d03a9cc	0.032144353
202	0xbaadcdcf	-0.0013260188
203	0xb8af803a	-8.368534e-05
204	0x3cb9e045	0.022689948
205	0xbd19cdca	-0.03754977
206	0xbd3c6dc6	-0.046003126
207	0x3d0197fa	0.031639077
208	0xbd1d4e7f	-0.038404938
209	0xbc2de34a	-0.010613272
210	0xbd3b3582	-0.045705326
211	0xbc83d1aa	-0.016091187
212	0xbd0e391a	-0.034722425
213	0x3aad8eb1	0.0013241378
214	0xbd5e726f	-0.05430835
215	0x3c6e45c6	0.0145430025
216	0x3d4365c3	0.04770447
217	0xbaef1694	-0.0018240982
218	0x3c0ca9cf	0.008585407
219	0x3d23b47d	0.03996705
220	0xbd67d452	-0.05659897
221	0xbccf9ec9	-0.02534427
222	0xb7d51ca9	-2.5404925e-05
223	0x3c945dc0	0.01811111
224	0x3d49ce16	0.049268804
225	0x3cdf246a	0.027239043
226	0xbd417fa7	-0.04724088
227	0x3cc83554	0.024439491
228	0xbab5b558	-0.0013863249
229	0xbc9a0443	-0.01880086
230	0x3ceccd9b	0.028906634
231	0x3b2c5c0d	0.0026299984
232	0xbcfdd038	-0.030983075
233	0x3d0cd672	0.0343842
234	0xbd51c56f	-0.051213678
235	0xbd0104de	-0.031498782
236	0x3d41130b	0.0471373
237	0xbd06c0c5	-0.032898683
238	0x3af507be	0.0018694324
239	0x3d5015e2	0.05080212
240	0xbd1007d6	-0.035163723
241	0x3d73f93e	0.059563868
242	0xbcb7e3da	-0.022447515
243	0xbcac2f9d	-0.021018798
244	0x3bda28c6	0.0066576926
245	0xbd30ea2c	-0.043192074
246	0x3ca844c2	0.020540599
247	0xbb0f8014	-0.002189641
248	0x3d4320dc	0.04763876
249	0xbca58627	-0.02020557
250	0x3c9fa9cb	0.019490143
251	0x3c34aff0	0.011028275
252	0xbb410632	-0.0029453156
253	0x3cdbca80	0.026829958
254	0xbc97ab04	-0.018514164
255	0x3d40ba8d	0.04705291

conv2.bias f4 [16]
0	0x3c5c4d5a	0.013446176
1	0x3d021521	0.03175843
2	0x3d1c2f38	0.03813097
3	0x3b8ac325	0.004234689
4	0x3d555aaa	0.052088417
5	0x3cc4d1b3	0.024025774
6	0x3c55e2ac	0.013054531
7	0x3d5b42d4	0.05353053
8	0x3c35b3b1	0.011090205
9	0x3d89090e	0.0669118
10	0xb9e3f153	-0.00043476615
11	0xbd2af00c	-0.041732833
12	0x3d122679	0.03568122
13	0x3cc5f882	0.02416635
14	0xbcb9543a	-0.02262317
15	0xbd5e4f7b	-0.054275017

conv3.weight f4 [64, 16, 1]
0	0x3e3f75c7	0.18697272
1	0xbe391bea	-0.18077055
2	0xbdf37894	-0.11888233
3	0xbe390522	-0.18068364
4	0xbdcffc7b	-0.10155579
5	0x3dc66f2e	0.096891746
6	0x3e4505ed	0.19240542
7	0xbd2cd3bf	-0.042194124
8	0x3e6beaac	0.23038739
9	0xbe6db9c7	-0.232154
10	0xbd864d3d	-0.06557701
11	0xbe12a971	-0.1432245
12	0x3e47a63e	0.1949701
13	0x3c0dc547	0.008652992
14	0x3e14b40f	0.14521812
15	0x3c29a1be	0.010353504
16	0x3e450fb2	0.19244269
17	0x3e300b61	0.1719184
18	0x3e36bb6c	0.17844933
19	0x3db88fbf	0.090117924
20	0xbde2b295	-0.11069218
21	0x3d5668ff	0.052346226
22	0xbd881075	-0.06643764
23	0xbe238712	-0.15969494
24	0x3e74a40f	0.23890708
25	0x3d69dc1c	0.05709468
26	0xbe3adb48	-0.18247712
27	0x3e2cecce	0.16887209
28	0xbe39cc00	-0.18144226
29	0xbdfb6443	-0.12274983
30	0xbe262ce5	-0.16228063
31	0xbe216d50	-0.15764356
32	0x3d1046f7	0.035223927
33	0xbd10d5cf	-0.035360154
34	0xbe35df24	-0.17760903
35	0x3e786122	0.24255803
36	0xbdb13c19	-0.08654041
37	0x3daa8693	0.08326449
38	0x3be75d3a	0.007060674
39	0x3de312ab	0.11087545
40	0xbe0cdb49	-0.13755526
41	0xbd9ff926	-0.07811193
42	0xbb136b01	-0.00224942
43	0xbe3d2582	-0.1847134
44	0x3e7cfbe9	0.24705471
45	0x3e7921c3	0.24329285
46	0xbdfa80f1	-0.12231625
47	0x3e704ba6	0.23466358
48	0xbdf94ce9	-0.121728726
49	0x3df042c2	0.11731483
50	0xbe4ca8e7	-0.19986306
51	0xbe62796b	-0.2211663
52	0x3e64c814	0.22341949
53	0x3cd5f92d	0.026119793
54	0x3e6f2710	0.23354745
55	0x3dcbffd7	0.09960907
56	0xbe41cf6d	-0.18926783
57	0x3dfe629d	0.12421153
58	0xbe5f7e41	-0.21825506
59	0xbdb672de	-0.08908628
60	0x3e5c5659	0.21517314
61	0xbde57af2	-0.112050906
62	0xbdd3060c	-0.10303888
63	0xbcde3dc4	-0.027129062
64	0x3e52af95	0.20574792
65	0x3db85415	0.090004124
66	0xbd9b22a0	-0.075749636
67	0xbe12286c	-0.14273232
68	0xbdee7e48	-0.1164518
69	0x3c5359e7	0.012899852
70	0x3e530040	0.20605564
71	0xbd939854	-0.07206789
72	0x3dd20e39	0.10256619
73	0x3da7d1a1	0.081942804
74	0xbe2627f9	-0.16226186
75	0x3e6347cb	0.22195356
76	0xbe479959	-0.19492091
77	0x3c8dedbd	0.017325277
78	0x3e6acc8c	0.22929591
79	0xbe120cf2	-0.1426275
80	0xbe04b36e	-0.12959072
81	0xbd0426ad	-0.032263447
82	0x3e42d223	0.19025473
83	0x3e2f5879	0.17123593
84	0x3e36ef59	0.17864741
85	0xbe49ac7d	-0.19694705
86	0xbe2eeaf5	-0.17081816
87	0xbc9a9ad7	-0.018872662
88	0xbe82b14d	-0.25525895
89	0xbe382862	-0.17984155
90	0x3e663746	0.22482023
91	0x3d66789a	0.05626736
92	0xbe3c5f79	-0.18395795
93	0xbdcfea4e	-0.10152112
94	0xbe7eab51	-0.2487004
95	0x3dd79b39	0.10527653
96	0x3d4ed966	0.050500296
97	0xbdb4e4c8	-0.08832699
98	0x3df69317	0.12039774
99	0xbe732854	-0.23745853
100	0xbd8c9c6a	-0.06865771
101	0xbe45ea60	-0.19327688
102	0x3e77de92	0.24205998
103	0x3e537823	0.20651297
104	0xbdc9794d	-0.098375894
105	0x3e4c7d73	0.1996973
106	0xbdbcd708	-0.092207015
107	0xbd789d63	-0.06069697
108	0xbe476cd4	-0.19475108
109	0x3dfe7708	0.12425047
110	0x3df8fc96	0.12157552
111	0x3de6cd63	0.11269643
112	0x3d60b0e7	0.054856207
113	0x3e67adc5	0.22624882
114	0xbe2817b0	-0.16415286
115	0x3d7f3a15	0.06231125
116	0x3e36cbbd	0.17851157
117	0xbe748cf7	-0.23881899
118	0xbdf9b317	-0.12192362
119	0x3e27d384	0.1638928
120	0xbe30fe4b	-0.17284505
121	0xbe0192b3	-0.12653618
122	0xbe1ab7fa	-0.15109244
123	0x3cd837e5	0.02639384
124	0xbe05ef70	-0.1307962
125	0xbe0e47da	-0.13894597
126	0x3e852fbf	0.2601299
127	0x3ca32c4b	0.019918581
128	0xbd93d0f8	-0.07217592
129	0x3e824de9	0.25450066
130	0x3e1f52e7	0.15558968
131	0xbd7bdb60	-0.06148851
132	0xbd910d33	-0.07082596
133	0x3e6c4dba	0.23076525
134	0xbe7550dd	-0.23956628
135	0xbc4ea240	-0.012611926
136	0xbdd95f6e	-0.10613905
137	0xbe192bf7	-0.14958178
138	0xbe2d7d74	-0.16942388
139	0xbe26e9af	-0.1630008
140	0x3cdd0cbd	0.026983613
141	0xbe4d0c31	-0.20024182
142	0x3e2ad4c0	0.1668272
143	0xbd5da010	-0.054107726
144	0xbdc282c4	-0.09497598
145	0x3b1dfeb0	0.0024108104
146	0x3dd06535	0.10175554
147	0x3e1502a6	0.14551792
148	0x3e635877	0.22201715
149	0x3e1b5b1a	0.15171471
150	0xbe59b57f	-0.21260642
151	0xbe4f587e	-0.20248601
152	0x3e772277	0.24134241
153	0xbd3b3530	-0.04570502
154	0xbe465c9c	-0.19371265
155	0x3c985414	0.01859478
156	0x3c8f6a88	0.017506853
157	0xbd9e2539	-0.077219434
158	0xbe71e69b	-0.23623125
159	0xbe3dc465	-0.1853195
160	0xbe4e375b	-0.20138304
161	0xbe1db078	-0.15399349
162	0xbe5b8fd5	-0.21441586
163	0x3e1bd9ec	0.1521985
164	0x3d9c54ee	0.076333866
165	0xbe6157b9	-0.2200612
166	0x3dffb596	0.12485807
167	0x3e3509ff	0.17679594
168	0x3cabb27e	0.020959135
169	0x3e4f75ed	0.20259829
170	0x3c7e05b8	0.015504293
171	0xbe4df142	-0.20111564
172	0xbe531050	-0.20611691
173	0xbd8912c8	-0.06693035
174	0x3cbe6b17	0.023244424
175	0x3d5cf8b3	0.053948116
176	0x3de1d7ed	0.11027513
177	0x3dc4d54c	0.09610996
178	0x3e023f32	0.1271942
179	0xbe7dd12e	-0.24786827
180	0xbd17529b	-0.036944013
181	0xbe6820eb	-0.22668807
182	0x3e0ecd11	0.13945414
183	0x3d45db41	0.0483048
184	0x3e4b5e52	0.19860199
185	0x3dc9f4e5	0.09861163
186	0x3e1c23c7	0.15248023
187	0xbe7b2da7	-0.24529134
188	0x3c63b9f2	0.013899313
189	0x3dd659f6	0.104663774
190	0x3e37cc53	0.17949037
191	0x3dcf03a2	0.10108115
192	0x3d9a2f16	0.07528512
193	0x3d5d1d02	0.053982742
194	0x3e6d153a	0.23152629
195	0xbd448a96	-0.04798373
196	0x3dce9655	0.10087267
197	0x3cc9f5ac	0.024653278
198	0x3d4de9a6	0.050271653
199	0xbe6bcec3	-0.23028092
200	0x3e6f7dad	0.23387785
201	0xbdebe5ea	-0.11518462
202	0xbdbb334c	-0.091406435
203	0x3dcd5af4	0.100271136
204	0x3e5ac297	0.21363293
205	0xbe17b1a8	-0.14813864
206	0x3be857a2	0.007090525
207	0xbd10e31d	-0.035372842
208	0x3e723b9c	0.23655552
209	0xbe33e287	-0.17566882
210	0x3dc7ecd0	0.09761965
211	0x3db02ebc	0.08602664
212	0xbe681440	-0.22663975
213	0x3e0ebb8c	0.13938731
214	0x3dea534c	0.11441669
215	0xbd305577	-0.043050256
216	0xbe6b3607	-0.22969829
217	0xbe2fea00	-0.17179108
218	0xbcfa8cf4	-0.03058479
219	0x3de10bf0	0.10988605
220	0xbe6e0405	-0.23243721
221	0xbd70a16b	-0.05874769
222	0xbe2a832f	-0.16651605
223	0x3e3fb00e	0.18719503
224	0xbcd916db	-0.026500156
225	0xbe1072d7	-0.14106308
226	0xbdf2d7db	-0.118575774
227	0xbe2cf58a	-0.1689054
228	0xbd974a5a	-0.07387228
229	0xbda99ccf	-0.08281862
230	0xbe407871	-0.18795945
231	0xbe456cb2	-0.19279745
232	0x3ddb2bb0	0.10701692
233	0xbe2d740e	-0.16938803
234	0xbe63f3c6	-0.22260961
235	0xbe5fc853	-0.21853761
236	0xbe47df56	-0.1951879
237	0x3dabe002	0.083923355
238	0x3db90bc9	0.09035451
239	0xbca7a20c	-0.020463012
240	0xbe70733e	-0.23481461
241	0xbde34d6b	-0.11098751
242	0xbdd529cd	-0.104083635
243	0xbe02b00d	-0.1276247
244	0x3d797cd1	0.06091005
245	0xbe8c4839	-0.27398852
246	0x3cf1bb57	0.029508276
247	0xbe2764f6	-0.16347107
248	0xbe69b111	-0.22821452
249	0x3e1278bf	0.14303873
250	0xbd80b84d	-0.062851526
251	0xbe0ddc34	-0.13853532
252	0x3dd790d0	0.10525668
253	0xbde7100c	-0.112823576
254	0x3e16e01b	0.14733927
255	0xbb1c90ee	-0.0023890096

conv3.bias f4 [64]
0	0x3c200dc9	0.009768912
1	0xbda404fd	-0.08008764
2	0xbe145798	-0.1448654
3	0xbe248944	-0.16067988
4	0x3da2767f	0.079327576
5	0xbdd458d7	-0.10368507
6	0x3e6d5252	0.23175934
7	0x3d47c6cc	0.04877357
8	0x3c88b4bf	0.016687749
9	0x3d457fac	0.04821746
10	0x3e194f2f	0.14971612
11	0x3e559814	0.20858794
12	0x3e27fd5a	0.1640524
13	0x3dc6061b	0.09669133
14	0xbe6930a2	-0.22772458
15	0x3d8e98d2	0.06962742
16	0xbcb748b9	-0.022373544
17	0x3d52f34d	0.05150156
18	0x3e49fe1d	0.19725843
19	0x3e7c71ef	0.24652837
20	0x3dcde5db	0.10053607
21	0xbe47397c	-0.19455522
22	0x3dd84f4a	0.10561998
23	0xbd1e530d	-0.038653422
24	0xbd44377a	-0.04790447
25	0xbe267f05	-0.16259392
26	0xbe3d3063	-0.1847549
27	0xbceb9184	-0.02875591
28	0xbddc4329	-0.10754997
29	0xbe719bde	-0.23594615
30	0x3dbfebb4	0.09371129
31	0xbe8a2a08	-0.26985192
32	0xbe0e9476	-0.13923821
33	0x3e663c61	0.2248397
34	0x3dd546f0	0.10413921
35	0x3c710248	0.014710017
36	0xbe1d7d70	-0.15379882
37	0x3ceda4c0	0.029009223
38	0x3d4c3583	0.04985572
39	0xbe09a526	-0.13441905
40	0xbd10bb6b	-0.035334986
41	0xbdb984ea	-0.090585545
42	0x3e4b4958	0.19852197
43	0xbe7a4ac7	-0.24442588
44	0x3ceb57fb	0.028728476
45	0x3daadaea	0.08342536
46	0xbe116fb7	-0.14202772
47	0xbd385913	-0.045006823
48	0xbc8b585b	-0.017009905
49	0xbe72451c	-0.23659176
50	0x3c52e2ea	0.012871483
51	0x3d6dac4e	0.05802565
52	0xbe0d4d1c	-0.13798946
53	0xbe180cb8	-0.14848602
54	0x3b9ade51	0.004726209
55	0xbcbd73fd	-0.023126597
56	0x3e30767e	0.17232701
57	0xbe0ca41b	-0.13734476
58	0xbe3026ce	-0.17202303
59	0x3e54ccce	0.20781252
60	0x3e62d075	0.22149833
61	0x3d4ecbb4	0.050487235
62	0x3d21abdc	0.03947054
63	0x3dc46877	0.095902376

conv4.weight f4 [1, 64, 1]
0	0x3d73d8d6	0.059532963
1	0x3cf57048	0.029960766
2	0xbc0b49ff	-0.008501529
3	0xbdbfa2bc	-0.09357211
4	0x3d9385e3	0.07203271
5	0xbb27c91a	-0.0025602044
6	0x3d320836	0.04346486
7	0x3db6b18f	0.08920585
8	0x3ce9cc97	0.028539939
9	0xbd2174ec	-0.039418146
10	0xbd5d1dd1	-0.053983513
11	0xbd69542c	-0.05696504
12	0xbc9418c8	-0.018078223
13	0x3bba7e73	0.0056913435
14	0x3dadcd7d	0.084864594
15	0xbe0ec400	-0.13941956
16	0xbda0398a	-0.07823475
17	0xbbcaf2f8	-0.006193515
18	0x3dadef8a	0.08492954
19	0xbd977de8	-0.073970616
20	0xbca24d27	-0.01981218
21	0x3d275c3d	0.04085945
22	0x3ddd39f5	0.1080207
23	0xbdf732f6	-0.12070267
24	0x3d72eee4	0.059309855
25	0x3dddbd0e	0.10827075
26	0x3d068f74	0.03285165
27	0x3dcbe4b9	0.09955735
28	0x3d62b642	0.055349596
29	0xbd99e9a8	-0.075152695
30	0x3de5fef9	0.11230273
31	0x3b8f34d3	0.004370311
32	0xbdafbe84	-0.0858126
33	0xbd52130c	-0.051287696
34	0xbca49ef2	-0.020095322
35	0x3d4d01a8	0.050050408
36	0xbcd71804	-0.026256569
37	0xbd43ad52	-0.047772713
38	0x3d8ae274	0.06781474
39	0x3cbf9018	0.023384139
40	0x3d32ba6c	0.043634817
41	0xbde0541f	-0.10953545
42	0x3db541f8	0.08850473
43	0xbda5f05a	-0.08102484
44	0x3deb44db	0.114877425
45	0x3d95062b	0.07276567
46	0x3d4466bc	0.047949538
47	0x3c141d1a	0.0090401415
48	0xbdd539ca	-0.10411413
49	0x3d652168	0.05594006
50	0x3d494ba0	0.049144387
51	0xbcda6f79	-0.026664482
52	0xbdf39133	-0.11892929
53	0xbdc192fc	-0.09451863
54	0x3d6b24af	0.05740803
55	0xbd54b531	-0.05193061
56	0xbd74ecb1	-0.05979604
57	0xbd97dcd2	-0.07415165
58	0x3d30ada3	0.043134343
59	0xbdb158fb	-0.0865955
60	0x3d7ef787	0.06224778
61	0xbd70d58f	-0.058797415
62	0xbe0eb5d4	-0.1393655
63	0xbdff97ec	-0.12480149

norm1.weight f4 [320, 64]
0	0x3f7f8778	0.99816084
1	0x3f7e6a55	0.99381
2	0x3f8075ba	1.0035927
3	0x3f800008	1.000001
4	0x3f80a7a3	1.0051159
5	0x3f809354	1.0044961
6	0x3f803f4d	1.0019318
7	0x3f7fa0c5	0.9985469
8	0x3f7ed553	0.99544257
9	0x3f7ef6b8	0.9959521
10	0x3f80aaaa	1.0052083
11	0x3f80c678	1.0060568
12	0x3f7fe485	0.9995807
13	0x3f805ec2	1.0028918
14	0x3f7ebf23	0.995104
15	0x3f7f3974	0.9969704
16	0x3f7f6244	0.99759316
17	0x3f8089c3	1.0042042
18	0x3f7f15e3	0.9964277
19	0x3f8069d7	1.00323
20	0x3f7fb0c1	0.9987908
21	0x3f806924	1.0032086
22	0x3f7e9618	0.99447775
23	0x3f800800	1.0002441
24	0x3f812a34	1.0091004
25	0x3f8036f3	1.0016769
26	0x3f806437	1.0030583
27	0x3f7fa486	0.9986042
28	0x3f79cba0	0.9757633
29	0x3f828037	1.0195378
30	0x3f7e5176	0.9934305
31	0x3f7f5b09	0.99748284
32	0x3f7e8191	0.9941645
33	0x3f7f642e	0.9976224
34	0x3f7d2766	0.9888824
35	0x3f78948f	0.9710168
36	0x3f7ce47c	0.9878614
37	0x3f80069d	1.0002018
38	0x3f80a1c4	1.0049367
39	0x3f7f8a78	0.9982066
40	0x3f7fe56b	0.9995944
41	0x3f7ff012	0.99975693
42	0x3f800111	1.0000325
43	0x3f7ebb81	0.9950486
44	0x3f802152	1.0010169
45	0x3f80b64e	1.0055635
46	0x3f7eebcf	0.99578565
47	0x3f7fb43d	0.99884397
48	0x3f7f7b97	0.9979796
49	0x3f8062aa	1.003011
50	0x3f7f6554	0.9976399
51	0x3f803833	1.0017151
52	0x3f80ccef	1.0062541
53	0x3f805a16	1.0027492
54	0x3f7fc9e7	0.99917454
55	0x3f7ec4b0	0.9951887
56	0x3f804901	1.0022279
57	0x3f7fd132	0.9992858
58	0x3f8026cc	1.001184
59	0x3f809783	1.0046238
60	0x3f80120f	1.0005511
61	0x3f7f46fa	0.99717677
62	0x3f8012c8	1.0005732
63	0x3f7f34af	0.99689764
64	0x3f7ff217	0.99978775
65	0x3f8089b6	1.0042026
66	0x3f7f6714	0.9976666
67	0x3f801019	1.0004913
68	0x3f7ec379	0.9951702
69	0x3f7eb9c8	0.9950223
70	0x3f7febdb	0.9996926
71	0x3f8038ec	1.0017371
72	0x3f80a381	1.0049897
73	0x3f8097bf	1.0046309
74	0x3f7ed173	0.99538344
75	0x3f7e8929	0.9942804
76	0x3f804687	1.0021523
77	0x3f800079	1.0000144
78	0x3f809eac	1.0048423
79	0x3f80359b	1.0016359
80	0x3f806951	1.003214
81	0x3f7f3934	0.9969666
82	0x3f8068c3	1.0031971
83	0x3f7f1336	0.9963869
84	0x3f8049ac	1.0022483
85	0x3f7f37a1	0.9969426
86	0x3f80e8d4	1.0071054
87	0x3f80343c	1.0015941
88	0x3f7ded2a	0.9919001
89	0x3f7fa4fe	0.99861133
90	0x3f7f473a	0.9971806
91	0x3f801a25	1.0007979
92	0x3f800345	1.0000998
93	0x3f778580	0.9668808
94	0x3f82a112	1.0205405
95	0x3f80239d	1.0010868
96	0x3f7e782d	0.99402124
97	0x3f7a3b18	0.9774642
98	0x3f7f0f93	0.9963314
99	0x3f817d92	1.0116446
100	0x3f83c0e9	1.0293247
101	0x3f810241	1.0078813
102	0x3f7ead92	0.994836
103	0x3f801d61	1.0008966
104	0x3f803d92	1.001879
105	0x3f800a28	1.00031
106	0x3f7fca34	0.9991791
107	0x3f807aba	1.0037453
108	0x3f7f9534	0.9983704
109	0x3f7eedcb	0.99581593
110	0x3f80ab9a	1.0052369
111	0x3f8000fd	1.0000302
112	0x3f805998	1.0027342
113	0x3f7f2065	0.99658805
114	0x3f802210	1.0010395
115	0x3f7fefc9	0.9997526
116	0x3f7e5cce	0.9936036
117	0x3f7f5218	0.9973464
118	0x3f801015	1.0004908
119	0x3f80b011	1.0053731
120	0x3f7f5308	0.9973607
121	0x3f80078d	1.0002304
122	0x3f7f6ff9	0.9978023
123	0x3f7e84a1	0.99421126
124	0x3f7fefca	0.99975264
125	0x3f805d88	1.0028543
126	0x3f7ff845	0.99988204
127	0x3f8070cb	1.0034422
128	0x3f807cb1	1.0038053
129	0x3f80de52	1.0067847
130	0x3f7f4867	0.9971985
131	0x3f8022b5	1.0010592
132	0x3f7e99ea	0.99453604
133	0x3f7ed8cd	0.9954956
134	0x3f7feba9	0.99968964
135	0x3f80383b	1.001716
136	0x3f80c2b8	1.0059423
137	0x3f80f39d	1.0074345
138	0x3f7ec5f4	0.995208
139	0x3f7e9674	0.99448323
140	0x3f800d83	1.0004123
141	0x3f7f8769	0.99815995
142	0x3f809961	1.0046808
143	0x3f80337d	1.0015713
144	0x3f807ccb	1.0038084
145	0x3f7edfbd	0.9956015
146	0x3f80c38c	1.0059676
147	0x3f7ef3a8	0.9959054
148	0x3f802b15	1.0013148
149	0x3f7f049b	0.996164
150	0x3f80b96a	1.0056584
151	0x3f8028f0	1.0012493
152	0x3f7dee8c	0.9919212
153	0x3f7fc0e9	0.9990373
154	0x3f7f7f16	0.9980329
155	0x3f80adce	1.0053041
156	0x3f84d761	1.0378228
157	0x3f8111ba	1.0083535
158	0x3f7adfea	0.97997916
159	0x3f8029a8	1.0012712
160	0x3f8148d4	1.010035
161	0x3f840cb0	1.0316372
162	0x3f7c5627	0.9856896
163	0x3f7acfc6	0.9797329
164	0x3f80dbf7	1.0067128
165	0x3f80c2bb	1.0059427
166	0x3f7eceb3	0.9953415
167	0x3f80403e	1.0019605
168	0x3f80094e	1.000284
169	0x3f80098b	1.0002912
170	0x3f7fc70a	0.99913085
171	0x3f805176	1.002486
172	0x3f802481	1.001114
173	0x3f7e9447	0.99445003
174	0x3f8098dd	1.004665
175	0x3f8034b4	1.0016084
176	0x3f80427f	1.0020293
177	0x3f7f4a7a	0.9972302
178	0x3f80402e	1.0019586
179	0x3f7e8e78	0.9943614
180	0x3f7e496b	0.99330777
181	0x3f7ea0b9	0.99463993
182	0x3f800704	1.0002141
183	0x3f80a245	1.0049521
184	0x3f7f10eb	0.9963519
185	0x3f804402	1.0020754
186	0x3f7f7d69	0.99800736
187	0x3f7e9994	0.9945309
188	0x3f800427	1.0001267
189	0x3f809354	1.0044961
190	0x3f7fdef4	0.99949574
191	0x3f80cd3b	1.0062631
192	0x3f80027b	1.0000757
193	0x3f80b562	1.0055354
194	0x3f7f3d5f	0.9970302
195	0x3f80184c	1.0007415
196	0x3f7ebbaf	0.9950513
197	0x3f7eb2ed	0.9949177
198	0x3f7fa5df	0.99862474
199	0x3f803b4e	1.0018098
200	0x3f80aabc	1.0052104
201	0x3f80a588	1.0050516
202	0x3f7ed2d6	0.9954046
203	0x3f7e76d0	0.99400043
204	0x3f802993	1.0012687
205	0x3f7fa282	0.9985734
206	0x3f80b230	1.0054379
207	0x3f8033ab	1.0015768
208	0x3f8058a6	1.0027053
209	0x3f7f01f6	0.9961237
210	0x3f80755d	1.0035816
211	0x3f7f11ea	0.9963671
212	0x3f803db8	1.0018835
213	0x3f7ef9cd	0.99599916
214	0x3f80d1f2	1.006407
215	0x3f802958	1.0012617
216	0x3f7dbb85	0.9911426
217	0x3f7faac3	0.99869937
218	0x3f7f315f	0.9968471
219	0x3f8094a0	1.0045357
220	0x3f852f15	1.0404993
221	0x3f828de5	1.0199553
222	0x3f7fdbdc	0.99944854
223	0x3f7cdde8	0.987761
224	0x3f7c0b44	0.9845469
225	0x3f8272a5	1.0191237
226	0x3f802466	1.0011108
227	0x3f7dd78e	0.99157035
228	0x3f819fd7	1.0126904
229	0x3f80dbc0	1.0067062
230	0x3f7e9a6e	0.9945439
231	0x3f80534a	1.0025418
232	0x3f802687	1.0011758
233	0x3f801c24	1.0008588
234	0x3f7fbad3	0.99894446
235	0x3f809872	1.0046523
236	0x3f7fde3b	0.9994847
237	0x3f7eb4a0	0.9949436
238	0x3f809922	1.0046732
239	0x3f8003e6	1.000119
240	0x3f80602e	1.0029352
241	0x3f7f29b9	0.9967304
242	0x3f8039ae	1.0017602
243	0x3f7f6cf9	0.99775654
244	0x3f7e2693	0.9927761
245	0x3f7f2988	0.99672747
246	0x3f800c43	1.0003742
247	0x3f80a361	1.0049859
248	0x3f7f4458	0.9971366
249	0x3f8025fe	1.0011594
250	0x3f7f7c1c	0.9979875
251	0x3f7ea59e	0.9947146
252	0x3f7fdeee	0.9994954
253	0x3f8057f7	1.0026845
254	0x3f7ff116	0.9997724
255	0x3f807988	1.0037088

norm1.bias f4 [320, 64]
0	0x3b29faaf	0.0025936773
1	0x3c02f63a	0.007993275
2	0xbb867903	-0.004103781
3	0xb8d07106	-9.939265e-05
4	0xbb97579e	-0.004618599
5	0xbb70ad42	-0.0036724363
6	0xbb67286f	-0.0035271903
7	0x3a92e0cf	0.0011205914
8	0x3b7e715e	0.0038824896
9	0x3b17d311	0.0023166577
10	0xbb8fea39	-0.004391935
11	0xbbcaefc7	-0.0061931345
12	0xb8939097	-7.036438e-05
13	0xbb87f9b4	-0.00414964
14	0x3bb2c5f6	0.0054557277
15	0x3b64e60e	0.0034927162
16	0x3ab29ea5	0.0013627602
17	0xbb9a6736	-0.0047120107
18	0x3ac7abaa	0.0015233655
19	0xbb3a4e12	-0.0028427881
20	0x399ac95c	0.00029523193
21	0xbb2d5a39	-0.0026451482
22	0x3b9fcbec	0.0048766043
23	0xbb06c13d	-0.0020561956
24	0xbc1be755	-0.009515603
25	0xba99ecde	-0.0011743566
26	0xbae9c8ae	-0.0017836296
27	0x3ad41d78	0.0016183099
28	0x3c82dd4a	0.01597466
29	0xbba8e949	-0.005154763
30	0x3b1835bd	0.002322539
31	0x3b1ae984	0.0023637721
32	0x3b985c7b	0.0046496964
33	0x3b464493	0.0030253276
34	0x3c3e13e9	0.011601427
35	0x3cefee2f	0.02928838
36	0x3c365da7	0.011130727
37	0x39792a98	0.00023762358
38	0xbb8b3e89	-0.004249398
39	0x3b118bec	0.0022208644
40	0xbaa17b11	-0.0012320002
41	0x3a16ba4e	0.00057498075
42	0x3a93fb96	0.0011290188
43	0x3bb58e7f	0.0055406685
44	0xba58bd67	-0.0008267969
45	0xbbd12dcf	-0.0063836346
46	0x3b6fab24	0.0036570514
47	0x3ac2cbae	0.0014861727
48	0x3a4d8a8d	0.0007840775
49	0xbb222bba	-0.0024745301
50	0x3b47b642	0.0030473624
51	0xbac0bad5	-0.0014704118
52	0xbbc57493	-0.0060258596
53	0xbb41dc19	-0.0029580651
54	0x39c21e65	0.0003702521
55	0x3b9d3499	0.00479753
56	0xb9a45e98	-0.00031350995
57	0x3a81209b	0.0009851636
58	0x3a1eff34	0.000606525
59	0xbb2c7b3f	-0.0026318578
60	0xbab91996	-0.0014122005
61	0x3abd1402	0.0014425518
62	0x3a097dbf	0.0005244873
63	0x3b16a574	0.0022986801
64	0xba0e29b7	-0.0005423086
65	0xbb96ab30	-0.004598044
66	0x3b14a6a9	0.0022682345
67	0xb95a3ecc	-0.00020813494
68	0x3b80c9a8	0.0039302893
69	0x3b89f2c6	0.004209849
70	0x3affe7e7	0.0019524068
71	0xbaaf5000	-0.0013375282
72	0xbb7d7508	-0.0038674492
73	0xbb3d143c	-0.0028851172
74	0x3b74cee3	0.003735476
75	0x3bb57c83	0.0055385246
76	0xbadc53cf	-0.0016809645
77	0x3a888ec6	0.0010418526
78	0xbba0385f	-0.0048895325
79	0xbab6461d	-0.0013906393
80	0xbaed4d1b	-0.0018104644
81	0x3b60ce9e	0.003430284
82	0xbaca2c70	-0.001542462
83	0x3b37b830	0.0028033368
84	0xbaab160d	-0.0013052836
85	0x3b22fd0f	0.0024870073
86	0xbbd33c0a	-0.006446366
87	0xb918aeaa	-0.00014560917
88	0x3c08b3ce	0.00834365
89	0x3aab17c3	0.0013053346
90	0x3b1fde7d	0.0024394088
91	0xbb4864e5	-0.0030577716
92	0xbb48681f	-0.003057964
93	0x3c0d4724	0.008622918
94	0x3b6d2cca	0.0036190026
95	0x3a38fea8	0.00070569897
96	0xba95acf4	-0.0011419342
97	0xbca763af	-0.020433275
98	0xbc579082	-0.013157012
99	0x3c29fdbb	0.010375435
100	0xbc03634b	-0.008019279
101	0xbae8d14a	-0.0017762568
102	0x3b90248c	0.004398888
103	0xba9e8a81	-0.0012095721
104	0xb9c366d0	-0.000372699
105	0xb9b9aed4	-0.00035416207
106	0x392c81dd	0.00016451576
107	0xbb8e2aa1	-0.004338578
108	0x3ad69052	0.0016369915
109	0x3b7cf401	0.0038597586
110	0xbb91a68e	-0.0044449037
111	0xb9f37a06	-0.00046439486
112	0xbac9d0e6	-0.001539734
113	0x3b341392	0.0027477485
114	0xbaedf461	-0.0018154496
115	0xb9861f5e	-0.00025581842
116	0x3bb662dd	0.0055659846
117	0x3b19054f	0.0023349111
118	0xb9a13808	-0.0003075006
119	0xbba39098	-0.004991602
120	0x3a803fdf	0.000978466
121	0xb9ff9911	-0.00048751433
122	0x39b6fd64	0.00034902536
123	0x3b657f1f	0.0035018397
124	0x3a678504	0.00088317716
125	0xbabd1f02	-0.0014428797
126	0xb9ead166	-0.00044787972
127	0xbb2e1de5	-0.0026568111
128	0xbb94a156	-0.0045358343
129	0xbbe40daf	-0.006959639
130	0x3b2b6c3e	0.0026157047
131	0xba3cf24b	-0.00072077353
132	0x3b92760b	0.004469638
133	0x3b70b448	0.003672855
134	0x3b03faa9	0.0020138419
135	0xba9c88d6	-0.0011942636
136	0xbb998c94	-0.0046859477
137	0xbbb9775b	-0.0056599802
138	0x3b80af9d	0.0039271847
139	0x3baa99ff	0.005206346
140	0x3960460c	0.00021388399
141	0x3b44c08b	0.003002199
142	0xbb967b06	-0.0045923023
143	0xba99ebc8	-0.0011743242
144	0xbb1afbe8	-0.0023648683
145	0x3b9fe9e4	0.004880177
146	0xbb907bbb	-0.004409281
147	0x3b530759	0.0032200424
148	0xb9b8c5fe	-0.0003524273
149	0x3b5e0374	0.003387657
150	0xbba03170	-0.004888706
151	0x3936cd0c	0.00017433258
152	0x3c08f3ff	0.008358954
153	0x3a850aa0	0.0010150261
154	0x3abb6959	0.0014298364
155	0xbbaf8718	-0.0053566806
156	0xbc85ce80	-0.016333818
157	0x3b43846a	0.0029833564
158	0xbbe75800	-0.007060051
159	0xbaee342c	-0.0018173507
160	0xbc33cccf	-0.010974123
161	0x3c98f656	0.01867215
162	0x3c7cf10b	0.0154383285
163	0xbcb2311d	-0.021751935
164	0xbc15b9a3	-0.0091384975
165	0x3b06d194	0.0020571696
166	0x3b7ae6e5	0.0038284597
167	0xbb0ab49e	-0.0021164785
168	0x3a9a98f5	0.0011794852
169	0xb97a576d	-0.00023874427
170	0x39b01285	0.00033583134
171	0xbb46315c	-0.0030241823
172	0xbaa03255	-0.0012222031
173	0x3ba75c2c	0.0051074233
174	0xbb73fb91	-0.0037228803
175	0xbb097dcb	-0.002097952
176	0xba653b46	-0.0008744489
177	0x3b056c71	0.0020358826
178	0xbb39d8ad	-0.0028357909
179	0x3ba68641	0.0050819223
180	0x3bc2fd63	0.005950616
181	0x3ba2585a	0.00495438
182	0xb90e9d66	-0.00013600811
183	0xbb9075a1	-0.0044085537
184	0x3b0becb6	0.0021350808
185	0xbb22723b	-0.0024787325
186	0x390f3953	0.00013658898
187	0x3b52da3a	0.003217353
188	0x39b2f5a6	0.00034133828
189	0xbb5175b9	-0.0031961037
190	0xb6cce4fe	-6.106332e-06
191	0xbbafef87	-0.00536913
192	0xba5370d5	-0.00080658245
193	0xbbdbcd9e	-0.006707861
194	0x3b54ddb2	0.0032480774
195	0xba2500d6	-0.0006294375
196	0x3b8d5ce1	0.0043140505
197	0x3b8eeb0c	0.004361516
198	0x3b489cb2	0.0030610976
199	0xbac4775a	-0.0014989183
200	0xbb8c4a85	-0.0042813444
201	0xbb54fefb	-0.0032500613
202	0x3b77936b	0.0037777077
203	0x3bc7afb8	0.0060939454
204	0xba47ae65	-0.00076172344
205	0x3b27a91e	0.002558298
206	0xbbbd266a	-0.0057724016
207	0xbae4eb74	-0.001746519
208	0xbac20a7e	-0.0014804152
209	0x3b8bdd92	0.0042683566
210	0xbadc9c95	-0.0016831333
211	0x3b484192	0.003055666
212	0xba72eaf0	-0.0009266576
213	0x3b5d20f2	0.003374156
214	0xbbbcb880	-0.005759299
215	0x39d8483e	0.00041252555
216	0x3c1733f8	0.009228699
217	0x3a7526bf	0.0009351782
218	0x3b00f62f	0.0019677987
219	0xbb35d577	-0.0027745643
220	0xbc5cbfb0	-0.013473436
221	0x3bc66468	0.00605445
222	0xba46923e	-0.00075748924
223	0x3c40e860	0.0117741525
224	0xbc24e786	-0.010064965
225	0x3bbfe1de	0.005855783
226	0xbc800089	-0.015625255
227	0xbc2aaf59	-0.010417783
228	0xbc0c6301	-0.008568526
229	0xb9c51d08	-0.00037596398
230	0x3b9a9a90	0.0047181323
231	0xbb3eacbd	-0.002909466
232	0x39b9463e	0.00035338284
233	0xba83fb90	-0.0010069478
234	0x38aaff9a	8.153841e-05
235	0xbbaa9241	-0.005205423
236	0x3a0a019c	0.0005264522
237	0x3bad3911	0.005286344
238	0xbb84d116	-0.0040532453
239	0xba099406	-0.00052481925
240	0xbae01454	-0.0017095902
241	0x3b343526	0.00274975
242	0xbb2002c3	-0.0024415709
243	0x3af3ea81	0.0018609316
244	0x3bd9269f	0.0066269184
245	0x3b59875b	0.003319225
246	0xb7c04e2d	-2.2924587e-05
247	0xbb9e23e2	-0.004826055
248	0x3a8f33e5	0.00109255
249	0xbabbfdf7	-0.0014342655
250	0x394b7493	0.00019403016
251	0x3b4b7a6b	0.0031048309
252	0x3aab6ef1	0.0013079328
253	0xbaac9d1d	-0.0013169382
254	0xba2fb779	-0.000670306
255	0xbb3b4ea0	-0.00285808
