model5_params.pkl (torch, 265979 bytes, 24 tensors)

conv1.weight f4 [320, 1, 3]
000000 cc 43 cb bd 01 1c c3 be a3 90 c7 3e 1d b3 c8 3e
       -0.099250406 -0.38107303 0.38977537 0.39199153
000010 04 25 96 3e e7 69 02 bf 36 f1 83 3e 90 d6 0b 3e
       0.29325116 -0.50942844 0.25769967 0.13656068
000020 79 87 f9 3e 0d 9e 8d be 43 b4 b4 be 69 77 a2 be
       0.4873617 -0.27659646 -0.3529378 -0.31731728
000030 6a 4a 07 bd 39 e7 aa 3d bd e1 bd bd cc c6 bc be
       -0.03302995 0.083448835 -0.09271572 -0.3687042
000040 9c 05 be 3e 9e 93 80 3e db 82 00 be 95 ad 70 be
       0.37113655 0.25112623 -0.12549917 -0.23503716
000050 cb 6e 7a 3d 38 30 e5 be 6e b8 e8 be b4 d0 ad be
       0.061140817 -0.4476335 -0.4545321 -0.3394829
000060 18 d7 c7 3e 30 62 18 3f e2 11 e2 be c7 4c f1 be
       0.3903129 0.5952482 -0.44154269 -0.4712889
000070 5b ff c2 be 10 5b da be 4a 55 89 be 67 ae d4 3e
       -0.38085446 -0.426476 -0.26822883 0.41539308
000080 a5 30 f5 3e 4a c6 12 be c7 fe 09 3f 30 9f e9 3e
       0.47888675 -0.14333454 0.53904384 0.45629263
000090 c9 62 bc 3e a4 d8 f6 3e 61 54 b1 be 35 9b 2b bc
       0.36794117 0.4821216 -0.34634688 -0.010474016
0000a0 f5 f8 e1 bd 32 78 b7 bd e6 48 68 bd 93 dd 61 3e
       -0.11033813 -0.08958472 -0.056710146 0.2205718
0000b0 1e 5b 05 bf ea c3 9a 3e 8f 80 03 3d ae 96 c4 be
       -0.5209216 0.30227596 0.032105025 -0.3839621
0000c0 4b be aa 3e 48 77 54 be 5d 86 e2 3e 88 ac 6e 3e
       0.33348307 -0.20748627 0.44243136 0.23308003
0000d0 a3 45 87 be 60 a3 0e bf 54 8f 47 3e b2 24 e6 3e
       -0.26420316 -0.5571804 0.19488269 0.4494987
0000e0 0b 4b 09 be 58 87 b6 3d 5e fa fb be 84 4f 05 3e
       -0.13407533 0.089125335 -0.49214453 0.13018614
0000f0 52 56 7c 3b 92 a7 31 be 5c f9 d9 bd 09 81 4d be
       0.00385036 -0.17349079 -0.10643265 -0.20068754
000100 ce c4 52 be 3f 1f f9 bd fb f0 83 be fd 0b 54 3e
       -0.20582888 -0.12164163 -0.2576979 0.20707698
000110 ce 97 11 bf d8 76 23 be 3c de a1 3d 7b 19 de be
       -0.5687226 -0.15963304 0.07903716 -0.43378815
000120 d8 dd 71 3e 70 9c 12 3f fa 13 4e 3e c7 e9 57 be
       0.23619783 0.57269955 0.20124808 -0.21085273
000130 a1 d8 bf 3d 07 5e 0f bf cb 2c e9 3e a7 7b 2b 3e
       0.093674906 -0.5600285 0.45541987 0.16746388
000140 ab db cc be 7b 16 75 bd fe 8a cb be d6 aa 50 3e
       -0.40011343 -0.059835892 -0.3975448 0.20377669
000150 56 72 13 3f 7e e2 d6 3e c9 13 fd be bc 4d f9 3e
       0.5759634 0.41969675 -0.49429157 0.4869212
000160 67 96 57 bd 2f 62 e1 3e 0c 89 54 be 00 ed 4a be
       -0.05263367 0.4402022 -0.20755404 -0.19816971
000170 98 33 72 3e 45 4c 0c 3e ce c3 a4 3e 48 b7 04 3f
       0.23652494 0.1370097 0.32180637 0.51842165
000180 a8 9f 78 be 76 51 e5 3e 94 ff c8 3c fb 27 0d 3f
       -0.24279654 0.44788712 0.024535932 0.5513913
000190 ec 3a 15 bc e9 7f 6b 3e 63 4f f2 3e 91 e8 cc 3e
       -0.009108286 0.22998013 0.47326192 0.40021184
0001a0 ba 8a 88 3e 3c 05 d3 be 15 1f e7 3d d4 48 b2 be
       0.2666834 -0.4121493 0.11285225 -0.34821188
0001b0 e7 23 ee 3e 5c ed de be ed 7a fd 3e 3d 60 51 3e
       0.46511766 -0.43540466 0.49507847 0.20446868
0001c0 c3 30 0c bd 65 82 66 3e fb 43 01 bf 92 86 ef be
       -0.03422619 0.22510679 -0.50494355 -0.46782357
0001d0 98 59 88 3b e4 f7 01 bf 7d 9e 67 be 0c 62 b9 be
       0.004161071 -0.50768876 -0.22619052 -0.36207616
0001e0 a9 db ee 3e 5d 0d 78 3e 21 c8 82 be e9 c0 62 3e
       0.46651962 0.24223848 -0.2554331 0.22143902
0001f0 62 83 0d bf 0d c3 b5 bc 95 9f ce 3e fd ad 04 bf
       -0.552786 -0.022187734 0.40356126 -0.51827985
000200 0c ec ea be 07 23 f2 be fc 45 bf be 3b 87 1c be
       -0.45883214 -0.4729235 -0.3735808 -0.15285961
000210 07 30 06 3f c0 5f d5 be 80 c9 e2 3e 47 98 8d 3d
       0.52417034 -0.41674614 0.44294357 0.0691381
000220 8c d6 0b 3f fc a5 7f 3e e1 15 98 be 8c 42 01 3f
       0.5462425 0.24965662 -0.29704192 0.5049217
000230 f5 a2 06 3f 42 a0 a2 3e e1 51 ce be c2 7f 85 3e
       0.525924 0.31762892 -0.40296844 0.26074034
000240 7b 7e 09 3f 60 60 68 be 27 36 11 bf c4 31 d3 3d
       0.5370862 -0.22693014 -0.56723255 0.103122264
000250 91 8a b5 3e a5 6f 23 bd 64 6f 10 bf 0f bb 2e 3d
       0.3545728 -0.039901394 -0.5641997 0.04265886
000260 d7 4e 5a 3e 4a 98 0f be aa 5d 4a bd 1c 57 22 be
       0.21319138 -0.14022937 -0.04940573 -0.15853542
000270 31 a5 69 3e 26 f0 41 3c 48 db 85 bd fd ca 3c 3c
       0.22816922 0.011837041 -0.06535965 0.011523006
000280 a8 6f a1 3d 6a 3f 01 bf 57 08 d3 be 97 72 8e 3e
       0.07882625 -0.5048739 -0.412173 0.278218
000290 65 29 09 bd e6 db 61 3e 82 09 90 be 57 d0 71 3d
       -0.033486743 0.22056541 -0.28132254 0.05903658
0002a0 8f 8e 64 be fa 2b 33 be 20 e4 f3 bd 8d bb e6 3e
       -0.22320007 -0.17497244 -0.11908746 0.45064965
0002b0 3c b3 11 be 9b 86 ac 3d 9b 00 f9 be 04 f8 07 bf
       -0.14228529 0.084241115 -0.48633274 -0.53112817
0002c0 d3 8a 9d 3c 7f db b2 be 99 1c 28 be 44 d6 ec be
       0.019231236 -0.34933087 -0.16417159 -0.46257222
0002d0 30 75 3c 3d 60 ab e6 3e b5 a8 a1 be 30 07 39 3e
       0.046010196 0.45052624 -0.31574026 0.18069148
0002e0 4f 0a df 3e e4 30 09 3f ea b9 a0 be 0f 46 6a bd
       0.43562552 0.53590226 -0.3139184 -0.05719572
0002f0 17 c2 9f 3d 87 47 01 bf ec 42 e3 3e 74 2c 64 3e
       0.078006916 -0.5049977 0.44386995 0.22282583
000300 03 56 89 be 03 60 97 3e 80 5f e3 be 3b e6 05 bf
       -0.26823434 0.2956544 -0.44408798 -0.5230443
000310 62 ac 91 be 0d 42 12 bc cf 47 d7 bd 1c 1e b5 be
       -0.2845183 -0.008926881 -0.10511743 -0.35374534
000320 da c8 0d 3f e9 42 5a 3e 19 72 07 bf 5b 06 41 be
       0.553846 0.21314587 -0.52908474 -0.1885008
000330 ef 38 2d 3e 4c ba ba 3a 61 c0 ca 3e af a6 7d 3e
       0.1691625 0.0014246195 0.39599898 0.24770616
000340 65 10 d5 3e 94 d4 c0 be c6 33 8b be d0 cd e1 3e
       0.4161407 -0.37662184 -0.27187937 0.44102335
000350 45 69 e1 3e 43 93 f9 be c3 61 1f 3c 49 41 57 bc
       0.44025627 -0.48745164 0.009727898 -0.013138124
000360 99 67 e2 3d 0c 83 09 3e b4 06 a7 be 84 e6 75 3e
       0.11054916 0.13428897 -0.32622302 0.24013716
000370 9c eb eb be 2b 7b 15 be 7f 62 fb 3d c5 87 44 bd
       -0.46078193 -0.14597766 0.12274646 -0.047981042
000380 c1 25 e4 3e 0b f6 b5 3d ec 5b 54 bd ef fe 00 bf
       0.44560054 0.088848196 -0.051845476 -0.50389
000390 aa 67 f0 be 06 0b 16 3f 2c 6e 65 bd 19 89 bf 3c
       -0.4695409 0.5861057 -0.05601327 0.023380803
0003a0 eb b4 e1 be 6e 9c f1 3e e9 e2 79 be 94 6f 92 be
       -0.44083342 0.4718966 -0.24402966 -0.28600752
0003b0 b5 06 dc 3e c1 2f eb 3e aa 9d 39 be db 64 07 3d
       0.42973867 0.4593487 -0.1812655 0.033055168
0003c0 a4 db de 3d f5 a5 04 3f f6 64 85 3e 34 ca 7d 3d
       0.10881737 0.5181573 0.2605359 0.061960414
0003d0 20 bd 7d 3d cd 0b df bd 19 45 1f 3b ce 6a 0f bf
       0.06194794 -0.10890923 0.002430266 -0.56022346
0003e0 2f 7c 1d 3e ed 3b 8c 3e a0 c0 ae 3e 04 ce 01 3f
       0.15379404 0.2738947 0.34131336 0.5070498
0003f0 5c 75 c8 3d ec 6c 15 be 46 f7 08 bf 76 38 9e bd
       0.097880095 -0.14592332 -0.5350231 -0.07725613

conv1.bias f4 [320]
000000 45 4f 99 3c 23 50 27 3e 31 df fb bd 3c be 0d 3f
       0.018714556 0.16339163 -0.1229843 0.553684
000010 b2 7e d4 3e 07 ee f4 be 0f 3f ae be 6f fa 6b 3e
       0.4150291 -0.4783785 -0.34032485 0.23044752
000020 26 19 b0 3e 1c 49 15 be b0 b7 52 3d 37 e5 72 3c
       0.34394187 -0.1457867 0.05144471 0.014825157
000030 b6 6f 05 3f fc 09 e0 3e 7e fe ed 3e e4 90 dd 3e
       0.5212358 0.43757617 0.46483225 0.43274605
000040 14 b0 47 be b5 2e 04 3f fb 3f 8e be d1 ae 98 3e
       -0.19500762 0.5163377 -0.27783188 0.29820874
000050 8c fe dd be 8d b3 ca 3d 81 26 64 bc 4e 52 9d be
       -0.43358266 0.09897528 -0.013925196 -0.30726856
000060 01 6a 76 be ce dc 8c be 39 9d df 3e a4 91 b2 3d
       -0.24063875 -0.2751221 0.4367464 0.08719185
000070 ea 88 ad be 02 7c 14 3f 29 01 ce 3e b0 8d 69 bd
       -0.3389352 0.5800172 0.4023526 -0.05701989
000080 5a aa 5d 3e f3 2e bd be 38 07 67 bd 3b ed aa be
       0.21647015 -0.36949882 -0.05640337 -0.33384117
000090 bd db a0 be a8 f8 66 be 48 d8 17 3d 17 b1 fc be
       -0.31417647 -0.22555792 0.037071496 -0.4935386
0000a0 d1 1b a6 be a5 67 b0 be 38 a6 ed bd 48 24 7d 3e
       -0.32443097 -0.34454075 -0.11603969 0.24720871
0000b0 7b 18 9b be 9d 30 55 3d 19 be 37 be e0 d5 9f bd
       -0.30292115 0.052048314 -0.1794361 -0.07804465
0000c0 91 63 11 bf 9c 79 09 bf 6d e7 e3 be 9b 1b 03 3f
       -0.5679255 -0.53701186 -0.445125 0.51214
0000d0 27 6a db be 8e 0b 00 bf 6f a2 f3 bd 84 04 a6 be
       -0.42854425 -0.5001763 -0.11896216 -0.3242532
0000e0 f6 d4 70 be 05 ac d6 be 85 67 02 3f 03 9a 7b 3d
       -0.23518738 -0.41928115 0.5093921 0.061426174
0000f0 69 23 04 3f b8 97 c9 3e 94 bc 1f be 36 0f db bb
       0.5161653 0.39373565 -0.1559928 -0.006685163
000100 04 d5 92 bc 71 7a 18 bf 40 40 14 bf 0f 63 e8 be
       -0.01792384 -0.5956183 -0.5791054 -0.45388076
000110 f9 e3 ad be 30 94 6f 3b 5e 4a f6 be ea e5 89 be
       -0.33962992 0.0036556832 -0.48103613 -0.26933223
000120 14 2b e3 be 05 e0 a3 b9 e9 31 48 3e 47 f0 0e bf
       -0.44368804 -0.0003125669 0.19550289 -0.55835384
000130 e4 a7 94 be 2d aa 8d be 99 f1 ac 3e bc 53 bd 3e
       -0.2903434 -0.27668896 0.33778074 0.36977947
000140 f6 bf b1 be 55 fb 97 be 61 60 ee 3e 93 0b d5 be
       -0.34716767 -0.2968394 0.46557906 -0.41610393
000150 70 35 6a 3d 4d 39 3b be 18 42 64 3d be 2b a3 3c
       0.05717987 -0.18283577 0.055727094 0.019918319
000160 f1 81 02 bf c9 6b 02 3f d8 fd 9d 3e e0 cc f6 3e
       -0.50979525 0.5094572 0.3085773 0.48203182
000170 f1 c5 0a 3f 9d f7 0b 3f ae bf 9e 3e 88 45 a4 be
       0.54208285 0.546747 0.31005615 -0.32084298
000180 3f 00 bc 3e 28 17 31 be 53 10 c2 3e 66 52 f9 3c
       0.36718938 -0.1729399 0.3790308 0.030434798
000190 9a 17 65 3e dd 3b 14 3e 19 43 1e 3e 91 d2 c6 3e
       0.22372285 0.14475961 0.15455283 0.38832524
0001a0 ef 66 3b be fa 6f 52 3e 59 4d 0a bf 9f 3d 9c be
       -0.18300985 0.20550528 -0.54024273 -0.30515763
0001b0 d5 48 07 3f 06 c7 e0 3e cd dd e9 bc 81 ee 87 3e
       0.5284551 0.43901843 -0.028548146 0.26549152
0001c0 d8 4f bd be ae 89 fb 3e 52 b9 ce 3d 0e 21 01 bf
       -0.36974978 0.4912848 0.10093941 -0.5044106
0001d0 a1 ec ee 3e 5a 2b 06 3f b5 e4 d9 3e 36 a5 4f be
       0.4666491 0.524099 0.42557302 -0.20277867
0001e0 99 d2 9f be 37 4e 13 3f 5a d5 60 bd bc f9 c1 3e
       -0.3121536 0.5754122 -0.054890968 0.37885845
0001f0 a2 a9 48 3e 83 0a 9c be 1f 21 ca be 47 c3 e7 3e
       0.1959596 -0.3047677 -0.39478394 0.45266172
000200 90 14 ac 3e 08 88 2b be 3f ae ec 3c 3b ef d2 3e
       0.33609438 -0.1675111 0.02889168 0.41198143
000210 ff c8 0e 3e 43 4a c4 bd 12 cd ed be 78 ed bc be
       0.13943861 -0.09584477 -0.4644552 -0.36899924
000220 61 9c 97 be 8e df d2 be d3 07 f5 3e 0f 08 eb 3d
       -0.29611495 -0.41186184 0.47857532 0.114761464
000230 ee 0f 88 be 43 c1 d0 be a4 ae 9b 3e 5a 23 44 3e
       -0.26574653 -0.40772447 0.30406678 0.1915411
000240 af 28 5e 3e 05 2c 86 bd c7 64 99 be ee 82 e1 be
       0.21695207 -0.06551365 -0.299597 -0.44045204
000250 d9 a1 9f bd d4 6a f9 3e af 4a e1 be 54 d7 b2 be
       -0.07794542 0.48714316 -0.44002292 -0.34929907
000260 b3 ae 84 3e e8 d8 ca be eb bb ff 3d cf 51 c0 bd
       0.25914535 -0.3961861 0.124870144 -0.09390604
000270 12 e9 fa bd 19 43 42 3d ca 86 ec 3c 17 7d 0b 3f
       -0.12251486 0.04742727 0.028872866 0.54487747
000280 c7 7d 21 be 0c 8d 0a 3e fc c9 cc 3e 47 0d 2a 3e
       -0.15770636 0.13530368 0.39997852 0.16606627
000290 10 b5 da 3b a9 90 04 3f f6 02 2b 3e 8e fb e0 3c
       0.0066744164 0.51783234 0.16700348 0.0274637
0002a0 1e 19 03 3e ca 28 87 3e 77 bb 6b 3d 92 0f be be
       0.1280255 0.26398307 0.057551827 -0.37121254
0002b0 9c 1b e7 be cd f4 c7 be 92 1e d2 3e d6 d1 0b 3f
       -0.45138252 -0.39053956 0.41038948 0.5461706
0002c0 fd 92 ac be 4d 74 00 3f f5 96 3b bd c0 1c bc 3d
       -0.33705893 0.5017746 -0.04579826 0.09185171
0002d0 98 7a f2 3e 52 37 fb bd f9 07 f7 3c 62 5b 9f be
       0.47359157 -0.12266411 0.030155169 -0.31124407
0002e0 1f 68 df 3e c6 36 76 3e e3 13 12 3f 59 08 1d be
       0.43634126 0.24044332 0.57061595 -0.15335216
0002f0 21 81 cd 3d 60 2a 99 be 17 8c b5 3e 48 96 85 be
       0.10034395 -0.29915142 0.35458443 -0.26091218
000300 5c 11 6d 3e 42 0d 01 3f 53 61 81 3e 07 2d 0f 3b
       0.23151153 0.50410855 0.25269565 0.0021846907
000310 d6 10 88 bd c0 a2 5f be e4 c3 31 be 1c be e6 3e
       -0.06643836 -0.21839428 -0.17359883 0.45066917
000320 df 77 c0 be dd cd ab bd 61 7f 18 bf bb 40 09 3f
       -0.37591454 -0.08388875 -0.59569365 0.53614396
000330 8e 8b c3 bd 03 be 08 3f 21 0b 98 be 37 3b a6 3e
       -0.09548102 0.53414935 -0.2969599 0.32467052
000340 9a e3 ed 3e 1c 0b 0c bf d3 54 07 3e 0a ff 6b be
       0.4646271 -0.5470445 0.13215952 -0.23046508
000350 d1 54 ed be 93 77 d3 3c 61 49 f7 bc 46 45 d9 be
       -0.46353772 0.025813853 -0.030186357 -0.42435664
000360 4b 3b ef 3e 77 b9 6a bd 77 b5 0b 3f 5d 89 ee 3e
       0.46724924 -0.05730578 0.5457377 0.46589175
000370 4d 4b 92 3e 3d c3 c9 bd 2b 4d f7 3d 77 a6 55 be
       0.28573075 -0.09851692 0.120752655 -0.20864283
000380 79 b1 da 3e 51 23 1d 3e 1b e4 eb 3e fd 76 bb 3e
       0.42713526 0.15345503 0.46072468 0.36614218
000390 28 ec bf 3e 2b d1 e3 3e 02 6c c9 be 8b 21 f9 be
       0.3748486 0.4449552 -0.39340216 -0.48658404
0003a0 80 71 bd 3d 17 61 02 bf 44 6e 4c be 8e b3 9f 3e
       0.09250164 -0.509294 -0.19963938 0.31191677
0003b0 2b 4d 9f 3e 79 c0 b9 3e 75 7b 0a bf 24 d4 07 3f
       0.31113562 0.36279657 -0.5409463 0.53058076
0003c0 94 a0 49 be 8a 84 8a be 44 15 08 bd 1d 94 01 bf
       -0.19690162 -0.27054244 -0.033223405 -0.5061663
0003d0 e1 8f 04 bf 00 c0 00 bf 92 a0 12 3f 7e 12 95 bd
       -0.5178204 -0.5029297 0.5727626 -0.07278918
0003e0 5a 6b e5 3e 65 3f b8 be 2e 56 f7 3e 69 e6 9d be
       0.44808465 -0.35985866 0.48307937 -0.30839851
0003f0 b1 f3 90 be a1 58 84 3e 96 e2 02 3f d2 15 b4 bd
       -0.28310922 0.25848868 0.5112699 -0.087932244

conv2.weight f4 [16, 320, 1]
000000 2d 76 40 bd f8 92 cb 3c e5 25 f3 3c 00 e3 b9 bc
       -0.0469877 0.024850354 0.029681155 -0.02269125
000010 be 95 e2 3b 24 7f 5a 3d 76 c6 3c bd 0c 0b 19 bd
       0.0069148233 0.053343907 -0.046087705 -0.03736405
000020 ed 8e a2 bc 20 16 83 3c f7 67 14 3d 56 a3 73 3b
       -0.019843543 0.016001761 0.03623196 0.0037176213
000030 8a 89 1e 3d 05 48 19 bd 3b e7 09 bd ad 9e 1f 3d
       0.038705386 -0.0374222 -0.033667784 0.038969684
000040 a9 3d 9f bc 1b c7 1f bd c7 9d 06 bd 3c f5 ce bb
       -0.019438582 -0.03900824 -0.032865312 -0.0063158553
000050 c3 d8 10 bb b7 bd 15 bd 0d f0 40 3d ab 55 8c bb
       -0.0022101856 -0.03655788 0.04710393 -0.0042826734
000060 1b 6a 62 3c 2d b0 5d 3d 99 11 24 bd 0b 7f 08 bc
       0.013819243 0.054123092 -0.040055845 -0.008331071
000070 55 8a 03 bd 1d cb 1e bd 88 00 e7 bc e3 c2 68 bd
       -0.032114346 -0.038767923 -0.028198496 -0.056826483
000080 56 13 c2 bc 77 af 0f bd 3f 87 14 bd b3 33 e4 bc
       -0.02369086 -0.035079446 -0.036261793 -0.027856683
000090 f1 f7 34 bd e3 18 4a 3b e6 12 2c 3d a1 67 23 bd
       -0.044181768 0.0030837588 0.04201021 -0.03989375
0000a0 86 84 08 3d 89 fc 21 3b 16 32 b1 3c 54 76 7f bc
       0.03332951 0.0024717173 0.021630328 -0.0155921765
0000b0 d9 a3 69 bd b6 26 83 bc 35 74 14 bc a1 bd 45 3d
       -0.057041023 -0.01600967 -0.009060909 0.048276547
0000c0 0b 4c 7d bc 88 ad c0 bc aa 9d 2e 3d 92 b5 95 bc
       -0.015460025 -0.023520246 0.04263083 -0.018275056
0000d0 b5 4d 1a 3d b2 22 2b 3c e2 e3 c7 bc 47 a9 4f bd
       0.037671763 0.010445284 -0.024400655 -0.050698545
0000e0 d3 22 a3 bc fc 04 3a 3c 12 83 ef 3b 0d 88 4d 3d
       -0.019914066 0.011353727 0.007309326 0.050178576
0000f0 a5 4c 1b bd 4f 63 2d 3d bd 4a 22 3d f2 4e fe bb
       -0.03791489 0.042331036 0.039622057 -0.007760876
000100 d7 5e ae ba 6e 5d 0b bc fc 4f 86 3c 0c 13 a6 3c
       -0.0013303411 -0.008506162 0.016395561 0.020272754
000110 07 dd e5 3c f2 39 2c 3d 42 03 c9 bc 25 51 16 bc
       0.028059496 0.04204745 -0.024537686 -0.00917462
000120 99 dc 2f 3d 7c d6 07 3d 40 82 f5 3b d3 38 02 bd
       0.042934988 0.033163533 0.0074923337 -0.031792473
000130 47 b4 22 bc f2 0d fe 3b 43 4c 5e 3c fa 06 a8 bc
       -0.009930677 0.0077531273 0.013567987 -0.02051114
000140 b2 1d f1 3c ec 6f a2 3c d5 c6 26 bb 1e 72 1a bd
       0.029433105 0.01982876 -0.0025448103 -0.037706487
000150 f7 15 c5 bc f6 48 10 3c 47 70 97 bc c0 68 39 bc
       -0.024058325 0.008806458 -0.018486155 -0.011316478
000160 35 f5 3a bd cf 49 14 3c ec 6d 59 bd 57 ee 4e bc
       -0.045644004 0.0090508 -0.053083345 -0.012630067
000170 61 3d 31 bd e6 e0 ab bc 4c ed 33 3d fa f3 a2 bb
       -0.043271426 -0.020981263 0.043927476 -0.004972932
000180 95 ff 3b bc e9 39 1f bd 79 ee 6b bd 36 bf c3 bc
       -0.01147451 -0.038873587 -0.057600472 -0.023894887
000190 09 6b f6 bc 80 92 a6 3c e4 12 d7 3c e5 b0 04 3d
       -0.030080335 0.020333529 0.026254125 0.032395262
0001a0 1b 87 04 3d e1 ce ab bc a4 a4 4d bd 57 5f 5d 3d
       0.03235541 -0.020972671 -0.05020584 0.054046
0001b0 6a d3 4e 3c b1 b4 04 3c 56 c4 05 bc 6f 44 45 3d
       0.012623647 0.008099721 -0.008164486 0.048160966
0001c0 da 19 2f bd 6c 28 13 3b ac 83 1a bc 47 c4 18 bc
       -0.042749263 0.0022454513 -0.009430807 -0.00932414
0001d0 36 01 14 3d 47 38 44 3c 27 fb 17 bc 43 cc 80 bb
       0.036133967 0.011976308 -0.009276188 -0.0039306
0001e0 16 ce 55 bd 93 1a 5a bd 70 ac fe 3b 46 e9 ef bc
       -0.052198492 -0.053248 0.007772021 -0.029286038
0001f0 71 96 3d 3d 87 cb 28 3d bd 66 08 3d ee 28 5a bd
       0.04628605 0.041209724 0.033301104 -0.05326169
000200 ac bf b9 bc db 92 6d bd 23 7b 02 3d 93 b5 07 bd
       -0.022674404 -0.05800138 0.031855714 -0.033132147
000210 5e d9 c6 3c 50 d1 ea bb d6 19 a7 3b eb ec 9d bc
       0.02427357 -0.0071660653 0.0050995154 -0.01927801
000220 7b 7d 96 bc 32 ea e3 3c 08 c0 39 3d 75 01 75 3c
       -0.01837038 0.027821634 0.04534915 0.014953961
000230 46 28 a4 bc 32 36 5c 3d 18 4b 03 3d 48 96 43 bd
       -0.020038735 0.053762622 0.032054037 -0.04775074
000240 5f c2 6f 3c 2e 0d aa bb df c4 1e bd 4d 43 f7 3b
       0.014633744 -0.0051895594 -0.03876197 0.0075458647
000250 45 29 4e 3d 7d 0f 91 bb 44 fc d5 3c a0 21 2b 39
       0.050332326 -0.004426895 0.026121266 0.00016320357
000260 87 1e 40 3c 46 ee 5c bd cd 80 2b bd 50 a7 74 bc
       0.011726028 -0.053938173 -0.04187088 -0.0149324685
000270 be 76 db 3c 6f af 9b bc a0 81 33 3d 77 68 54 3d
       0.02679002 -0.019004552 0.043824792 0.051857438
000280 e7 a8 00 3d 28 00 d1 3c 37 2a 48 3d 51 c1 b0 3c
       0.031411078 0.02551277 0.048868384 0.021576555
000290 ae c4 dd bc 82 ae 95 3c 82 fb 35 3c b6 80 bf bc
       -0.027071323 0.018271688 0.011107327 -0.023376804
0002a0 d1 a4 46 3d 98 b0 1a bd dc fc 18 3d 7e ad b9 3c
       0.048497025 -0.03776607 0.03735052 0.022665735
0002b0 e8 ea 28 3d eb 5e 0b 3d f8 49 e2 bc ff a0 86 bc
       0.04123965 0.034026068 -0.027623162 -0.01643419
0002c0 d3 10 63 bd ad 4e db 3c 43 17 13 3d ad 57 37 bd
       -0.055435967 0.026770914 0.035910856 -0.04476135
0002d0 f6 69 e2 bc 30 f3 50 3d 36 23 37 3d f9 12 4c 3c
       -0.027638417 0.05101317 0.044711314 0.012455695
0002e0 8e b1 48 bd 03 e9 07 3c fc 82 44 3d b6 06 b0 bc
       -0.048997454 0.0082953 0.04797648 -0.021487575
0002f0 f2 31 2f bd 33 53 09 3d fe 55 12 bd 5a 29 26 3d
       -0.04277224 0.03352661 -0.03572654 0.04056678
000300 98 e7 31 bc 0b 9d 4c 3d 37 ce 4c 3d f8 7d cd 3c
       -0.010858439 0.049954455 0.05000135 0.02508448
000310 d3 ee 4a 3c 97 bb 63 bd 83 67 42 bd 12 2c 0b bd
       0.012386042 -0.05559882 -0.047461998 -0.033977576
000320 17 c0 55 bc 8e 80 99 bc fd 5b 01 bd f7 f9 c9 3b
       -0.013046286 -0.018738057 -0.031581867 0.0061638313
000330 0a 94 48 3d 0d d5 1a bc d8 27 b5 3b 73 c5 50 bd
       0.048969306 -0.009450209 0.0055284314 -0.050969552
000340 87 22 16 bd 35 e1 a6 bc 87 20 cc bb 8d 6b 14 3d
       -0.03665402 -0.020371059 -0.0062294635 0.03623538
000350 1b 7c 10 bc 8a 11 6d 3c 99 f1 55 bd 8a f5 b3 3c
       -0.008818652 0.014469514 -0.05223236 0.021967668
000360 cc 51 41 3d 5c ae 2f bb ec a1 2a 3d b8 de 27 3d
       0.04719715 -0.0026806807 0.041658327 0.040983886
000370 27 ea 81 3d d0 61 10 bd 85 e4 e2 3c 90 17 62 3c
       0.06343489 -0.03524953 0.027696857 0.013799563
000380 cc 83 8e 3c 05 92 a6 39 b7 ce 14 ba cd 5e 37 bd
       0.01739683 0.0003177078 -0.0005676555 -0.044768143
000390 29 5e 17 3d 18 2e 0a bd 29 a8 08 bd 1c 7f b7 3c
       0.036955032 -0.033735365 -0.033363495 0.022399478
0003a0 ac 2a 4c 3d eb 13 06 bd 0f 8a 6e ba a6 d4 3c bd
       0.049845383 -0.03273384 -0.0009099552 -0.046101235
0003b0 c4 f6 86 3c 71 fe 4b bd 7d 2f d1 bc ab 0c f2 bc
       0.016475089 -0.0498032 -0.02553534 -0.029547056
0003c0 e1 fe 16 3d 78 4c 26 3c 72 ed 0a bd 99 c2 e6 bc
       0.036864165 0.0101500675 -0.03391785 -0.028168963
0003d0 38 65 56 bc 92 44 12 3b 2b 10 c7 3c b2 60 3d 3c
       -0.013085656 0.0022318703 0.024299702 0.0115586985
0003e0 61 20 11 3c b9 8e 1e bd 88 82 b0 3b 9b c4 26 3d
       0.008857817 -0.03871033 0.0053866543 0.04071484
0003f0 21 5d 53 bd 1a af 0a 3d dc ca 2c 3d f3 b2 35 bd
       -0.051602487 0.033858396 0.04218565 -0.044360112

conv2.bias f4 [16]
000000 dc 2d 66 3c 31 39 f3 bc 3f 55 d5 bc cf 9b 28 bd
       0.01404902 -0.029690357 -0.026041625 -0.041164216
000010 ba 1e 96 3c 8c 74 0f 3d 68 30 b3 bb ba e9 e1 bc
       0.018325198 0.035023257 -0.005468417 -0.02757727
000020 dd 8b 60 bc 27 52 33 3d 14 50 27 bd 70 d9 4e bc
       -0.013705221 0.04377952 -0.040847853 -0.012625083
000030 12 e7 0f 3d 81 63 a8 bc e6 59 5d bc 45 84 67 bc
       0.035132475 -0.02055526 -0.013510203 -0.014130657

conv3.weight f4 [64, 16, 1]
000000 d3 23 78 3e 7b 16 63 3d 04 56 aa 3b 12 4b fa bc
       0.24232416 0.05544136 0.005198242 -0.030553374
000010 1b 32 5b 3e b3 3c 68 3e d7 78 99 3a 1b 2d 68 3d
       0.21405832 0.22679405 0.0011708987 0.05668364
000020 5c b3 7d be 57 16 63 3d f3 63 98 bc 49 9c ff bd
       -0.24775451 0.055441227 -0.018602347 -0.12480981
000030 8e e1 fa bd 63 b3 77 bd 9f bf e8 bd 7e 43 46 be
       -0.122500524 -0.06047381 -0.11364674 -0.19361684
000040 65 d5 c2 3c f1 99 0d be 0b a6 7f be 8b f6 58 be
       0.023783395 -0.13828255 -0.24965684 -0.21187799
000050 c9 9f 48 3e 14 e1 e2 bd da cd 42 be 81 ad 04 ba
       0.19592203 -0.110780865 -0.19023839 -0.00050612545
000060 cc fa 75 3e f5 59 9c 3c bb 90 f5 bd 87 e3 86 bd
       0.24021453 0.019085864 -0.11990496 -0.06586366
000070 60 ff 01 3d c3 f2 b0 bd 83 94 2b 3e 1c 52 7c 3d
       0.031737685 -0.08640053 0.16755871 0.061601743
000080 45 16 f3 3d a0 f2 cc bd f6 b7 eb bd 34 e8 6b be
       0.11869482 -0.100072145 -0.11509697 -0.23037797
000090 db 00 fc bd 27 b6 bb 3d 89 59 c2 3d d5 11 df bd
       -0.12304851 0.09165602 0.09489734 -0.10892073
0000a0 e9 2b 18 3e 5b c3 e7 bd ec b9 26 be eb 1a 2d bd
       0.148605 -0.11316558 -0.16281861 -0.042262
0000b0 3d 31 f4 3d 02 f2 d8 3d 0c 8c 5b be d8 14 93 bd
       0.11923454 0.10593034 -0.21440142 -0.0718171
0000c0 fd c3 76 be 8f 70 75 3e 3d 86 5f 3d bd 56 2a 3d
       -0.24098201 0.23968719 0.05457138 0.041586626
0000d0 81 a4 e0 bd 96 b5 6c 3e 85 db 0c 3e b3 e8 4c be
       -0.10968877 0.23116145 0.13755615 -0.20010643
0000e0 3c 4e ee 3d 6a 88 19 be 18 1d cf 3d 4c b1 5e be
       0.11636016 -0.14993444 0.10112971 -0.21747321
0000f0 83 be af bb a8 02 9c 3d cf be 57 3e 6a 3d 5d 3e
       -0.005363287 0.07617694 0.21068881 0.21605459
000100 05 61 aa 3c eb a0 26 3d 63 78 ac bd f1 a2 ae bb
       0.020798216 0.040680807 -0.084213994 -0.0053294827
000110 cf 89 13 3e 9a 1d f7 3d ae ce fd bd 28 1b 6c be
       0.14408039 0.12066193 -0.12392937 -0.23057234
000120 88 51 b5 bd a3 b4 4c be 8d d5 ab bd 52 d0 08 3d
       -0.088534415 -0.19990782 -0.08390341 0.033401795
000130 0f 0b 43 be fa b7 04 be f5 c5 56 be a8 eb 07 3e
       -0.19047187 -0.12960806 -0.20973952 0.1327349
000140 af d7 e5 bd 98 75 52 3d 74 12 33 3d 64 da 7a bc
       -0.11222779 0.051381677 0.04371877 -0.015310857
000150 14 ed d1 3d 06 87 5f be 69 af cc 3d aa 4f 1e be
       0.10250297 -0.21828851 0.09994394 -0.15460077
000160 2e f0 3b bc d6 c9 6b 3e fe 2b 3d bd fe 93 81 be
       -0.0114708375 0.23026213 -0.046184532 -0.25308222
000170 a3 a3 32 be 83 b3 40 3e 6b 22 d5 3d f0 4c 14 3e
       -0.17445235 0.18818478 0.10406955 0.14482474
000180 a8 b2 50 be 06 51 27 be 5e 2d ba bc 22 0c 05 3e
       -0.20380652 -0.16339502 -0.02272671 0.1299291
000190 45 49 a3 bb 97 b5 80 bd 96 a3 a0 bd aa 59 09 be
       -0.0049830996 -0.062846355 -0.078437015 -0.1341311
0001a0 c0 d6 07 be 2d 1e 4a 3e 57 40 a9 3d 9c af 11 be
       -0.13265514 0.19738074 0.08264225 -0.14227146
0001b0 e3 2b 56 be f3 ce 11 3c 35 61 2f 3e 23 e8 4b be
       -0.20915179 0.008899438 0.17126925 -0.19912772
0001c0 9d 00 41 be 1e aa 13 be 58 94 71 be bb e2 9c 3d
       -0.1884789 -0.14420363 -0.23591745 0.07660433
0001d0 f6 49 02 be 28 ca 0b 3c ce 3b e7 3d 87 ed 7e 3e
       -0.12723526 0.0085320845 0.11290704 0.24895297
0001e0 89 87 dc bd 36 47 6d 3e 46 5a ea bd 56 c4 15 be
       -0.10768039 0.23171696 -0.114429995 -0.14625677
0001f0 72 85 7c be 34 f1 6a be 08 5d 00 be 5f 8b 37 3e
       -0.2466028 -0.22943574 -0.12535489 0.1792426
000200 6d 54 96 3d 4a 18 19 be 81 c4 32 3e 7c b3 96 bd
       0.07340322 -0.14950672 0.17457773 -0.07358453
000210 a2 93 e0 3d 64 c1 de 3d dd cc 4e 3e a6 e2 56 be
       0.10965659 0.1087673 0.20195337 -0.20984897
000220 af 25 38 3d 14 33 4c bc 8e 76 62 bd b3 a1 20 be
       0.044957813 -0.01246335 -0.055288844 -0.15686683
000230 7e 05 3e 3e 01 96 3e 3d 87 4a 55 3d 6d ab 49 3d
       0.18556783 0.046529774 0.052073028 0.04923575
000240 d7 2c fe bd 17 74 c7 3d 6d cd af bd 67 23 7b 3d
       -0.12410896 0.09738939 -0.08584104 0.06131306
000250 32 9f 5f 3e 59 c0 a6 bc 0c b2 01 3e ab bf 33 be
       0.21838072 -0.02035539 0.12665576 -0.17553584
000260 1e da 56 be a7 9e 6a 3e f9 14 7c bc 5f 79 a9 bd
       -0.20981643 0.22912084 -0.01538586 -0.08275103
000270 29 fa a4 3d 22 bc 05 3e de 1c 80 be c5 df 00 3a
       0.08055527 0.13060048 -0.25022024 0.0004916157
000280 05 99 e4 3d 0b f8 37 3c 95 62 e1 3c fb 55 39 be
       0.11161999 0.011228572 0.027512828 -0.18099205
000290 04 dc 43 3d aa 39 16 3d 6e 6e 87 3d 07 13 4f 3e
       0.047817245 0.036676086 0.0661286 0.20222102
0002a0 6a 95 4c be 9d 59 49 3e 60 3e 30 be 77 e4 e9 bc
       -0.19978872 0.19663091 -0.17211294 -0.028551323
0002b0 85 8e 1a be 5a e5 d0 3d 5b 21 42 3d a3 9f ec bd
       -0.1509343 0.10199995 0.04739509 -0.11553886
0002c0 0b aa 7d be 57 e2 79 bb 0c d8 72 3e 57 1c 4a 3e
       -0.24771897 -0.0038129294 0.23715228 0.19737373
0002d0 45 4a 90 bd 42 aa 4b bb 32 58 bd 3c ae 7b 43 3e
       -0.07045416 -0.0031076823 0.023113344 0.19090149
0002e0 08 53 17 3e 61 af 19 be 58 fe 25 3c 86 49 e8 3d
       0.14777768 -0.15008308 0.010131441 0.113421485
0002f0 e9 e3 69 bc e8 a0 9f 3d 4d 60 3e 3e 0e 13 4b 3e
       -0.014275529 0.07794362 0.18591423 0.19831488
000300 2c 26 39 3e 25 b8 f3 bd 93 8e 3e 3d 06 d0 d6 bd
       0.18080968 -0.11900357 0.046522688 -0.10488896
000310 91 ae 67 be 03 61 ec bc ca 05 08 bd 60 c6 56 3d
       -0.22625186 -0.028854853 -0.033208646 0.05243528
000320 b8 19 07 be 56 de 52 bd c4 39 20 be ec 0d 6a be
       -0.13193405 -0.051481567 -0.15647036 -0.22856873
000330 71 be 1c be 03 b3 01 be 2a 00 95 bc 7c 6b 51 3e
       -0.15307023 -0.12665944 -0.018188555 0.20451158
000340 85 9a 78 3d c7 97 62 3e 8a fc 30 3e f5 1d 1f 3d
       0.060694236 0.22128211 0.17283836 0.03884693
000350 01 79 6a 3e 65 86 0e bd a2 d6 4e 3b 61 d8 fb 3d
       0.22897722 -0.034796137 0.0031561037 0.122971304
000360 d1 6c fe bd d5 78 06 be 99 8e 53 3e d2 88 92 3d
       -0.12423099 -0.13132031 0.20659865 0.07155003
000370 e8 d7 66 3e d3 ad e0 3d 06 27 20 3e a6 87 84 bb
       0.22543299 0.10970654 0.15639886 -0.004044491
000380 6e 8c 11 3e 51 70 01 3b 4a 3a 0b be bc b2 ca 3d
       0.14213726 0.0019750784 -0.13596454 0.09897372
000390 b6 ec e4 bb f7 ee 0b 3e 9f 37 d2 bd 68 4c 0f bc
       -0.006986226 0.13665377 -0.10264515 -0.008746244
0003a0 50 8b 08 3e 2c c2 08 3e 4f e0 06 be 00 bb b4 bc
       0.13334394 0.1335532 -0.13171504 -0.022061825
0003b0 2f 26 f2 bc 4e 47 75 3b de d1 e1 3d ed 9e fa bd
       -0.029559223 0.0037426534 0.11026357 -0.12237344
0003c0 75 d2 83 3d 05 6b 8b 3d 9f 92 b5 bd ef 73 ea bd
       0.06436626 0.06807522 -0.088658564 -0.11447894
0003d0 f5 51 34 be a3 2c 28 3e 30 0e 54 be 77 f2 db 3d
       -0.17609389 0.16423278 -0.20708537 0.10739606
0003e0 55 53 42 bc 78 0b 71 3e 16 50 05 bc 41 d7 47 3e
       -0.011860688 0.23539531 -0.00813677 0.19515707
0003f0 08 59 b8 bd 3d 7b 66 be e3 7d fa bd 4b 0b 7e bd
       -0.09001356 -0.22507949 -0.12231042 -0.06202249

conv3.bias f4 [64]
000000 0a 9a 1d be 37 e7 b7 bd 34 37 b2 3c 9f a0 61 3d
       -0.15390792 -0.089796476 0.021754839 0.05508482
000010 2a 31 c7 3d 81 3b 36 3e 45 7b 26 3c c1 aa 23 bd
       0.09726174 0.17796136 0.010161226 -0.039957765
000020 28 f9 7e 3d fd 10 c0 3d 60 68 ef 3d c9 ba 3f 3e
       0.062249333 0.0937824 0.1168983 0.18723597
000030 3c 53 4a bd ee 71 e2 bd 23 81 1d be c2 81 ae bd
       -0.049395785 -0.110568866 -0.15381293 -0.08520843
000040 4c b1 46 be e8 84 bf bd e4 1f 25 be c6 2f 76 3e
       -0.19403571 -0.09351522 -0.16125447 0.24041662
000050 57 b6 07 be 9d b0 86 bb e9 47 d3 bd 19 45 65 3e
       -0.13253151 -0.0041104094 -0.1031645 0.2238964
000060 fc cc 92 3b 67 d7 4a 3e cb e8 03 3e 00 79 4e be
       0.0044800024 0.19808732 0.12881772 -0.20163345
000070 d3 d7 f9 3d 43 17 63 3e b7 62 0a 3e 9d 5b 0f be
       0.12199368 0.22176842 0.13514219 -0.13999791
000080 e0 9a 52 be 3c a1 c8 bd c9 2d e6 bd e0 91 5e 3e
       -0.20566893 -0.09796378 -0.112392016 0.21735334
000090 c3 72 6d bd d9 d1 64 3e 96 fc 5c bd 43 bd 4f 3e
       -0.057970773 0.22345676 -0.053951822 0.20287041
0000a0 6d 6b fc 3d 8c a3 5c 3c 79 84 d9 3d fc d7 39 be
       0.12325177 0.013466727 0.1062097 -0.18148798
0000b0 cd 92 e4 bd 54 9e e1 bd 34 eb 6b be d7 24 7b bc
       -0.111608125 -0.11016527 -0.23038942 -0.0153286075
0000c0 39 db 8f bd 4f 2f 26 bc 3d 31 0d ba 37 4c 4d bc
       -0.07024235 -0.010143115 -0.000538606 -0.012530378
0000d0 ac 56 f2 bd 06 fb aa bd 48 e9 2e be 40 cb 13 3e
       -0.118329376 -0.0834866 -0.17081177 0.14433002
0000e0 9b b9 28 3e f5 c3 31 bd 0d 0f 4f be 42 86 37 bc
       0.16477053 -0.04339977 -0.20220585 -0.011201443
0000f0 10 21 14 3e 83 d0 f7 bc 1a 22 71 bb 14 ab 9d 3d
       0.14465737 -0.030250793 -0.0036794008 0.07698646

conv4.weight f4 [1, 64, 1]
000000 1c 8d ad 3d 60 e6 2b 3d da 38 ec 3b 13 a3 34 bb
       0.0847418 0.04196775 0.0072089257 -0.002756302
000010 80 aa 82 bd 98 47 b1 3c 58 53 f9 3b 48 e8 b5 3c
       -0.063801765 0.021640584 0.0076088123 0.022205487
000020 2e 70 9f 3b 01 d8 40 bd 68 46 85 3d 0a e7 ef 3b
       0.004865668 -0.047080997 0.065075696 0.007321243
000030 6a 28 91 3d 7a b3 fa bc 7e a0 7e bc f6 52 40 bd
       0.070877865 -0.03060316 -0.015541194 -0.046954118
000040 57 ed d2 3d d5 6c 1e bc 64 03 d7 3c ca 6d 91 3d
       0.10299175 -0.009669502 0.026246734 0.07101019
000050 66 93 da 3d 93 ba e6 bd c6 4a a2 bd 16 59 85 bd
       0.10672645 -0.11266055 -0.07924418 -0.065111324
000060 f7 ac ad 3d 21 c1 49 3d 23 68 a1 3d 5b aa ea 3d
       0.08480256 0.049256448 0.07881191 0.11458274
000070 57 df c7 3a 7f 44 e6 3d bc 59 99 3d 88 b1 c5 3d
       0.0015249056 0.11243533 0.074878186 0.09653002
000080 52 81 f1 bd f2 a0 c5 3d 15 cf b9 3d 2e fd c2 3c
       -0.11792244 0.096498385 0.09072701 0.023802366
000090 bb d9 46 3d 1c d5 d9 bd c2 81 66 3d 26 28 63 3c
       0.048547488 -0.106363505 0.05627609 0.013864553
0000a0 95 23 58 3d d2 bc ec 3d 25 f8 68 bd 75 95 c5 3d
       0.05276831 0.11559452 -0.056877274 0.09647647
0000b0 93 b2 7f 3c 3e 4d c6 bd 60 e2 1a bd 3d 19 bf 3d
       0.01560654 -0.096827015 -0.037813544 0.09330986
0000c0 52 56 70 bd fd 69 9d 3b 4b 8e 9d bd 94 7e d4 bd
       -0.05867607 0.0048038946 -0.07693156 -0.10375705
0000d0 91 a3 85 bd c1 6e 8c bd d2 70 5b bd 72 f3 f3 3d
       -0.065253384 -0.06857062 -0.05357439 0.11911668
0000e0 a5 0e 25 3d ab 13 69 bc a0 b8 71 bd 64 1e 00 3e
       0.04029717 -0.014225881 -0.059013963 0.12511593
0000f0 b6 b3 ed 3d d6 73 8b bd de f0 90 bb b1 78 01 3e
       0.11606543 -0.06809203 -0.004423245 0.12643696

norm1.weight f4 [320, 64]
000000 46 1d 80 3f 2d 0c 80 3f 13 15 80 3f 45 53 80 3f
       1.0008934 1.0003716 1.0006431 1.0025412
000010 d2 1d 80 3f eb 35 80 3f 54 37 80 3f 16 85 7f 3f
       1.00091 1.0016454 1.0016885 0.9981245
000020 fa 07 80 3f 6b 54 80 3f e0 d6 7f 3f 67 42 7f 3f
       1.0002434 1.0025762 0.9993725 0.99710697
000030 23 16 80 3f 4e f9 7f 3f 4b 65 7f 3f ec ae 7f 3f
       1.0006756 0.99989784 0.99763936 0.99876285
000040 b7 b2 7f 3f 62 2f 80 3f 71 f1 7f 3f 54 c1 7f 3f
       0.9988207 1.001446 0.99977785 0.9990437
000050 aa ce 7f 3f 2a b7 7f 3f 95 07 80 3f 02 ac 7f 3f
       0.9992472 0.9988886 1.0002314 0.9987184
000060 8c 1b 80 3f fc 0f 80 3f 0b 18 80 3f 51 9b 7f 3f
       1.0008407 1.0004878 1.0007337 0.9984637
000070 1e 0e 80 3f 36 37 80 3f 11 de 80 3f 3a 2a 80 3f
       1.0004308 1.0016849 1.0067769 1.0012887
000080 3b 90 7f 3f 87 11 80 3f 38 6a 80 3f c4 b5 7f 3f
       0.99829453 1.0005349 1.0032415 0.9988673
000090 3c 24 80 3f 12 55 80 3f 37 34 80 3f 51 5a 80 3f
       1.0011058 1.0025961 1.0015935 1.0027562
0000a0 81 03 80 3f 99 4b 80 3f d5 30 80 3f f3 ff 7f 3f
       1.0001069 1.002307 1.0014902 0.9999992
0000b0 f9 bb 7f 3f 3e 07 80 3f 6c 22 80 3f b4 34 80 3f
       0.998962 1.000221 1.0010505 1.0016084
0000c0 59 38 80 3f 53 f5 7f 3f 1e 16 80 3f 13 74 80 3f
       1.0017196 0.9998371 1.000675 1.0035423
0000d0 4b 9c 7f 3f f9 4d 80 3f 7c ac 7f 3f 6d 68 7f 3f
       0.9984786 1.0023795 0.99872565 0.99768716
0000e0 48 c2 7f 3f f3 99 7f 3f e8 12 80 3f 00 ae 7f 3f
       0.99905825 0.9984428 1.000577 0.9987488
0000f0 ae 44 80 3f 92 94 7f 3f ec 28 80 3f 33 2e 80 3f
       1.0020959 0.99836075 1.0012488 1.0014099
000100 45 9f 7f 3f cd d0 7f 3f d5 cb 7f 3f f3 4f 7f 3f
       0.998524 0.9992798 0.999204 0.9973137
000110 b8 ae 7f 3f 9f 9d 7f 3f cd af 7f 3f bc 3c 80 3f
       0.99875975 0.99849886 0.99877626 1.0018535
000120 64 f5 7f 3f 7c 63 7f 3f 0c 07 80 3f 18 5f 80 3f
       0.9998381 0.99761176 1.000215 1.002902
000130 42 fa 7f 3f ce 1f 80 3f bb 36 80 3f f2 34 80 3f
       0.9999124 1.0009706 1.0016702 1.0016158
000140 2b 1d 80 3f 60 ef 7f 3f 4e 02 80 3f 96 18 80 3f
       1.0008901 0.9997463 1.0000703 1.0007503
000150 c0 03 80 3f cc 3a 80 3f 51 e4 7f 3f c2 1c 80 3f
       1.0001144 1.0017943 0.9995776 1.0008776
000160 52 ff 7f 3f 48 ec 7f 3f f0 c3 7f 3f 43 a6 80 3f
       0.9999896 0.9996991 0.9990835 1.0050739
000170 3f 0d 7c 3f 39 07 80 3f 62 82 7e 3f 36 18 80 3f
       0.9845771 1.0002204 0.994177 1.0007389
000180 75 eb 7e 3f b7 f6 7f 3f b4 ee 7e 3f 57 55 80 3f
       0.9957803 0.9998583 0.9958298 1.0026044
000190 57 40 80 3f 7f 90 80 3f 83 aa 7f 3f 3d 5b 7f 3f
       1.0019635 1.0044097 0.99869555 0.99748594
0001a0 e9 fc 7f 3f 74 37 7f 3f f5 8b 7f 3f 21 d2 7f 3f
       0.99995285 0.9969399 0.9982293 0.99930006
0001b0 7d 2c 80 3f 80 e5 7f 3f 65 dc 7f 3f a1 b2 7f 3f
       1.0013577 0.99959564 0.9994567 0.9988194
0001c0 f8 70 7f 3f 66 e2 7f 3f e9 c7 7f 3f d8 33 7f 3f
       0.9978175 0.9995483 0.99914414 0.9968848
0001d0 ae 45 80 3f 16 63 7f 3f eb 24 80 3f 59 45 80 3f
       1.0021265 0.9976057 1.0011266 1.0021163
0001e0 ab 02 80 3f d6 30 80 3f 2e f2 7f 3f b1 37 80 3f
       1.0000814 1.0014904 0.9997891 1.0016996
0001f0 e9 8f 7f 3f 8a 5b 80 3f f4 cd 7f 3f a6 c0 7f 3f
       0.99828964 1.0027936 0.99923635 0.99903333
000200 14 1e 80 3f df 10 80 3f bd 17 80 3f 5a 4e 80 3f
       1.0009179 1.0005149 1.0007244 1.0023911
000210 8f 1f 80 3f 13 32 80 3f b6 33 80 3f 3c 87 7f 3f
       1.0009631 1.0015281 1.0015781 0.99815726
000220 36 03 80 3f 28 4f 80 3f 81 e1 7f 3f 4b 4f 7f 3f
       1.000098 1.0024157 0.99953467 0.99730366
000230 f2 12 80 3f 7d e4 7f 3f 69 79 7f 3f 32 ac 7f 3f
       1.0005782 0.9995802 0.9979463 0.99872124
000240 79 ae 7f 3f 6e 27 80 3f 2a f1 7f 3f f2 c3 7f 3f
       0.998756 1.0012033 0.9997736 0.99908364
000250 fd d7 7f 3f 97 a9 7f 3f 34 07 80 3f 2d bb 7f 3f
       0.99938947 0.9986815 1.0002198 0.9989498
000260 23 17 80 3f 65 0b 80 3f 9d 19 80 3f 9d 6f 7f 3f
       1.0007061 1.0003477 1.0007817 0.99779683
000270 2b 98 7f 3f bd a5 80 3f db 58 80 3f 96 5b 80 3f
       0.99841565 1.0050579 1.0027117 1.002795
000280 93 91 80 3f 19 88 7f 3f 20 ea 7f 3f 5e 50 80 3f
       1.0044426 0.99817044 0.9996662 1.0024526
000290 d1 13 80 3f c8 b5 7f 3f e1 28 80 3f c3 55 80 3f
       1.0006047 0.9988675 1.0012475 1.0026172
0002a0 c4 07 80 3f 11 4a 80 3f e3 2e 80 3f f3 ff 7f 3f
       1.000237 1.0022603 1.0014309 0.9999992
0002b0 2f ba 7f 3f e8 07 80 3f 82 1c 80 3f 6c 2d 80 3f
       0.9989347 1.0002413 1.00087 1.0013862
0002c0 da 32 80 3f 3d fe 7f 3f 24 14 80 3f c4 68 80 3f
       1.0015519 0.9999731 1.0006146 1.0031972
0002d0 fd a0 7f 3f ab 48 80 3f a3 b2 7f 3f 87 69 7f 3f
       0.99855024 1.0022177 0.99881953 0.99770397
0002e0 fd cf 7f 3f 38 a8 7f 3f 7b 07 80 3f f4 ae 7f 3f
       0.9992674 0.99866056 1.0002283 0.9987633
0002f0 f1 42 80 3f 37 89 7f 3f 99 21 80 3f 5d 28 80 3f
       1.0020429 0.9981875 1.0010253 1.0012318
000300 c4 87 7f 3f c1 db 7f 3f f5 b8 7f 3f 01 73 7f 3f
       0.99816537 0.9994469 0.998916 0.9978486
000310 35 95 7f 3f 32 dd 7f 3f df d9 7f 3f a2 32 80 3f
       0.99837047 0.9994689 0.9994182 1.0015452
000320 e9 11 80 3f 91 8f 7f 3f 07 d0 7f 3f 74 5d 80 3f
       1.0005466 0.9982844 0.999268 1.002852
000330 a7 0d 80 3f 2f 46 80 3f bd 1d 80 3f 4b 47 80 3f
       1.0004166 1.0021418 1.0009075 1.0021757
000340 d3 20 80 3f d6 11 80 3f 51 f1 7f 3f 6a 05 80 3f
       1.0010017 1.0005443 0.99977595 1.0001652
000350 68 de 7f 3f b9 64 80 3f 7c d7 7f 3f e6 09 80 3f
       0.9994874 1.0030738 0.9993818 1.0003021
000360 07 24 80 3f 2b 04 80 3f 2c a8 7f 3f da dd 7f 3f
       1.0010995 1.0001272 0.99865985 0.99947894
000370 0e c4 7e 3f d0 17 81 3f 69 8f 7f 3f df af 80 3f
       0.99517906 1.0085392 0.998282 1.0053672
000380 10 bf 80 3f 17 1e 80 3f 1a e1 7f 3f 2a 25 80 3f
       1.0058308 1.0009183 0.9995285 1.0011342
000390 b4 4b 7f 3f 0b c3 7e 3f 2a f0 7f 3f 73 6c 7f 3f
       0.9972489 0.9951636 0.99975836 0.99774855
0003a0 e5 06 80 3f 3c 22 7f 3f 92 87 7f 3f 92 c2 7f 3f
       1.0002104 0.9966161 0.9981624 0.99906266
0003b0 8d 2f 80 3f 85 ce 7f 3f 5b fd 7f 3f 45 e5 7f 3f
       1.0014511 0.999245 0.99995965 0.9995921
0003c0 25 5d 7f 3f 78 a7 7f 3f 2b af 7f 3f b7 64 7f 3f
       0.997515 0.9986491 0.9987666 0.99763054
0003d0 17 4a 80 3f de 5f 7f 3f 49 11 80 3f 59 43 80 3f
       1.002261 0.99755657 1.0005275 1.0020553
0003e0 ee e2 7f 3f 3f 22 80 3f 28 18 80 3f e1 3d 80 3f
       0.9995564 1.0010451 1.0007372 1.0018884
0003f0 c0 a9 7f 3f 61 84 80 3f b0 19 80 3f 6e fe 7f 3f
       0.9986839 1.0040399 1.0007839 0.99997604

norm1.bias f4 [320, 64]
000000 ae 0b a5 ba 9c b7 1a ba 1d e0 87 ba 12 0b 43 bb
       -0.0012591982 -0.0005901994 -0.0010366474 -0.0029761237
000010 82 a9 97 ba a7 5c 01 bb cb e7 bd ba 03 00 fb 3a
       -0.0011570903 -0.0019739063 -0.0014488635 0.0019149784
000020 e9 49 f0 b9 b2 9b 30 bb d3 a6 25 3a be 9a 46 3b
       -0.00045831435 -0.002694827 0.0006319109 0.0030304636
000030 88 68 c8 b9 5a 4f b7 38 4e e3 12 3b 39 29 88 3a
       -0.00038224855 8.7409004e-05 0.0022413316 0.0010388262
000040 0b ef 96 3a d1 45 b4 ba 6e 8b cf 38 fb 4a aa 3a
       0.0011515332 -0.0013753717 9.8965e-05 0.0012992317
000050 8f d4 4c 3a 99 ce 73 3a 68 7a 85 b6 5f 88 9a 3a
       0.0007813656 0.00093005 -3.977959e-06 0.0011789909
000060 e2 1d 38 ba 11 89 10 ba da e6 81 ba ff 52 82 bb
       -0.0007023496 -0.00055135885 -0.0009910718 -0.003977179
000070 6d 70 b9 ba 1a 37 23 bb 82 24 8d ba a6 ce ee 39
       -0.0014147885 -0.002490467 -0.0010768326 0.00045548863
000080 a8 db 00 3b 14 c8 bc b9 1f f2 59 bb 7e d1 9d 3a
       0.0019662175 -0.00036007224 -0.0033255888 0.0012040583
000090 96 4e 6b ba 26 66 16 bb bd b0 eb ba fb 97 38 bb
       -0.0008976249 -0.0022949069 -0.0017981749 -0.002816676
0000a0 52 d2 a0 b9 15 3c 20 bb 1d b6 9d ba ce 49 3f b9
       -0.0003067428 -0.0024449874 -0.0012032423 -0.00018242674
0000b0 ac e2 86 3a 5e 4a 39 b9 03 be 5c ba 19 b9 c3 ba
       0.0010290942 -0.00017670679 -0.0008420648 -0.0014932483
0000c0 2b bd d0 ba 62 c2 1e 39 cd 57 2d ba 1c 1a 5b bb
       -0.0015925517 0.00015140467 -0.00066125096 -0.003343231
0000d0 ff 15 c0 3a ff 9a 16 bb d7 d7 b1 3a 63 f8 1b 3b
       0.0014654993 -0.0022980568 0.0013568354 0.0023799173
0000e0 2e 7d 93 3a d1 02 c2 3a 6b 4d a8 b9 f0 47 a6 3a
       0.0011252516 0.0014801865 -0.00032101138 0.0012686234
0000f0 a5 42 08 bb a7 fb df 3a de ed b7 ba a6 24 b9 ba
       -0.0020791676 0.0017088548 -0.0014032682 -0.0014125302
000100 85 83 c0 3a 8d df 44 3a ff 47 8f 3a c4 c0 36 3b
       0.0014687633 0.00075101183 0.0010931491 0.0027885893
000110 11 61 aa 3a d6 66 cd 3a 97 98 a1 3a 07 7d f6 ba
       0.0012998899 0.0015670906 0.00123288 -0.0018805572
000120 4d 1c 10 39 c1 d1 25 3b 1a ce 38 b9 0b 47 47 bb
       0.00013743453 0.0025302025 -0.00017624386 -0.0030407335
000130 f8 72 47 38 81 6b 56 ba 35 11 e3 ba 89 d2 b9 ba
       4.755237e-05 -0.00081794715 -0.0017323854 -0.0014177124
000140 f0 84 a5 ba a7 00 24 3a 7b ab 82 b8 f6 b5 70 ba
       -0.001262812 0.0006256201 -6.230824e-05 -0.0009182388
000150 80 02 92 b9 e1 48 c9 ba eb cb 6f 39 05 27 66 ba
       -0.00027849153 -0.0015356803 0.00022868782 -0.0008779618
000160 9a 0b 33 39 60 3e aa 39 b6 9d 8b 3a cc 7f a7 3b
       0.00017075092 0.000324714 0.001065186 0.00511167
000170 3c b1 05 3b a2 1b 2a 3b 71 6b fd b7 af a1 7a ba
       0.002039983 0.0025956412 -3.0209982e-05 -0.0009560836
000180 1d df f2 bb 72 29 05 3a 59 af 53 bb 69 9a 46 3b
       -0.007411851 0.0005079723 -0.003230056 0.0030304438
000190 b1 be 05 3b 5f 83 42 3b 8b a1 9d 3a ee 4d 2c 3b
       0.002040785 0.0029680354 0.0012026293 0.0026291567
0001a0 2e 6e bf 39 ed a7 3a 3b e3 a0 c4 3a e6 23 04 3a
       0.0003651245 0.002848144 0.0015001561 0.00050407497
0001b0 6f bb 9b ba a6 f1 98 39 eb f4 00 3a 0e a7 a3 3a
       -0.0011881421 0.0002917174 0.0004919308 0.0012485699
0001c0 2c 92 f5 3a c8 a9 eb 39 eb ae 60 3a 83 16 46 3b
       0.0018735579 0.0004494919 0.00085709867 0.003022582
0001d0 f2 74 db ba be 9e 1a 3b 89 a2 8e ba 35 b6 1e bb
       -0.0016743226 0.0023593153 -0.001088218 -0.002421749
0001e0 31 3f 16 ba af e2 a1 ba a0 48 18 b9 f2 6c b5 ba
       -0.0005731462 -0.0012350882 -0.00014522905 -0.0013841672
0001f0 45 1a 02 3b 2a cc 1a bb 8d ca 57 3a 0a eb 8c 3a
       0.0019852084 -0.0023620226 0.00082317815 0.00107512
000200 ec 11 a7 ba 87 4c 30 ba 05 f4 91 ba fe 6b 38 bb
       -0.001274643 -0.00067252707 -0.0011135346 -0.002814054
000210 97 f8 a0 ba 78 72 f1 ba 9e 6b b1 ba 85 0e f3 3a
       -0.0012281117 -0.0018420955 -0.0013536101 0.0018543756
000220 79 f9 ae b9 69 57 27 bb 8f f2 ea 39 c9 fc 3c 3b
       -0.00033373738 -0.0025534278 0.00044812678 0.0028837195
000230 1a 84 91 b9 87 64 d3 39 13 97 fe 3a fd cd 8e 3a
       -0.00027754979 0.00040319955 0.0019423686 0.001089513
000240 82 26 9d 3a f5 e5 8e ba e4 80 7b 38 86 33 a4 3a
       0.0011989626 -0.0010902273 5.9963102e-05 0.0012527562
000250 86 68 27 3a 84 eb 95 3a f4 02 a2 37 ad d5 7c 3a
       0.00063861196 0.0011437987 1.931328e-05 0.0009644877
000260 18 19 0d ba f0 e9 e3 b9 ab 67 89 ba 2c 55 96 bb
       -0.00053824624 -0.0004347111 -0.0010483166 -0.00458779
000270 76 b6 34 bb e4 3a b6 ba b9 1b 82 3a 72 c8 3b 3b
       -0.0027574576 -0.0013903049 0.0009926475 0.002865341
000280 9c f9 f6 3b cd 76 f3 ba a5 0f 32 ba d2 c8 3a 3b
       0.00753708 -0.0018574834 -0.00067924923 0.0028501046
000290 de ce 03 bb 42 f0 2d bb 6c d0 bf ba 90 8b 2e bb
       -0.0020112316 -0.002654091 -0.0014634258 -0.0026633479
0002a0 a4 b5 d2 b9 90 16 1d bb 2f c1 99 ba 32 95 49 b9
       -0.00040189654 -0.0023969747 -0.0011730547 -0.00019224433
0002b0 b7 2d 87 3a 7f d2 51 b9 a6 b2 2b ba 42 70 a8 ba
       0.0010313307 -0.00020010209 -0.0006549753 -0.0012850838
0002c0 d7 2e bd ba 27 1d c7 b8 e0 bb 2a ba c9 3f 48 bb
       -0.0014433515 -9.4944895e-05 -0.0006512981 -0.0030555597
0002d0 b1 cc bb 3a 22 2a 0e bb 3a b5 a3 3a 5f 31 1a 3b
       0.001432797 -0.0021692594 0.0012489923 0.0023527963
0002e0 b8 eb 7a 3a 40 d3 a5 3a 1e 81 1b 38 f8 c5 a6 3a
       0.0009571868 0.0012651458 3.707513e-05 0.0012723794
0002f0 12 e7 05 bb fe a9 fc 3a 26 1c 99 ba 4f 36 a3 ba
       -0.0020431918 0.0019276736 -0.0011681363 -0.0012452098
000300 d4 78 f5 3a 0b 5c 62 3a 2d d2 b8 3a 41 c9 0c 3b
       0.0018728026 0.00086349313 0.0014100723 0.0021482261
000310 e0 8b d4 3a 82 20 2c 3a cc 09 1d 3a 5e ea db ba
       0.0016216002 0.00065661233 0.00059905346 -0.0016778221
000320 b7 be 88 b9 d6 ee f5 3a ea aa 1e 3a 6c 68 38 bb
       -0.00026082035 0.0018763195 0.000605269 -0.0028138412
000330 29 24 27 ba 90 4b 0a bb 86 7d 62 ba c6 14 fd ba
       -0.0006375933 -0.0021102168 -0.000863992 -0.0019308559
000340 bf 43 bf ba ed 18 06 ba 95 a2 37 39 d4 fe b0 b9
       -0.0014592333 -0.00051154086 0.00017512807 -0.00033759198
000350 c7 5e 13 3a cb 38 3a bb f3 a2 f2 39 3f f5 99 b9
       0.0005621728 -0.00284152 0.00046279244 -0.00029365157
000360 5a 3d 8f ba 9a f0 27 b9 a5 7e c3 3a 2b e9 ce 3b
       -0.0010928318 -0.00016015992 0.0014915062 0.006314417
000370 4c b4 0d 3b bb e9 0c 3b 37 50 b3 b9 c9 3f b3 bb
       0.0021622358 0.002150162 -0.00034201305 -0.0054702503
000380 d9 d5 c0 bb a1 39 54 ba 90 0b 07 3a c0 30 a1 ba
       -0.0058848676 -0.00080957456 0.0005151564 -0.0012297854
000390 46 74 2a 3b 83 0c 92 3b 4d 17 51 b8 52 84 18 3b
       0.0026009246 0.004457058 -4.9851184e-05 0.0023272228
0003a0 a8 35 a0 39 be b6 4c 3b eb d3 cd 3a 0e 4d 2c 3a
       0.00030557555 0.0031236853 0.0015703415 0.00065727613
0003b0 ec 6f b0 ba 0f 04 17 3a 24 5b 20 b9 84 37 cd 39
       -0.001346109 0.00057607976 -0.00015292742 0.0003914201
0003c0 4f 02 0f 3b 02 42 ac 3a d0 b6 87 3a 80 07 08 3b
       0.0021821444 0.001314223 0.0010354165 0.0020756423
0003d0 d8 bd e0 ba 4d f5 1e 3b e5 4f 1e ba c2 d8 1e bb
       -0.0017146422 0.0024255097 -0.0006039127 -0.0024238084
0003e0 16 82 48 39 f8 06 3e ba ff 6b 99 ba 35 a2 b8 ba
       0.00019121947 -0.0007248963 -0.0011705159 -0.0014086427
0003f0 06 cb d7 3a fa b7 6a bb e0 41 0a ba 28 d1 bd 38
       0.0016463704 -0.0035815225 -0.00052740984 9.051181e-05
