model2_params.pkl (torch, 265979 bytes, 24 tensors)

conv1.weight f4 [320, 1, 3]
0.3503636 -0.17232929 -0.18945089 0.11821394 0.025596792 0.4930666 0.25386158 0.2630538
-0.4918576 0.51766306 -0.06612603 -0.017066414 0.16222443 0.027668433 -0.2310232 -0.15855154
0.40335575 0.22708333 -0.08239506 0.37669402 0.50286007 -0.4404519 0.28822884 0.4105556
-0.36207825 0.45420998 -0.3654843 0.18152587 0.33931723 -0.5044624 -0.04789148 0.23399548
0.5735237 0.053700563 -0.29589325 -0.14846532 0.4051393 -0.28944984 -0.3011236 0.23325574
-0.2555349 -0.56283593 0.43283406 0.49252978 0.38618174 -0.20662525 0.15418418 0.017534569
0.5427878 -0.061569788 -0.48342684 -0.47307143 0.26661807 -0.35159317 0.52043533 0.076887585
-0.11040355 0.3354881 0.4310129 -0.08068169 0.007899474 -0.05863825 -0.3875782 0.2033245
-0.06790141 0.17844419 -0.008543304 -0.3614811 -0.42160806 -0.35836488 0.20325577 0.18457313
0.452172 -0.107062295 0.3965068 -0.13124634 -0.17674142 -0.52724487 0.012310227 0.01339797
-0.12722051 -0.36194903 -0.10454206 -0.14496428 -0.38610616 0.28739545 -0.4909592 -0.39803693
-0.3421205 0.22502156 -0.26721033 -0.32051662 -0.35474113 0.119010985 -0.570855 0.477435
0.1402012 -0.5502574 0.3585776 -0.36563292 0.1180225 0.25266367 0.14299367 0.35458863
-0.28836557 0.3807832 -0.35011318 -0.17090161 0.14833291 0.19475941 -0.446357 0.4393037
-0.09963361 -0.3391124 0.24848968 -0.5588618 -0.4545804 0.06871983 -0.1941706 -0.4681745
0.028781163 0.5418746 -0.46821183 -0.09193215 -0.12701248 -0.30818558 0.17880109 -0.17355086
-0.3831329 -0.5511824 -0.5378054 -0.33483592 -0.15719034 0.27662587 -0.10862729 0.32958946
-0.12942646 -0.3743044 -0.5266451 -0.22831167 0.26239052 0.5360252 -0.20900634 -0.46267188
0.4398023 0.36755583 0.22337511 0.40463245 0.47502667 -0.14275607 -0.53901184 -0.3873461
-0.44123116 0.41793004 -0.1588036 -0.012235107 0.49846467 -0.30365714 -0.41980535 0.42591152
-0.43367293 0.019851692 0.21276258 -0.51119626 0.382376 -0.58669823 0.54129654 0.2505663
0.42592895 0.38916865 0.14275979 0.046356205 0.39011604 -0.34973285 0.53790957 0.46332917
-0.18762082 0.15617141 0.3505887 -0.45272836 -0.3019348 -0.46674812 -0.27075288 -0.30046028
0.19929655 0.30529588 0.094098054 0.4438045 0.13352434 0.3447632 -0.22329688 -0.12728363
-0.12629025 -0.0021248653 -0.107193105 0.080779836 -0.4428472 -0.061581887 -0.52826476 0.4017255
0.5106494 -0.57960784 -0.33892232 0.13939416 -0.3858515 0.24849482 -0.31822318 -0.6285343
-0.5256665 0.3483343 -0.48668766 -0.1633281 0.32677832 -0.5714996 -0.199048 0.39872858
-0.52723324 0.3511617 -0.33697078 0.50961596 -0.313455 0.041514106 0.1336564 -0.28345636
-0.08191706 0.13153753 -0.2665767 0.014860098 -0.50291276 -0.39649418 0.1962061 -0.28257826
0.124333076 -0.24772812 -0.44016933 -0.08631945 -0.3927097 0.07374675 0.17458488 0.5095005
-0.15932983 -0.01832334 0.5405507 0.5532394 0.1260156 0.21178307 0.54645246 -0.31811246
-0.3391144 0.47158626 0.5021885 -0.58512807 0.15217158 0.003285456 -0.06555603 -0.5242802
00000000: dc62 b33e 1777 30be 6aff 41be 261a f23d
00000010: 5db0 d13c 3a73 fc3e 25fa 813e fdae 863e
00000020: c2d4 fbbe 9185 043f 166d 87bd ddce 8bbc
00000030: 291e 263e e9a8 e23c 5991 6cbe 565b 22be
00000040: a584 ce3e 8888 683e bebe a8bd 0ade c03e
00000050: 70bb 003f e982 e1be bb92 933e 5834 d23e
00000060: 5262 b9be 368e e83e c220 bbbe ebe1 393e
00000070: fdba ad3e 7324 01bf db29 44bd 839c 6f3e
00000080: 73d2 123f 1ff5 5b3d 527f 97be 4b07 18be
00000090: 6b6e cf3e c532 94be df2c 9abe 98da 6e3e
000000a0: 78d5 82be 0416 10bf 6d9c dd3e dd2c fc3e
000000b0: 9db9 c53e 9295 53be 75e2 1d3e a8a4 8f3c
000000c0: 24f4 0a3f 9a30 7cbd b983 f7be 6b36 f2be
000000d0: 2a82 883e 0504 b4be 403b 053f 3d77 9d3d
000000e0: 421b e2bd 19c5 ab3e b9ad dc3e 713c a5bd
000000f0: cc6c 013c a92e 70bd a670 c6be 4c34 503e
00000100: e50f 8bbd 13ba 363e 37f9 0bbc 0d14 b9be
00000110: 03dd d7be 9a7b b7be 4822 503e bd00 3d3e
00000120: 1783 e73e 7a43 dbbd f002 cb3e 7165 06be
00000130: b4fb 34be 85f9 06bf d6b0 493c 2983 5b3c
00000140: 1846 02be 6251 b9be 261a d6bd 8471 14be
00000150: b5af c5be 7f25 933e 015f fbbe 7fcb cbbe
00000160: 6b2a afbe 0d6c 663e cbcf 88be c11a a4be
00000170: a1a0 b5be 08bc f33d 8e23 12bf 5c72 f43e
00000180: e790 0f3e abdd 0cbf 7c97 b73e 3d34 bbbe
00000190: c8b5 f13d 225d 813e ef6c 123e a48c b53e
000001a0: a7a4 93be 04f6 c23e 0942 b3be d500 2fbe
000001b0: 95e4 173e 036f 473e e888 e4be 6aec e03e
000001c0: b50c ccbd 24a0 adbe 1474 7e3e 9111 0fbf
000001d0: c3be e8be fbbc 8c3d a8d4 46be 91b4 efbe
000001e0: 79c6 eb3c 4bb8 0a3f 76b9 efbe ec46 bcbd
000001f0: 8f0f 02be 80ca 9dbe a217 373e 51b7 31be
00000200: ff29 c4be 4a1a 0dbf 9dad 09bf 9d6f abbe
00000210: 81f6 20be e8a1 8d3e fc77 debd f3bf a83e
00000220: 5f88 04be d4a4 bfbe 37d2 06bf 89ca 69be
00000230: 0d58 863e f338 093f c205 56be 54e3 ecbe
00000240: c42d e13e 4730 bc3e 72bc 643e fc2b cf3e
00000250: b236 f33e a62e 12be aefc 09bf 3a52 c6be
00000260: 0de9 e1be edfa d53e 699d 22be c275 48bc
00000270: c336 ff3e f378 9bbe baf0 d6be 1311 da3e
00000280: 610a debe 04a0 a23c 6fde 593e c2dd 02bf
00000290: c9c6 c33e db31 16bf 6992 0a3f 3a4a 803e
000002a0: 5c13 da3e 1d41 c73e 9f2f 123e 01e0 3d3d
000002b0: 4abd c73e 2f10 b3be 71b4 093f 7b39 ed3e
000002c0: ac1f 40be 66eb 1f3e 5d80 b33e 03cc e7be
000002d0: 3397 9abe 9cf9 eebe 1fa0 8abe eed5 99be
000002e0: 6514 4c3e be4f 9c3e 7bb6 c03d 583a e33e
000002f0: 9bba 083e cd84 b03e f0a7 64be a456 02be
00000300: 3b52 01be 5341 0bbb 0f88 dbbd e66f a53d
00000310: debc e2be 4a3d 7cbd 5c3c 07bf f7ae cd3e
00000320: ebb9 023f 2e61 14bf 3a87 adbe 58bd 0e3e
00000330: 548e c5be 6d75 7e3e 26ee a2be a0e7 20bf
00000340: 1492 06bf e058 b23e 202f f9be 7b3f 27be
00000350: 7d4f a73e cc4d 12bf 3dd3 4bbe 2726 cc3e
00000360: c2f8 06bf 77cb b33e 6f87 acbe 3176 023f
00000370: 2c7d a0be b20a 2a3d 39dd 083e 3121 91be
00000380: 22c4 a7bd c6b1 063e be7c 88be c577 733c
00000390: e4be 00bf 4901 cbbe 40ea 483e 19ae 90be
000003a0: 57a2 fe3d 71ac 7dbe e05d e1be 40c8 b0bd
000003b0: 3f11 c9be 8908 973d 61c6 323e a06e 023f
000003c0: 5c27 23be d41a 96bc 8861 0a3f 19a1 0d3f
000003d0: 3c0a 013e a9dd 583e 4fe4 0b3f a3df a2be
000003e0: 67a0 adbe c173 f13e 6d8f 003f f4ca 15bf
000003f0: ded2 1b3e ce50 573b 3d42 86bd 3a37 06bf

conv1.bias f4 [320]
-0.22203775 -0.16850765 0.037935965 0.061943054 0.04528947 -0.40953296 -0.33641732 -0.021057295
-0.44572395 -0.5075721 0.36812097 -0.48051515 -0.213851 -0.48522323 0.013776291 -0.49187824
0.22452545 0.017807087 0.38580814 -0.06419016 -0.27027273 0.2752245 -0.052383326 0.18346387
0.37607548 0.24688366 -0.33560562 0.44062808 -0.062317785 -0.039752085 -0.374021 0.49777353
0.39703965 -0.5041638 0.117047474 -0.3691949 0.44047052 -0.40132502 0.09900447 -0.39116776
0.19791546 0.23151353 -0.3814682 0.20232809 -0.34302455 0.21737729 0.46302378 -0.5928819
-0.021130785 -0.532012 -0.08027451 -0.47387964 -0.2508506 -0.1373758 -0.26031935 0.28331834
-0.41407752 0.4125685 0.013105339 0.52274317 0.35491908 -0.30414334 0.38451192 0.119875506
0.46903077 -0.1211564 -0.38812596 0.41125837 0.26371622 -0.40775532 -0.44340077 0.47305068
-0.019291367 0.06246038 -0.5459776 -0.5423206 -0.36881816 0.16693716 -0.45839766 0.57002014
-0.24337704 -0.51584554 0.19527519 -0.1085566 0.40228614 -0.38486484 -0.11236742 0.19434446
0.40290174 0.55516845 -0.4396652 -0.27146965 0.051659666 -0.28023872 -0.33479849 -0.21539363
-0.32549784 -0.47079232 0.2892467 -0.44614583 -0.10167822 0.50351673 0.2445579 0.49662316
-0.066080816 0.54722923 0.39038804 0.5816608 -0.44970596 -0.3697644 0.41797313 0.2696664
0.30380774 -0.26483646 -0.53427505 0.1942451 -0.56073356 0.34703255 -0.031096313 0.20863971
-0.063381635 -0.22890136 -0.40728796 0.3743916 0.5107887 -0.5585042 0.6056622 -0.029574413
0.13779062 0.108255476 0.561833 -0.43714795 0.027773956 0.5378035 -0.17633156 -0.22853908
0.3913254 0.31225014 0.12048921 0.059838418 -0.3508666 -0.1840838 -0.6015175 0.19755651
0.5307202 0.06072038 0.082801014 0.16682526 0.2609906 -0.17684834 0.3091307 -0.5543371
-0.13280058 0.3873888 -0.1381309 0.41539964 -0.5588607 -0.26588085 -0.44476455 -0.36959344
0.41394815 -0.3556466 -0.11507095 0.42899412 0.3578432 0.06296252 -0.4043944 -0.12195654
-0.11434553 -0.41356805 -0.17514278 0.1517423 0.5079831 -0.0058291 0.5898792 0.3130549
-0.3873508 0.548083 -0.35884124 -0.59357125 -0.13402732 -0.28075173 0.52377254 0.13417058
0.54062337 -0.3403663 0.113422856 0.008694506 -0.1965999 -0.2303782 -0.47680658 -0.18644466
-0.52737683 -0.2699517 -0.26496094 0.040198296 -0.32290336 0.5805824 0.4054354 -0.20135131
0.0095243305 -0.54877937 0.16539165 -0.4028429 -0.1275249 -0.06259078 -0.4319296 -0.29117876
0.09494323 -0.19221415 -0.52127844 -0.4723179 0.4920634 -0.07611558 -0.14773527 -0.047339216
-0.200561 0.08288169 0.4146852 -0.2509091 0.07374004 -0.546029 0.51727957 -0.10815239
-0.58704406 0.41074693 -0.30839902 -0.09312554 0.50214344 0.35197955 0.22780018 -0.5497723
-0.08250667 -0.47558463 -0.27661762 -0.013127756 0.26243356 0.5302676 0.64033836 0.40032628
0.45762303 -0.22667243 0.014505599 0.25973132 0.12005434 -0.08781983 -0.3924185 -0.25699604
0.25043252 0.40958518 -0.3065152 0.14011583 0.19620098 0.36736518 -0.11788996 -0.17950378
00000000: dd5d 63be 458d 2cbe be62 1b3d 00b8 7d3d
00000010: 7481 393d 4eae d1be e43e acbe 5980 acbc
00000020: ee35 e4be 3ff0 01bf 5a7a bc3e 1506 f6be
00000030: c2fb 5abe 2e6f f8be f4b5 613c 77d7 fbbe
00000040: 00ea 653e 2be0 913c a588 c53e 2176 83bd
00000050: 3061 8abe 3aea 8c3e e68f 56bd f4dd 3b3e
00000060: f78c c03e 12cf 7c3e 80d4 abbe 019a e13e
00000070: ef40 7fbd 15d3 22bd ae7f bfbe 2cdc fe3e
00000080: c848 cb3e e110 01bf 96b6 ef3d 1d07 bdbe
00000090: 5a85 e13e 797a cdbe dbc2 ca3d 2447 c8be
000000a0: 5aaa 4a3e e211 6d3e cd4f c3be 182f 4f3e
000000b0: eaa0 afbe 2798 5e3e 7411 ed3e 1cc7 17bf
000000c0: 781a adbc f031 08bf f666 a4bd 5aa0 f2be
000000d0: 7d6f 80be 3eac 0cbe 9448 85be 1a0f 913e
000000e0: f801 d4be 2e3c d33e c7b7 563c 7fd2 053f
000000f0: f4b7 b53e adb8 9bbe bfde c43e 4a81 f53d
00000100: cd24 f03e d920 f8bd 72b8 c6be 7590 d23e
00000110: d005 873e 4ec5 d0be 6d05 e3be b333 f23e
00000120: ee08 9ebc 75d6 7f3d 30c5 0bbf 86d5 0abf
00000130: bcd5 bcbe 93f1 2a3e 19b3 eabe d7ec 113f
00000140: d537 79be 740e 04bf 38f6 473e ec52 debd
00000150: 73f8 cd3e 010d c5be e420 e6bd 3c02 473e
00000160: 2349 ce3e 851f 0e3f cc1b e1be 12fe 8abe
00000170: 1699 533d 737b 8fbe b56a abbe 2690 5cbe
00000180: a7a7 a6be b10b f1be 2518 943e 3a6d e4be
00000190: ac3c d0bd 79e6 003f 636d 7a3e 6445 fe3e
000001a0: 6155 87bd 3717 0c3f f1e0 c73e b9e7 143f
000001b0: dc3f e6be c251 bdbe 9300 d63e b711 8a3e
000001c0: b08c 9b3e a598 87be 40c6 08bf 30e8 463e
000001d0: 3c8c 0fbf 40ae b13e b2bd febc a6a5 553e
000001e0: 3bce 81bd 1e65 6abe 0c88 d0be 41b0 bf3e
000001f0: 0cc3 023f 22fa 0ebf ae0c 1b3f 0a46 f2bc
00000200: fc18 0d3e 0cb5 dd3d 4ad4 0f3f dbd1 dfbe
00000210: 3586 e33c 7dad 093f 4390 34be 2606 6abe
00000220: ce5b c83e 40df 9f3e 0cc3 f63d 2119 753d
00000230: c9a4 b3be 7780 3cbe 0dfd 19bf 414c 4a3e
00000240: 47dd 073f efb5 783d 9493 a93d 3ed4 2a3e
00000250: 8fa0 853e bb17 35be 6146 9e3e 09e9 0dbf
00000260: e0fc 07be d357 c63e 3072 0dbe 43af d43e
00000270: 7f11 0fbf 8921 88be 2eb8 e3be 5a3b bdbe
00000280: 03f1 d33e 5017 b6be 51aa ebbd 1ea5 db3e
00000290: 3937 b73e 7ef2 803d c80c cfbe 5ac4 f9bd
000002a0: fd2d eabd 31bf d3be a158 33be 5562 1b3e
000002b0: 2e0b 023f 0902 bfbb 5302 173f bb48 a03e
000002c0: d852 c6be 2b4f 0c3f 0aba b7be 49f4 17bf
000002d0: 753e 09be b1be 8fbe f515 063f 0364 093e
000002e0: 4b66 0a3f 7e44 aebe 3e4a e83d 6773 0e3c
000002f0: 7c51 49be 43e8 6bbe fe1f f4be 59eb 3ebe
00000300: 2b02 07bf 1c37 8abe f6a8 87be f8a6 243d
00000310: 9753 a5be 0ca1 143f 3b95 cf3e 0a2f 4ebe
00000320: f00b 1c3c ce7c 0cbf 6e5c 293e 6d41 cebe
00000330: e395 02be 982f 80bd e025 ddbe 6215 95be
00000340: 9971 c23d c9d3 44be 8172 05bf a7d3 f1be
00000350: bcef fb3e 7ce2 9bbd ea47 17be c4e6 41bd
00000360: dd5f 4dbe e0bd a93d 9e51 d43e 2877 80be
00000370: 0505 973d 8ec8 0bbf 6f6c 043f 007f ddbd
00000380: 8548 16bf 6c4d d23e 7ae6 9dbe 9ab8 bebd
00000390: 798c 003f aa36 b43e 7344 693e e1bd 0cbf
000003a0: 42f9 a8bd d47f f3be d3a0 8dbe cd15 57bc
000003b0: b15d 863e 9ebf 073f 37ed 233f 91f7 cc3e
000003c0: 914d ea3e d11c 68be e4a8 6d3c 81fb 843e
000003d0: 0ddf f53d e2da b3bd 14eb c8be fc94 83be
000003e0: b138 803e 26b5 d13e 8fef 9cbe 867a 0f3e
000003f0: e9e8 483e 4a17 bc3e 4b70 f1bd d7cf 37be

conv2.weight f4 [16, 320, 1]
-0.049264602 -0.017935496 0.015631244 0.029066155 0.011491837 -0.04457507 -0.010597421 0.042541258
0.0068059345 -0.000513182 -0.052086405 -0.0025127986 0.01679021 -0.029202042 -0.02155058 0.030082248
-0.027838783 0.039815113 0.008697482 -0.04721284 -0.043639313 0.03697365 -0.034865852 -0.006602105
-0.009613981 0.027058803 -0.012124923 0.010285491 0.037130672 0.0060271253 -0.024054976 -0.04499926
-0.048316903 0.03325162 0.007606588 0.034304034 -0.04108783 0.024720278 -0.060084563 0.0070586773
0.024773544 -0.04655519 0.050550032 -0.016041607 -0.055221453 0.014468583 -0.061392877 -0.03093603
-0.00018463144 -0.021907078 0.0019045145 0.039628524 0.05208935 -0.048946995 0.045562647 -0.04665247
0.008362864 -0.0038443347 -0.025462745 0.016429724 -0.0005028549 -0.023786772 0.025364975 0.03441242
0.012569735 0.04448921 0.03223256 -0.052484427 0.014812482 -0.05450367 0.008401623 -0.05281734
0.020075167 0.026583489 -0.016221048 -0.0033424564 -0.03361529 -0.050046787 -0.018453794 0.045005795
-0.010302489 0.016969169 0.023703808 -0.0079657305 0.0035780626 0.057320744 -0.0038925363 -0.051978245
-0.042975225 0.049242727 0.0417271 -0.050139174 -0.04823125 0.0022999432 0.012852616 -0.0072554653
-0.027886905 -0.0036432552 0.03196994 -0.047680087 -0.048715904 -0.05624893 0.020113645 -0.034217734
0.018496562 0.005245187 -0.027876085 0.023193628 -0.006249729 0.016202271 -0.06565977 -0.057495184
0.06008244 -0.015307495 0.028748697 0.008866027 -0.04814669 0.0209273 -8.794051e-05 0.004786903
-0.018725082 0.025037533 -0.0034675426 0.0407892 0.03989466 0.027008347 0.052444156 -0.008336883
-0.02188659 -0.056749348 -0.020952467 -0.042678747 0.049694847 0.043405186 -0.06783535 -0.016668865
-0.04220013 -0.03725109 -0.032559987 -0.014276932 0.028812863 0.017749803 -0.034193654 -0.021682592
0.041302886 0.0074839517 0.017413488 -0.048366122 0.00928652 -0.041184276 0.024771474 0.006830195
-0.04357057 -0.05830346 -0.010063765 -0.068351716 -0.032150276 -0.008514879 -0.01307102 -0.03728948
-0.0057652122 0.037101757 -0.043449804 -0.03461954 0.04210801 0.030651478 0.025579942 0.016597148
0.012491271 -0.036796615 -0.035364706 -0.006231608 -0.0014725294 -0.0064263837 0.0036515857 -0.02633841
-0.020557432 0.02179162 -0.061444335 -0.007224506 -0.00921673 0.03114185 0.0012379949 0.04456723
-0.043439865 0.041864697 0.028188555 -0.05368243 -0.012732542 -0.014434492 -0.05424337 -0.039299402
-0.048280586 0.04213644 0.030842291 0.028189559 0.040745217 -0.05107124 -0.047680814 -0.01091399
0.016480893 -0.04940581 -0.0022143773 0.012684714 0.017412817 -0.034400858 -4.316834e-05 0.046850007
0.029305533 -0.0597068 -0.05794833 -0.007851372 0.049149122 -0.0059427405 -0.056849908 0.052069925
-0.017411206 0.031442452 0.025728026 -0.050503664 0.0030155203 0.003946156 0.038115885 -0.037479483
-0.06907319 -0.0053401836 -0.035953768 0.031784713 -0.026138525 0.040089533 -0.0496243 -0.014758502
-0.041292682 -0.026121601 0.04790297 -0.010702579 -0.016579388 -0.033312712 -0.011678706 0.008649395
-0.032921154 -0.039372586 -0.015130317 -0.031260256 0.046992525 -0.015954481 0.02848317 -0.021646686
-0.039443888 -0.011999154 -0.028418213 -0.010319093 -0.029989595 -0.007516064 0.045994837 -0.05221012
00000000: aec9 49bd 76ed 92bc 180d 803c 251c ee3c
00000010: 4248 3c3c 5994 36bd cea0 2dbc be3f 2e3d
00000020: 5104 df3b 1087 06ba 8e58 55bd c4ad 24bb
00000030: 9f8b 893c 1f39 efbc d88a b0bc 0c6f f63c
00000040: 290e e4bc 2c15 233d e27f 0e3c 4062 41bd
00000050: 23bf 32bd af71 173d 7fcf 0ebd 7956 d8bb
00000060: f583 1dbc 6caa dd3c 9da7 46bc 7a84 283c
00000070: 5516 183d 317f c53b f10e c5bc 2551 38bd
00000080: f2e7 45bd da32 083d af40 f93b 6382 0c3d
00000090: b64b 28bd 2e82 ca3c 3b1b 76bd 7a4c e73b
000000a0: e3f1 ca3c a8b0 3ebd 8d0d 4f3d b069 83bc
000000b0: e42f 62bd a30d 6d3c 1977 7bbd 8f6d fdbc
000000c0: a099 41b9 7976 b3bc e7a0 f93a 8551 223d
000000d0: a45b 553d a57c 48bd e69f 3a3d a916 3fbd
000000e0: 6504 093c 3cf1 7bbb 3f97 d0bc a197 863c
000000f0: 05d2 03ba 7adc c2bc 35ca cf3c 0af4 0c3d
00000100: 4af1 4d3c 513a 363d 4a06 043d e9f9 56bd
00000110: 0db0 723c 3e3f 5fbd f6a6 093c ff56 58bd
00000120: ad74 a43c 9ec5 d93c 01e2 84bc 1d0d 5bbb
00000130: 30b0 09bd dcfd 4cbd 692c 97bc ff57 383d
00000140: c5cb 28bc ed02 8b3c 7d2e c23c b282 02bc
00000150: ee7d 6a3b 28c9 6a3d ec19 7fbb 24e7 54bd
00000160: ca06 30bd beb2 493d 09ea 2a3d bc5e 4dbd
00000170: 228e 45bd a5ba 163b c793 523c 41bf edbb
00000180: 1473 e4bc aec3 6ebb e9f2 023d 324c 43bd
00000190: 548a 47bd 4765 66bd 5fc5 a43c e527 0cbd
000001a0: 1a86 973c d1df ab3b 635c e4bc 9000 be3c
000001b0: 87ca ccbb a0ba 843c a178 86bd 1280 6bbd
000001c0: 0119 763d 4acc 7abc 6382 eb3c d042 113c
000001d0: 7735 45bd bb6f ab3c b46c b8b8 74db 9c3b
000001e0: 5865 99bc 831b cd3c b63f 63bb 9412 273d
000001f0: 9568 233d 9c40 dd3c afcf 563d 6c97 08bc
00000200: 824b b3bc 0172 68bd 82a4 abbc e9cf 2ebd
00000210: d38c 4b3d a3c9 313d 43ed 8abd 258d 88bc
00000220: 0bda 2cbd 9994 18bd 9f5d 05bd cbe9 69bc
00000230: f408 ec3c 0968 913c a50e 0cbd b19f b1bc
00000240: 372d 293d f03b f53b bba6 8e3c 8e1b 46bd
00000250: 7d26 183c d8b0 28bd 8ced ca3c d4cf df3b
00000260: 0e77 32bd 9ccf 6ebd 7de2 24bc fcfb 8bbd
00000270: 02b0 03bd fe81 0bbc d527 56bc dbbc 18bd
00000280: 1bea bcbb 03f8 173d 6cf8 31bd 38cd 0dbd
00000290: 7379 2c3d cf18 fb3c 078d d13c bef6 873c
000002a0: 30a8 4c3c 0cb8 16bd 95da 10bd 8432 ccbb
000002b0: e301 c1ba 6a94 d2bb 714f 6f3b a6c3 d7bc
000002c0: 0f68 a8bc 5784 b23c 0ead 7bbd 8cbb ecbb
000002d0: c401 17bc 311d ff3c 3744 a23a 218c 363d
000002e0: 00ee 31bd 517a 2b3d afeb e63c 1ce2 5bbd
000002f0: 279c 50bc a67e 6cbc 4c2e 5ebd 69f8 20bd
00000300: ddc1 45bd 4297 2c3d f9a8 fc3c caed e63c
00000310: 75e4 263d 1430 51bd f54c 43bd 98d0 32bc
00000320: f002 873c bf5d 4abd 161f 11bb 8cd3 4f3c
00000330: 53a5 8e3c eae7 0cbd a70f 35b8 cbe5 3f3d
00000340: 2812 f03c 1e8f 74bd 3a5b 6dbd 0aa3 00bc
00000350: 9750 493d 52bb c2bb 73db 68bd 4647 553d
00000360: f2a1 8ebc cdc9 003d 95c3 d23c eedc 4ebd
00000370: 09a0 453b c14e 813b 671f 1c3d 1684 19bd
00000380: 3f76 8dbd b5fc aebb 4244 13bd b030 023d
00000390: 7620 d6bc ec34 243d da42 4bbd a5cd 71bc
000003a0: 8422 29bd f8fc d5bc e835 443d df59 2fbc
000003b0: 7fd1 87bc e972 08bd 0b58 3fbc 31b6 0d3c
000003c0: 55d8 06bd 2645 21bd 26e5 77bc c10a 00bd
000003d0: 3c7b 403d f9b2 82bc 8955 e93c 6454 b1bc
000003e0: ea8f 21bd 1a98 44bc 50cd e8bc 6a11 29bc
000003f0: bdac f5bc 5149 f6bb 1565 3c3d 47da 55bd

conv2.bias f4 [16]
-0.04363477 0.04139578 -0.050908003 -0.028910954 -0.01685079 0.0019520357 -0.007652808 0.026109653
0.022530561 -0.0051005594 0.02687415 0.016041204 -0.028945247 -0.008536768 -0.048931517 0.013866274
00000000: 5fba 32bd 9f8e 293d e984 50bd aad6 ecbc
00000010: ab0a 8abc 73db ff3a 68c4 fabb e9e3 d53c
00000020: 0392 b83c 9822 a7bb 2d27 dc3c d868 833c
00000030: 951e edbc cddd 0bbc 6a6c 48bd 5e2f 633c

conv3.weight f4 [64, 16, 1]
-0.121151306 -0.20647337 0.24697022 0.20714606 -0.033725224 0.14244546 0.17304328 -0.053948842
-0.03323734 0.14559838 0.07782338 0.1136003 0.20885466 -0.1900846 -0.13757664 -0.01939755
-0.013829566 0.16595241 -0.02200883 0.19498618 0.2041427 -0.22586207 -0.0674771 -0.21356417
0.07959298 -0.071364276 -0.2271561 0.096228026 0.06704902 0.03372974 -0.037914854 0.1720316
-0.05720325 -0.17904542 0.058417995 -0.03212605 -0.117151536 -0.17802912 -0.065900795 -0.016055753
-0.17031756 0.25001097 0.06026493 0.008687104 0.06351877 -0.14267202 -0.24102715 0.024123767
0.2188608 0.16863394 -0.14465612 -0.10433162 0.11346624 -0.19416898 0.1486943 -0.06798403
0.055318605 -0.17149758 0.11887721 0.19707751 -0.07999936 -0.17228049 0.022062374 -0.059789278
-0.18129338 0.13430172 0.12135017 -0.124837816 0.09772892 -0.087568715 -0.012182363 0.120918415
0.21048237 0.23632339 0.24701676 -0.053917393 0.2493136 -0.17309725 -0.16626188 0.112230614
-0.18898429 0.057995126 0.22561309 0.05190198 -0.058473807 -0.13826238 -0.056580845 -0.19254301
-0.04103873 -0.23062536 0.232093 0.042689066 0.06065658 -0.12406772 0.26049542 0.13846377
-0.24614038 -0.22429115 0.09205574 -0.06621168 -0.009845866 -0.16433768 0.19551392 0.2416336
0.18296172 -0.0352432 -0.060307026 0.09817911 0.22401835 0.081397586 0.16029762 0.22452402
-0.14699088 0.24694356 -0.23179792 -0.14171071 -0.22719109 -0.18030603 0.123145714 -0.22337428
-0.16289371 -0.055119663 0.10700844 -0.063874125 -0.20540978 -0.07699995 0.04832378 -0.2514665
0.19002925 0.06673246 0.07293725 0.21072462 0.16468172 -0.20874144 -0.10485398 0.016330203
0.10006056 0.18538117 -0.07406239 -0.25155887 -0.122062154 -0.08467238 -0.0546717 -0.15387037
-0.11654357 -0.117739215 -0.19394581 -0.07374898 0.13742512 0.0125494385 0.03066168 -0.0058523114
0.09075012 -0.011702602 0.060725722 -0.22791421 0.057514064 0.09800568 0.023735667 -0.113479376
-0.19373104 0.19097833 0.031829137 -0.1282772 0.15465775 0.2538093 -0.01268444 0.14036265
-0.020116515 -0.20602964 -0.1451555 0.23015662 -0.118822545 0.2550693 0.23444143 0.17118569
0.0006559296 0.21275698 0.075134896 -0.088327564 -0.13328172 -0.09495559 -0.16393282 0.2463664
-0.10222594 -0.1303254 -0.033464547 0.06501428 -0.027949562 0.12788808 0.14636393 0.19633509
0.15701455 -0.115867876 -0.07060106 -0.0065046586 -0.12832078 0.22796626 0.104716234 0.08189345
0.025552982 -0.21650061 0.2235261 -0.16367255 -0.19318631 0.009512097 -0.20619282 -0.08723776
-0.12409344 0.13255858 0.18291754 0.07755297 -0.23110141 -0.12023285 0.12358966 -0.23154823
0.011242753 0.16096658 -0.2156398 -0.13983117 -0.0907835 0.022719003 -0.120899074 0.10616064
-0.20745957 -0.2568238 -0.030675912 0.00385189 -0.22302625 -0.057215594 -0.06975195 -0.17557539
-0.23650081 0.060713895 0.22933647 0.08727904 0.22002898 0.22066252 0.00013285934 -0.23237635
-0.18160723 -0.011669155 0.23036994 0.16358651 -0.054532405 -0.14706708 -0.22212912 0.11102212
-0.21738842 -0.114559576 0.111524 0.13155903 0.2215115 0.059810605 0.028652642 0.12778626
00000000: 2d1e f8bd c16d 53be c3e5 7c3e 191e 543e
00000010: 7623 0abd 39dd 113e 4232 313e 76f9 5cbd
00000020: e123 08bd be17 153e dd61 9f3d 46a7 e83d
00000030: ffdd 553e 8aa5 42be e4e0 0cbe 9ce7 9ebc
00000040: 6795 62bc 6eef 293e dd4b b4bc 75aa 473e
00000050: c90a 513e 6348 67be 6f31 8abd 91b0 5abe
00000060: a501 a33d 6f27 92bd 9c9b 68be 3313 c53d
00000070: ff50 893d 3228 0a3d 9b4c 1bbd 0d29 303e
00000080: f44d 6abd af57 37be b547 6f3d 9b96 03bd
00000090: 25ed efbd 444d 36be fff6 86bd 5b87 83bc
000000a0: ba67 2ebe 7001 803e 5cd8 763d 5b54 0e3c
000000b0: 2116 823d 9d18 12be d2cf 76be 359f c53c
000000c0: 0c1d 603e 60ae 2c3e bc20 14be d1ab d5bd
000000d0: fd60 e83d 3cd4 46be 5243 183e 363b 8bbd
000000e0: c395 623d 109d 2fbe e575 f33d b0ce 493e
000000f0: b4d6 a3bd 4c6a 30be 27bc b43c 9ae5 74bd
00000100: f9a4 39be 6486 093e 7086 f83d f8aa ffbd
00000110: 1a26 c83d 3a57 b3bd 8998 47bc 13a4 f73d
00000120: b188 573e c2fe 713e f6f1 7c3e 7cd8 5cbd
00000130: 104c 7f3e 6840 31be 8e40 2abe 2ad9 e53d
00000140: 1985 41be 4c8c 6d3d 1e07 673e 2c97 543d
00000150: 3b82 6fbd a794 0dbe 51c1 67bd ff29 45be
00000160: 3a18 28bd 0e29 6cbe caa9 6d3e bbda 2e3d
00000170: 0973 783d 3717 febd a85f 853e 72c9 0d3e
00000180: 390c 7cbe 94ac 65be b887 bc3d fd99 87bd
00000190: 8e50 21bc 2348 28be cd34 483e cc6e 773e
000001a0: 515a 3b3e 2c5b 10bd 8004 77bd 2112 c93d
000001b0: 1165 653e c7b3 a63d 0f25 243e a0e9 653e
000001c0: c784 16be c6de 7c3e 6f5c 6dbe 9d1c 11be
000001d0: c8a4 68be 25a2 38be d233 fc3d 3abc 64be
000001e0: 9ccd 26be 28c5 61bd 3e27 db3d 70d0 82bd
000001f0: f156 52be 26b2 9dbd 28ef 453d 38c0 80be
00000200: 0797 423e 07ab 883d 2060 953d 32c8 573e
00000210: 53a2 283e 51c0 55be afbd d6bd ebc6 853c
00000220: 8dec cc3d 90d4 3d3e 06ae 97bd 53cc 80be
00000230: b9fb f9bd b668 adbd 6fef 5fbd 3290 1dbe
00000240: 65ae eebd 4221 f1bd bb99 46be b509 97bd
00000250: 2cb9 0c3e 299c 4d3c 342e fb3c bfc4 bfbb
00000260: 33db b93d 45bc 3fbc 89bb 783d 5862 69be
00000270: de93 6b3d 34b7 c83d 4d71 c23c e067 e8bd
00000280: 6e61 46be d38f 433e 455f 023d 195b 03be
00000290: 9a5e 1e3e 4bf3 813e 66d2 4fbc 3abb 0f3e
000002a0: 64cb a4bc 6ff9 52be a5a3 14be 2dae 6b3e
000002b0: 3c59 f3bd 7198 823e 6a11 703e 4d4b 2f3e
000002c0: b1f2 2b3a f7dc 593e 53e0 993d 15e5 b4bd
000002d0: 017b 08be 1478 c2bd 01de 27be 7947 7c3e
000002e0: d55b d1bd 0674 05be 1f12 09bd 3526 853d
000002f0: 7bf6 e4bc 18f5 023e 6de0 153e 110c 493e
00000300: 6cc8 203e 234c edbd 4a97 90bd 0825 d5bb
00000310: 8666 03be fd6f 693e 7775 d63d c1b7 a73d
00000320: 7d54 d13c 56b2 5dbe 07e4 643e c799 27be
00000330: a2d2 45be a0d8 1b3c 3624 53be b6a9 b2bd
00000340: b424 febd 70bd 073e bc4e 3b3e 17d4 9e3d
00000350: d9a5 6cbe a43c f6bd 931c fd3d fb1a 6dbe
00000360: 8633 383c 6cd4 243e aed0 5cbe e72f 0fbe
00000370: b3ec b9bd 341d ba3c ef99 f7bd c06a d93d
00000380: 4870 54be 697e 83be 0d4c fbbc fe6f 7c3b
00000390: fe60 64be e65a 6abd 1cda 8ebd 09ca 33be
000003a0: 452d 72be 22af 783d 2ed7 6a3e 5abf b23d
000003b0: 474f 613e 5bf5 613e 2850 0b39 11f4 6dbe
000003c0: 3ff7 39be fc2f 3fbc 19e6 6b3e 3983 273e
000003d0: 5f5d 5fbd c198 16be d175 63be 915f e33d
000003e0: 129b 5ebe 369e eabd b266 e43d 69b7 063e
000003f0: e9d3 623e f7fb 743d f2b8 ea3c 67da 023e

conv3.bias f4 [64]
0.10338002 0.15578322 0.10750231 -0.035706155 0.14402486 -0.08112608 -0.075781345 -0.08698037
-0.095564164 -0.21924585 -0.07254259 -0.1762106 -0.21586265 0.17609616 -0.0062113795 -0.18348749
0.035587717 -0.044947457 0.08752706 0.14754653 -0.08308897 -0.13984503 -0.20167562 -0.22848327
-0.058393914 0.07093507 -0.12249883 0.074364215 0.23591271 -0.1421326 0.03726208 0.14020501
-0.25880274 -0.061757922 -0.027862718 0.047768515 0.20010057 -0.21321724 -0.17762665 -0.09264298
-0.063848145 -0.22928853 0.055721097 -0.07405954 0.17617737 -0.12355033 0.20672192 0.06661187
-0.22161525 0.06894903 0.20536122 0.16102603 0.0536365 -0.06032401 0.120976485 0.21918394
-0.23893441 -0.037274946 -0.0041959146 -0.17758769 -0.022967177 0.11708438 -0.014164838 -0.22690797
00000000: e7b8 d33d a385 1f3e 2c2a dc3d 9e40 12bd
00000010: 417b 133e 6e25 a6bd 4033 9bbd c422 b2bd
00000020: 25b7 c3bd fc81 60be 3691 94bd 8d70 34be
00000030: 190b 5dbe 8d52 343e d488 cbbb 25e4 3bbe
00000040: 6dc4 113d d31a 38bd 6341 b33d 7016 173e
00000050: 8d2a aabd 8933 0fbe 0e84 4ebe 85f7 69be
00000060: 752e 6fbd 6846 913d abe0 fabd 444c 983d
00000070: 1a93 713e 358b 11be 1fa0 183d e791 0f3e
00000080: cb81 84be e0f5 7cbd 5b40 e4bc eba8 433d
00000090: 2ae7 4c3e 9f55 5abe c3e3 35be 9abb bdbd
000000a0: d1c2 82bd 9dca 6abe ce3b 643d 87ac 97bd
000000b0: d767 343e f507 fdbd e9ae 533e ce6b 883d
000000c0: 1cef 62be 2635 8d3d 364a 523e 02e4 243e
000000d0: f2b1 5b3d 4f16 77bd 85c2 f73d c171 603e
000000e0: 39ab 74be 9dad 18bd e27d 89bb 8cd9 35be
000000f0: a925 bcbc efc9 ef3d a313 68bc 905a 68be

conv4.weight f4 [1, 64, 1]
0.098807365 -0.06773564 0.08007707 -0.05571572 -0.051754132 -0.053939085 -0.07163082 -0.10357576
0.109429605 0.07772113 0.058912955 -0.07446638 0.10498392 -0.107992895 -0.008644066 -0.06458071
0.019803835 -0.05226168 0.045514066 0.04184283 0.042994186 -0.11219054 -0.038056426 0.11405922
0.04106742 -0.045867294 -0.09908856 -0.098431006 0.10237591 0.0826365 -0.015983732 0.06922295
0.121491425 0.025712302 0.060050566 0.1005409 0.07213948 0.071623236 -0.113767296 0.0724201
0.10377464 -0.020250559 -0.0072193057 -0.019306514 0.044166237 -0.03873657 -0.06144506 -0.11577593
-0.04032532 -0.05697747 -0.06245159 0.01466191 -0.012425 0.12020701 0.025294332 -0.007823462
-0.119553015 -0.120232716 -0.006237744 0.115300626 0.115804076 0.14884502 -0.123998456 -0.021282563
00000000: 845b ca3d fcb8 8abd 72ff a33d 2b36 64bd
00000010: 24fc 53bd 3bef 5cbd 2eb3 92bd 871f d4bd
00000020: a11c e03d 412c 9f3d b64e 713d d481 98bd
00000030: cf01 d73d 612b ddbd d79f 0dbc e442 84bd
00000040: a73b a23c 5810 56bd f56c 3a3d 6363 2b3d
00000050: ac1a 303d 27c4 e5bd 0ee1 1bbd e197 e93d
00000060: 5036 283d 58df 3bbd f1ee cabd 3296 c9bd
00000070: 76aa d13d 533d a93d 51f0 82bc c3c4 8d3d
00000080: 7fd0 f83d 9ba2 d23c 95f7 753d 63e8 cd3d
00000090: ddbd 933d 34af 923d d4fe e8bd fd50 943d
000000a0: cc87 d43d 80e4 a5bc ed8f ecbb b228 9ebc
000000b0: a8e7 343d 3daa 1ebd d1ad 7bbd ee1b edbd
000000c0: 2a2c 25bd 3561 69bd 3dcd 7fbd 8238 703c
000000d0: 3a92 4bbc 182f f63d 0f36 cf3c fa2d 00bc
000000e0: 36d8 f4bd 923c f6bd fd65 ccbb bc22 ec3d
000000f0: b02a ed3d d46a 183e e7f2 fdbd c558 aebc

norm1.weight f4 [320, 64]
1.0020139 0.9981434 0.9989976 1.0016322 0.9937606 1.0034219 1.0027555 1.0031567
1.0005485 1.0061074 0.99810123 1.0003395 1.0026178 1.0021652 1.0029439 0.99930865
0.99840736 1.0033311 0.9975922 1.0027024 0.99419916 0.99998176 1.0014682 1.002174
1.0010953 0.9998944 1.0016358 1.003232 1.0230651 1.0262003 0.9985396 1.014223
0.9964027 1.0030093 0.99870306 1.0178516 0.99665856 0.98736143 0.99732244 1.0004405
0.99964 0.99551874 1.0029193 1.0003136 0.99927807 0.9965546 0.9982131 1.0011644
0.99588263 1.0010073 1.0041028 0.9977701 1.0033425 1.0003674 0.99893826 0.9974077
1.0025655 1.000669 1.004902 1.0024112 0.9990478 1.002443 0.9940284 1.0000118
1.0016505 0.9989292 1.0009952 1.0022669 0.9931661 1.003855 1.0051194 1.0022765
1.0017635 1.0026289 0.99676144 1.0043914 1.0040873 1.0007298 1.001509 0.9994094
0.9996041 0.9989684 0.99788594 1.0033634 0.9970528 0.9983017 1.0026689 1.001026
1.0020789 1.0000302 0.9967013 1.0317123 1.0057646 1.0299078 0.99823374 0.98730254
0.98751026 0.9919212 1.0193703 1.005486 0.9960231 0.99917626 0.9953099 0.9971504
0.9970506 0.9950271 1.0011057 0.99964994 1.0004156 1.0001001 0.9952034 1.0010264
0.9937002 0.99946886 1.0017831 0.9960813 1.000836 1.0010457 0.9987077 0.99764085
1.0032341 1.00207 1.0020162 1.0034655 0.9982248 1.0047135 0.9925328 0.9991506
0.99079365 0.99720407 0.99313474 0.98982596 1.0013399 1.0013573 0.99659044 0.9965348
0.9991086 1.0018815 1.0054796 1.0008631 0.99270755 0.9948273 0.986531 0.99280953
1.003095 0.9835163 1.0019228 0.991405 0.99686295 0.99597 0.99501574 1.00141
0.9998855 0.9941473 0.9889062 1.0206819 0.99759746 1.0218276 1.0109802 0.9708303
0.9850379 1.0678178 1.0025398 1.0127424 1.0058777 0.9965224 1.0035619 0.9961263
1.0030837 1.0025008 1.001163 1.0068139 1.0084507 0.997276 1.0062716 1.0038
0.99238366 1.0055053 1.0039487 1.0052004 0.99904525 0.9974668 0.9940751 1.0063579
0.9900342 0.99876934 0.9978561 0.9910521 1.007997 0.98963225 0.9978562 0.99819946
0.9993175 0.9969988 0.9998987 1.0006044 0.99338275 1.0034657 1.0028667 0.99978614
1.0030352 1.0015243 0.99912417 1.0062569 1.0019628 1.0008942 0.999646 0.9996424
1.0003359 0.9983483 0.9989428 1.0028368 0.99751925 0.99679285 1.002991 1.0000705
0.99918413 0.9990916 0.99970376 0.9990137 1.0214458 1.0655004 0.9870347 1.0013508
0.99109244 0.990134 1.002327 0.9997119 0.99404967 0.9665067 0.99356925 0.99732894
0.9993593 0.9949491 1.0009066 1.0028884 1.003136 1.0001274 0.99648863 1.0002215
0.995732 1.0011051 1.002703 0.99466175 0.99955165 0.9988095 0.99905795 1.0000774
1.0032161 1.0028855 1.0026933 1.0021594 1.0014945 1.0043958 0.9913787 0.9996582
00000000: fe41 803f 5386 7f3f 4fbe 7f3f 7c35 803f
00000010: 1867 7e3f 2170 803f 4b5a 803f 7067 803f
00000020: f911 803f 21c8 803f 9083 7f3f 200b 803f
00000030: c855 803f f346 803f 7760 803f b1d2 7f3f
00000040: a097 7f3f 276d 803f 3462 7f3f 8d58 803f
00000050: d683 7e3f cefe 7f3f 1c30 803f 3d47 803f
00000060: e423 803f 14f9 7f3f 9a35 803f e869 803f
00000070: ccf3 823f 885a 833f 4ba0 7f3f 0fd2 813f
00000080: 3f14 7f3f 9c62 803f 01ab 7f3f f648 823f
00000090: 0425 7f3f b8c3 7c3f 8650 7f3f 6f0e 803f
000000a0: 68e8 7f3f 51da 7e3f a95f 803f 470a 803f
000000b0: b0d0 7f3f 341e 7f3f e58a 7f3f 2826 803f
000000c0: 2af2 7e3f 0221 803f 7186 803f dc6d 7f3f
000000d0: 876d 803f 0a0c 803f 6bba 7f3f 1c56 7f3f
000000e0: 1154 803f ec15 803f a1a0 803f 034f 803f
000000f0: 99c1 7f3f 0d50 803f a578 7e3f 6300 803f
00000100: 1536 803f d3b9 7f3f 9c20 803f 484a 803f
00000110: 2240 7e3f 527e 803f c1a7 803f 994a 803f
00000120: c939 803f 2556 803f c22b 7f3f e68f 803f
00000130: ef85 803f ea17 803f 7231 803f 4bd9 7f3f
00000140: 0ee6 7f3f 65bc 7f3f 7475 7f3f 366e 803f
00000150: da3e 7f3f b390 7f3f 7457 803f 9f21 803f
00000160: 1f44 803f fd00 803f d127 7f3f 260f 843f
00000170: e5bc 803f 05d4 833f 3f8c 7f3f dcbf 7c3f
00000180: 79cd 7c3f 8cee 7d3f ba7a 823f c4b3 803f
00000190: 5ffb 7e3f 04ca 7f3f a1cc 7e3f 4045 7f3f
000001a0: b53e 7f3f 19ba 7e3f 3b24 803f 0fe9 7f3f
000001b0: 9e0d 803f 4803 803f a6c5 7e3f a221 803f
000001c0: 2363 7e3f 31dd 7f3f 6e3a 803f 2fff 7e3f
000001d0: 651b 803f 4422 803f 4fab 7f3f 6465 7f3f
000001e0: fa69 803f d443 803f 1142 803f 8f71 803f
000001f0: a98b 7f3f 749a 803f a116 7e3f 55c8 7f3f
00000200: a7a4 7d3f c448 7f3f 143e 7e3f 3c65 7d3f
00000210: e82b 803f 7a2c 803f 8d20 7f3f e81c 7f3f
00000220: 95c5 7f3f a73d 803f 8eb3 803f 481c 803f
00000230: 1522 7e3f 00ad 7e3f 4c8d 7c3f c428 7e3f
00000240: 6b65 803f b9c7 7b3f 023f 803f b8cc 7d3f
00000250: 6932 7f3f e4f7 7e3f 5ab9 7e3f 342e 803f
00000260: 7ff8 7f3f 7080 7e3f f528 7d3f b4a5 823f
00000270: 8c62 7f3f 3fcb 823f cd67 813f 5688 783f
00000280: 722b 7c3f 41ae 883f 3953 803f 8ba1 813f
00000290: 9ac0 803f 181c 7f3f b774 803f 2202 7f3f
000002a0: 0c65 803f f251 803f 1c26 803f 47df 803f
000002b0: ea14 813f 7b4d 7f3f 82cd 803f 857c 803f
000002c0: db0c 7e3f 66b4 803f 6481 803f 68aa 803f
000002d0: 6ec1 7f3f fc59 7f3f b57b 7e3f 56d0 803f
000002e0: e272 7d3f 59af 7f3f 7f73 7f3f 97b5 7d3f
000002f0: 0c06 813f 8a58 7d3f 8173 7f3f 008a 7f3f
00000300: 46d3 7f3f 503b 7f3f 5cf9 7f3f ce13 803f
00000310: 554e 7e3f 9071 803f f05d 803f fcf1 7f3f
00000320: 7563 803f f331 803f 9ac6 7f3f 07cd 803f
00000330: 5140 803f 4d1d 803f cde8 7f3f 90e8 7f3f
00000340: 020b 803f c193 7f3f b7ba 7f3f f55c 803f
00000350: 6c5d 7f3f d12d 7f3f 0262 803f 4f02 803f
00000360: 88ca 7f3f 78c4 7f3f 96ec 7f3f 5dbf 7f3f
00000370: bcbe 823f 5162 883f 4eae 7c3f 432c 803f
00000380: 3cb8 7d3f 6c79 7d3f 404c 803f 1eed 7f3f
00000390: 0a7a 7e3f fc6c 773f 8e5a 7e3f f350 7f3f
000003a0: 03d6 7f3f fcb4 7e3f b51d 803f a65e 803f
000003b0: c366 803f 2d04 803f e119 7f3f 4207 803f
000003c0: 4be8 7e3f 3624 803f 9258 803f 27a2 7e3f
000003d0: 9ee2 7f3f fbb1 7f3f 43c2 7f3f 8902 803f
000003e0: 6369 803f 8d5e 803f 4158 803f c246 803f
000003f0: f930 803f 0b90 803f ffca 7d3f 9ae9 7f3f

norm1.bias f4 [320, 64]
-0.00038069434 0.0036802618 5.922664e-05 6.3681575e-05 0.006598342 -0.0038089086 -0.0011253948 -0.0018742932
-0.0015718784 -0.004741082 0.0013007197 0.00049497024 -0.0008034104 -0.0029382843 -0.0020066223 0.00022400235
0.0020464582 -0.0037901902 0.0008602866 -0.0027436777 0.0052756285 0.0013195776 -0.001499972 -0.0002136742
-0.00017720887 -2.179676e-05 -0.0015669574 -0.0035149131 -0.010153326 -0.0072788373 -0.0022969341 -0.0134713985
0.0039216215 -0.0016579038 0.0008837736 0.018588992 0.0002522797 -0.0038050828 0.0028031794 -0.0012024686
-0.0012486367 0.0034013514 -0.0037064373 -0.00039175936 0.00066958973 0.002357354 0.0016177733 0.00014729377
0.0036819293 -0.0005467884 -0.0043795416 0.0031545465 -0.0020230815 0.0011230551 2.2664717e-05 0.0011379851
-0.00066346355 -0.0012877263 -0.0061421217 -0.00064261776 -4.026853e-05 -0.0020334166 0.0056400276 -0.0006140597
-2.4336838e-05 0.0028870539 -0.0019689132 -0.0005361281 0.0070393044 -0.0043307142 -0.003456254 -0.00094547484
-0.0029004354 -0.0012810499 0.0026971435 -0.0034088294 -0.0022105973 -0.0014842835 -0.0005916959 8.969474e-05
0.0007499687 0.0005606652 0.00037338302 -0.0034464065 0.0023638897 0.0030391829 -0.0027611924 0.00086834497
-0.0011892781 -0.0001854075 0.00052857056 -0.0058201416 -0.010591134 -0.0021619352 -0.0022907585 -0.014438499
-0.005647023 -0.0048056436 0.0009659234 -0.0068636974 0.0019529642 -0.0018248504 0.004889407 0.0020830478
0.0013186344 0.004022613 -0.0018631894 0.00039394893 -0.0006028449 -0.0012812596 0.004904394 0.00018712909
0.0058579715 0.0010883817 -0.00204773 0.0049533816 0.0005258354 0.00049283734 0.00016898116 0.0008140889
-0.0012093114 -0.0027323368 -0.0032238718 -0.001703257 0.0008089586 -0.0043362146 0.007109837 0.00019291378
0.009328021 0.0030141044 0.0062749283 0.009840379 -0.0014279713 -0.0016939839 0.002815311 0.0035770633
1.9782257e-05 -0.0013286964 -0.004767428 4.3068256e-05 0.006799171 0.0051146145 0.013541793 0.0066766907
-0.0024490685 0.017123885 -0.0021310102 0.0071535422 0.00244847 0.004280325 0.0034070848 -0.001134746
9.686106e-05 0.0060118763 0.010918798 -0.015000705 -0.004438802 -0.010959398 -0.0084981825 0.029935796
-0.005725328 -0.0065428168 -0.0019733442 0.0026894382 -0.010651648 -0.007919836 -0.0036224667 0.0047049257
-0.002622817 -0.002489798 -0.00091310544 -0.006146121 -0.007522732 0.0023248044 -0.0050342865 -0.0033900375
0.009131407 -0.0045929635 -0.0035955342 -0.005155874 0.0012843524 0.0018921742 0.0055514565 -0.0068450784
0.009583785 0.00045003407 0.0027030464 0.008663432 -0.008068101 0.009110922 0.0023597828 0.0015070725
0.00213721 0.0045914403 -0.0005254588 0.0008879916 0.006603951 -0.003768614 -0.0013736616 0.0013982801
-0.004031815 -0.00020772664 0.00019411622 -0.00532602 -0.0002842255 -0.0014363959 0.0011295336 4.102277e-05
-0.00031798345 0.0013177085 -0.0005078692 -0.002660403 0.0018897009 0.0043201456 -0.003023166 0.0016158809
0.0017275033 0.0007497228 0.00044261408 7.2865565e-05 -0.013658047 -0.018288385 -0.00017319695 -0.00038008104
0.009778994 -0.009427508 -0.0020404093 0.011613708 -0.0005654478 0.0021723728 0.0067582973 0.0021313597
-0.00072124694 0.004198078 -0.0014282353 -0.0030046017 -0.0034356671 -0.0011754888 0.0035306439 0.0006902001
0.003783288 -0.00067245815 -0.0029568216 0.0063254116 0.0016768554 0.0025758212 -2.3502691e-05 -0.0014415315
-0.0013457342 -0.003449515 -0.0036244425 -0.0006626102 -0.0023777992 -0.003882171 0.008344032 -0.00028445615
00000000: ee97 c7b9 8c30 713b 1f6a 7838 c98c 8538
00000010: e836 d83b e29e 79bb fc81 93ba d8aa f5ba
00000020: 7d07 ceba 145b 9bbb e97c aa3a e4c0 013a
00000030: f69b 52ba 3b90 40bb 8981 03bb 2ce2 6a39
00000040: df1d 063b d764 78bb db84 613a 46cf 33bb
00000050: 2edf ac3b adf5 ac3a b59a c4ba bb0d 60b9
00000060: 25d1 39b9 30d8 b6b7 5e62 cdba 755a 66bb
00000070: 235a 26bc 5083 eebb 2988 16bb 24b7 5cbc
00000080: f280 803b 054e d9ba 0bad 673a f147 983c
00000090: 6844 8439 b25e 79bb 8cb5 373b 279c 9dba
000000a0: 4ca9 a3ba 35e9 5e3b b3e7 72bb 0d65 cdb9
000000b0: 6887 2f3a d67d 1a3b 770b d43a df72 1a39
000000c0: 864c 713b 5956 0fba 4282 8fbb 82bc 4e3b
000000d0: ad95 04bb 7a33 933a 1c20 be37 7228 953a
000000e0: 49ec 2dba edc8 a8ba da43 c9bb 5975 28ba
000000f0: 01e6 28b8 1243 05bb fbcf b83b d9f8 20ba
00000100: f626 ccb7 ba34 3d3b e208 01bb f38a 0cba
00000110: f7a9 e63b aae8 8dbb 5282 62bb bed9 77ba
00000120: 3b15 3ebb e7e8 a7ba 8fc2 303b ab66 5fbb
00000130: abdf 10bb 4a8c c2ba 0a1c 1bba 7f1a bc38
00000140: 8c99 443a 9bf9 123a 9fc2 c339 1bdd 61bb
00000150: 7deb 1a3b 072d 473b 1ff5 34bb a5a1 633a
00000160: 8de1 9bba f269 42b9 c58f 0a3a e3b6 bebb
00000170: 7086 2dbc 41af 0dbb 8d20 16bb 748f 6cbc
00000180: aa0a b9bb a978 9dbb 0636 7d3a dee8 e0bb
00000190: 9bfa ff3a d22f efba 5237 a03b be83 083b
000001a0: 07d6 ac3a 20d0 833b 4336 f4ba ee8a ce39
000001b0: 3d08 1eba f0ef a7ba 0ab5 a03b 1538 4439
000001c0: 3af4 bf3b 08a8 8e3a 3533 06bb fa4f a23b
000001d0: 37d8 093a c131 013a 8930 3139 9568 553a
000001e0: c281 9eba 0111 33bb 9847 53bb d23f dfba
000001f0: 4b10 543a ce16 8ebb a3f9 e83b e648 4a39
00000200: 8ed4 183c 4888 453b ea9d cd3b 8a39 213c
00000210: c42a bbba ab08 deba 1581 383b 2a6d 6a3b
00000220: 13f2 a537 a727 aeba 1638 9cbb 30a4 3438
00000230: 95cb de3b 7f98 a73b 66de 5d3c 24c8 da3b
00000240: 8d80 20bb 6447 8c3c 6ba8 0bbb 4368 ea3b
00000250: 8376 203b f841 8c3b 6649 5f3b c2bb 94ba
00000260: e321 cb38 46ff c43b c2e4 323c 84c5 75bc
00000270: 5f73 91bb 0c8f 33bc f63b 0bbc ea3b f53c
00000280: 889b bbbb 2065 d6bb 3953 01bb 4941 303b
00000290: 4084 2ebc 33c2 01bc e866 6dbb c72b 9a3b
000002a0: 91e3 2bbb e12b 23bb 785d 6fba 6665 c9bb
000002b0: 4081 f6bb bf5b 183b a8f6 a4bb 642b 5ebb
000002c0: e69b 153c 9280 96bb 0ea3 6bbb 9bf2 a8bb
000002d0: b757 a83a d502 f83a fee8 b53b ae4c e0bb
000002e0: 4f05 1d3c 8df2 eb39 9825 313b 11f1 0d3c
000002f0: 1130 04bc fa45 153c 96a6 1a3b f688 c53a
00000300: 6f10 0c3b cb73 963b f1be 09ba 1cc8 683a
00000310: f565 d83b dafa 76bb 6f0c b4ba 7f46 b73a
00000320: 511d 84bb 32d1 59b9 ad8b 4b39 e585 aebb
00000330: 1a04 95b9 7345 bcba dc0c 943a dd0f 2c38
00000340: 04b7 a6b9 f6b6 ac3a 8622 05ba 285a 2ebb
00000350: d7af f73a 0290 8d3b 4f20 46bb f7cb d33a
00000360: 646d e23a 0c89 443a a80e e839 67cf 9838
00000370: 00c6 5fbc 86d1 95bc 349c 35b9 9d45 c7b9
00000380: 1338 203c d675 1abc 63b8 05bb 6c47 3e3c
00000390: 8f3a 14ba 5e5e 0e3b b574 dd3b 48ae 0b3b
000003a0: 1012 3dba 0890 893b a033 bbba dae8 44bb
000003b0: ee28 61bb dc12 9aba 6062 673b 8bee 343a
000003c0: 0af1 773b e747 30ba 3cc7 41bb 6645 cf3b
000003d0: eec9 db3a 1ccf 283b a527 c5b7 c5f1 bcba
000003e0: 5963 b0ba 4211 62bb 0e88 6dbb 05b3 2dba
000003f0: dad4 1bbb 056c 7ebb 68b5 083c 0f23 95b9

norm2.weight f4 [16, 64]
0.99796057 0.99689615 0.9930395 0.9951762 1.0171068 0.9984433 0.98784566 1.0023158
0.99539876 0.98815763 1.0132143 0.9898745 0.99446964 0.98677975 0.98602945 0.993354
1.0082015 0.9883265 0.99462897 0.9828258 1.0102907 1.0001128 1.0025846 0.9962306
0.98417604 1.0000062 0.9918538 0.99276364 1.0152626 1.0387911 1.0160068 1.0061492
1.0134367 1.0021943 0.99381244 0.99874455 0.9927914 0.9959861 0.9958123 0.98432595
0.9978954 1.0021412 1.0087192 1.0047879 0.99830955 1.0068173 1.0197014 1.0026785
0.9973344 0.99615663 0.9964436 0.998614 0.9927718 1.0010456 0.99595493 1.003993
0.9964162 1.0012493 0.99496204 0.9991004 1.0062377 0.9917923 1.0117882 0.99836206
0.9869366 0.98627216 0.9972978 0.98752886 1.0156465 0.99230325 0.9869811 0.98239905
1.0000335 0.97457 1.027886 0.9830811 0.99046284 0.98746204 0.9625878 0.993704
1.0117607 0.96107435 1.0063559 0.98376095 1.011873 0.9911045 1.0100615 0.994901
0.9957533 0.99643236 0.98165494 1.0061058 1.0657686 1.0169753 1.023981 0.9724472
0.98559684 0.9815227 1.0042446 0.9965983 0.9918184 1.0014261 0.9911466 0.9634255
0.9930604 1.0041203 0.98483485 0.9934543 0.9958748 1.0087191 1.0113578 1.0020874
0.99661237 0.99073863 0.9914607 0.9828579 0.981012 0.98841286 1.0010601 1.0160788
0.9850452 1.0125393 0.983391 0.989952 1.0088382 1.0066546 0.999896 1.0129915
1.0024382 1.0002385 1.0028962 1.0034759 1.0000108 1.0022603 0.9972295 1.0016046
0.9960184 1.0090854 0.985672 0.9913986 1.0049207 1.0058576 1.0080245 1.0037794
0.9823716 1.0215926 0.9969151 1.0097806 1.0003481 1.003277 1.0037552 0.99769145
1.0000604 1.0035582 0.99307126 1.0410357 1.007118 0.9809944 1.0210284 0.99105453
0.9953779 0.98197645 0.991791 0.9717914 0.99742067 1.0035453 0.9973237 1.0041722
0.9901969 0.98895776 1.0066211 0.9903585 0.9781594 0.99724233 0.99290276 0.9984867
1.0161481 0.9935082 0.9926342 1.0055076 0.9968897 1.0068297 1.0004601 0.9927246
1.0029421 1.0049787 1.0044289 0.9975774 0.99360996 1.0050682 1.0107776 1.0046113
0.998495 1.0037283 1.0035506 1.0038581 0.98521364 1.0041564 1.0031618 1.0011317
0.9964566 1.0099542 0.99211186 0.99600285 1.006453 0.9997472 1.0029752 0.99910015
0.98664063 1.0285975 0.99139065 1.0078087 0.9924003 1.0041786 1.0083127 0.9991908
1.0132127 0.9936555 0.9837452 1.0405105 1.0331116 0.93405885 1.0380812 0.9868559
1.0073328 0.9743302 0.9880132 0.9827825 1.0004278 1.0277903 1.0087073 0.99446183
0.9867727 0.990807 1.0007919 0.99516755 0.988319 0.99092436 0.99919343 1.0068182
1.0099424 0.9956011 1.0011861 1.0174671 1.0009487 1.0152335 0.98876417 0.989954
1.0049431 1.0030464 0.9917494 0.9979531 0.98655236 1.0063847 1.0165515 0.9980349
00000000: 587a 7f3f 9634 7f3f d637 7e3f dec3 7e3f
00000010: 8e30 823f fb99 7f3f 74e3 7c3f e24b 803f
00000020: 74d2 7e3f e6f7 7c3f 02b1 813f 6a68 7d3f
00000030: 9095 7e3f 999d 7c3f 6d6c 7c3f 734c 7e3f
00000040: bf0c 813f f702 7d3f 01a0 7e3f 799a 7b3f
00000050: 3551 813f b203 803f b154 803f f808 7f3f
00000060: f6f2 7b3f 3400 803f 21ea 7d3f c225 7e3f
00000070: 20f4 813f 1bf7 843f 830c 823f 7fc9 803f
00000080: 4bb8 813f e747 803f 7e6a 7e3f b9ad 7f3f
00000090: 9427 7e3f f2f8 7e3f 8eed 7e3f c9fc 7b3f
000000a0: 1376 7f3f 2a46 803f b61d 813f e49c 803f
000000b0: 3791 7f3f 64df 803f 9385 823f c557 803f
000000c0: 4f51 7f3f 1f04 7f3f ee16 7f3f 2ba5 7f3f
000000d0: 4b26 7e3f 4322 803f e7f6 7e3f d882 803f
000000e0: 2215 7f3f f028 803f d5b5 7e3f 0bc5 7f3f
000000f0: 66cc 803f 1ae6 7d3f 4782 813f a894 7f3f
00000100: e1a7 7c3f 557c 7c3f e94e 7f3f b1ce 7c3f
00000110: b400 823f 9607 7e3f cbaa 7c3f 817e 7b3f
00000120: 1901 803f 6b7d 793f c591 833f 34ab 7b3f
00000130: f98e 7d3f 50ca 7c3f 276c 763f 6363 7e3f
00000140: 6081 813f f808 763f 45d0 803f c2d7 7b3f
00000150: 0e85 813f 06b9 7d3f b249 813f d5b1 7e3f
00000160: b0e9 7e3f 3116 7f3f bd4d 7b3f 13c8 803f
00000170: 1b6b 883f 3f2c 823f cf11 833f 4df2 783f
00000180: 1350 7c3f 1245 7b3f 168b 803f 1121 7f3f
00000190: d0e7 7d3f bb2e 803f c9bb 7d3f 0ea3 763f
000001a0: 3539 7e3f 0487 803f 231e 7c3f 0553 7e3f
000001b0: a7f1 7e3f b51d 813f 2c74 813f 6644 803f
000001c0: fd21 7f3f 0ca1 7d3f 5ed0 7d3f 939c 7b3f
000001d0: 9a23 7b3f a008 7d3f bd22 803f df0e 823f
000001e0: ec2b 7c3f e39a 813f 83bf 7b3f 7f6d 7d3f
000001f0: 9c21 813f 0fda 803f 2ff9 7f3f b5a9 813f
00000200: e54f 803f d107 803f e75e 803f e671 803f
00000210: 5b00 803f 114a 803f 6f4a 7f3f 9434 803f
00000220: 10fb 7e3f b629 813f 0055 7c3f 4ccc 7d3f
00000230: 3ea1 803f f1bf 803f f206 813f d87b 803f
00000240: b57c 7b3f 8cc3 823f d435 7f3f 7e40 813f
00000250: 680b 803f 616b 803f 0d7b 803f b568 7f3f
00000260: fb01 803f 9874 803f eb39 7e3f a840 853f
00000270: 3ee9 803f 7322 7b3f 0fb1 823f c0b5 7d3f
00000280: 16d1 7e3f cf62 7b3f 04e6 7d3f 52c7 783f
00000290: f656 7f3f 2c74 803f 9b50 7f3f b788 803f
000002a0: 8b7d 7d3f 562c 7d3f f6d8 803f 2288 7d3f
000002b0: a868 7a3f 464b 7f3f e02e 7e3f d39c 7f3f
000002c0: 2411 823f 8e56 7e3f 461d 7e3f 79b4 803f
000002d0: 2a34 7f3f ccdf 803f 140f 803f 3323 7e3f
000002e0: 6860 803f 24a3 803f 2091 803f 3c61 7f3f
000002f0: 395d 7e3f 13a6 803f 2961 813f 1a97 803f
00000300: 5e9d 7f3f 2b7a 803f 5974 803f 6c7e 803f
00000310: f636 7c3f 3288 803f 9b67 803f 1525 803f
00000320: c817 7f3f 2e46 813f 0bfb 7d3f 0bfa 7e3f
00000330: 74d3 803f 6fef 7f3f 7e61 803f 07c5 7f3f
00000340: 7b94 7c3f 15a9 833f c7cb 7d3f e0ff 803f
00000350: f20d 7e3f ed88 803f 6410 813f f8ca 7f3f
00000360: f4b0 813f 3560 7e3f bad6 7b3f 732f 853f
00000370: 003d 843f 7b1e 6f3f d8df 843f 97a2 7c3f
00000380: 48f0 803f b46d 793f 6fee 7c3f a297 7b3f
00000390: 050e 803f a28e 833f 521d 813f 0d95 7e3f
000003a0: 239d 7c3f 87a5 7d3f f319 803f 4dc3 7e3f
000003b0: 7902 7d3f 38ad 7d3f 24cb 7f3f 6bdf 803f
000003c0: cb45 813f b7df 7e3f de26 803f 5d3c 823f
000003d0: 161f 803f 2cf3 813f a61f 7d3f a06d 7d3f
000003e0: faa1 803f d363 803f 4ae3 7d3f db79 7f3f
000003f0: b28e 7c3f 37d1 803f 5c1e 823f 377f 7f3f
