model1_params.pkl (torch, 265979 bytes, 24 tensors)

conv1.weight f4 [320, 1, 3]
00000000: 78a0 093f 39bc df3e 938d 80be 5160 3a3e
00000010: ba03 d23d 6bbc ff3e f385 463e 8a5c d23e
00000020: 1c14 98bd 084b 133f d59c f3be 5142 39be
00000030: bea0 2dbe 24c2 d73e f865 9a3e f075 fc3e
00000040: 4613 d3be c2d2 57bc a5b4 c2bd 6a73 a1ba
00000050: 641a f53d e12d 0cbf 4658 d03e 6845 a2be
00000060: cd42 12bf b277 eb3e c5a0 0b3f cb39 233e
00000070: 4869 efba 3ede f3be 7a98 e8be 8b57 543e
00000080: fb39 6e3b df87 e8be 30e5 813d f0a7 c23e
00000090: 50a7 8c3d 2e1f e43e 8873 fd3e c4e2 933e
000000a0: 25a9 073f b7ac c13e ce82 883d e39e e63e
000000b0: 6355 76bd 1175 693e 35a6 db3e ea8c 1fbf
000000c0: 9eb4 2fbe 6251 f23e e0c6 e43e db29 083f
000000d0: b278 093f 5a6f 09bd 80de dfbe 3c7e 033f
000000e0: b461 143e 5485 ec3e daba f2bd 64a9 293e
000000f0: 910b 593d e53e 60bd 8b6b 483d 3d7e f7be
00000100: 0959 003f 1c24 083f ae09 893e 9aa2 17be
00000110: fbb6 bf3d 3011 a2be dce7 b2be e56d 043f
00000120: 8fe0 71be 33fb c2be 13e8 8b3e c7d8 443e
00000130: 77de 2d3c 7765 183e 0eac 5d3e ba6b 9dbc
00000140: 16f5 18bf cd34 c1bd 1c44 33be 8a34 fdbe
00000150: 3bcc d73e d224 2d3e 7693 c13e f1b1 50be
00000160: d065 673e 72e7 803e 4f3d a03e c2c8 9f3d
00000170: 41e4 70bd 79a8 73be 21db a23d 268f b3bd
00000180: d01b afbe d5a6 12bf 980e 2fbe 2266 103f
00000190: ef4d aebe 59df d6bd e4a0 63be 957f 2abe
000001a0: d199 5e3e 39ef 013f 97e7 d5bd 8d17 a0be
000001b0: 280c e03e 81e0 b93e e590 bc3e 6aa2 19bf
000001c0: 61a5 f23e e89c bd3e 67fb c83e 6755 ffb9
000001d0: 7314 c7be 74da 923e 25da 5cbd 9409 26be
000001e0: 434b acbd 14ae 403e cc5e e73e d6b0 efbe
000001f0: f965 023f e7f9 b33d 4e82 bcbe 5f39 f43e
00000200: e05a d33d bf07 19bf 5ae6 d3be 629c 0ebf
00000210: e47b e33e 2d0d fdbe 9b3c d53d 8484 03be
00000220: 0d51 7ebe 6aab 09bf b101 fe3e 1d10 00bf
00000230: 04f8 6bbe 68f9 023f ab33 22be 5132 88be
00000240: a6dd 09bf d07a 273e c3e5 c5be c30e 9dbe
00000250: a8be c6be 244c 96be a668 e7bc 2bb6 e5be
00000260: 3ddf d13d 0605 f1be 3ade 193e 8595 f3be
00000270: 8f13 89bb dfc3 8a3e 83ea 873d eccc 113e
00000280: 7259 e73e 1c66 edbe 9a2d fa3e 37e7 06be
00000290: f8cd cfbd 502e 04bf f5cf 483e ba07 02bd
000002a0: 3eb2 64be 7ef4 ddbe 3f93 b0bd 9356 ec3e
000002b0: ed46 0e3e d2c6 c2be 172e fa3e 57c8 97be
000002c0: d8ef 3f3e c660 debe 3276 c7be d271 563e
000002d0: a92f 913e 40bc 36be 279f 17be eea8 ea3e
000002e0: 18ba 0a3f 98d1 063f 1daa 08bf e7ae c5be
000002f0: 944a d93e 233c 97be 87b2 933d b891 cb3e
00000300: 49a9 d5bd 9e77 213d b78b 793e 0e63 39bd
00000310: cd47 053e cae0 6e3d 280f f8be fec4 123e
00000320: df8e 873e 4b66 a43e 33be 85be e3dc 11be
00000330: b195 9b3e c443 563e ee9f 22be a3a6 833d
00000340: 69d4 093f f3b7 e83e eeab f33e 005b 91be
00000350: 4dac 96be f796 8dbd 1f78 bd3e effe b63d
00000360: ce79 bb38 b32a 953e bfb3 1cbf af05 413d
00000370: 5929 4abe 655c 84be 6e36 43be 72e6 d2be
00000380: 1369 5cbe 1eb6 ad3d bda4 913e 986a f5be
00000390: cabe 1b3e a02f d63e 226e 8ebe bff2 2d3d
000003a0: 29af f6be 2b06 103f 62ba ad3e 222b 033f
000003b0: d079 09bd 0cf1 acbe 6cd7 9bbe c84c 68be
000003c0: 3165 b23e a212 a6be 8077 35be da0f b9be
000003d0: f3f6 e9be 432a 083f 2173 4dbe 89e0 4abd
000003e0: cea1 b93d e913 113f 5718 b73e 02d5 bcbe
000003f0: e77a cdbe 9bb6 8f3e 1d1a 023f f8af de3d
0.5376048 0.4369829 -0.25108013 0.18200804 0.10254617 0.4994844 0.19387035 0.41086227
-0.074257106 0.57536364 -0.4758059 -0.18091704 -0.1695585 0.42140305 0.3015592 0.4930873
-0.41225642 -0.013172807 -0.095071115 -0.0012317721 0.11967924 -0.54757506 0.40692347 -0.31693578
-0.5713318 0.45989758 0.5454219 0.15940015 -0.0018265629 -0.47630495 -0.4542883 0.2073652
0.0036350477 -0.4541616 0.06342542 0.3801875 0.0686785 0.44555038 0.49502206 0.28883946
0.5299247 0.37827083 0.06665574 0.45043096 -0.060140025 0.22798564 0.42900243 -0.6232439
-0.17158744 0.47327715 0.4468298 0.53188866 0.5369979 -0.03355346 -0.43724442 0.51364493
0.14490396 0.4619547 -0.11852045 0.16568524 0.052989546 -0.05474748 0.048930686 -0.483385
0.50135857 0.531801 0.26765198 -0.14808121 0.09361073 -0.31653738 -0.3494252 0.51730186
-0.23620819 -0.38082275 0.27325496 0.19223319 0.010612122 0.14882456 0.21647665 -0.019216407
-0.5974897 -0.09433899 -0.1750645 -0.49454147 0.42148003 0.16908577 0.37807816 -0.2038038
0.22597432 0.2517658 0.31296775 0.078019634 -0.05881143 -0.23794736 0.07951952 -0.08767538
-0.34200907 -0.57285815 -0.17095411 0.5640584 -0.34043834 -0.10491819 -0.22229344 -0.16650231
0.21738364 0.5075565 -0.10444563 -0.31267968 0.43759274 0.36304095 0.36829296 -0.6001345
0.473918 0.37033772 0.39254305 -0.0004870102 -0.3888279 0.28682292 -0.053918976 -0.16214591
-0.084127925 0.18816406 0.45189512 -0.46814603 0.5093685 0.087878995 -0.36818165 0.4770002
0.103200674 -0.59777445 -0.41386682 -0.5570737 0.4443046 -0.49424115 0.1041195 -0.1284352
-0.24835606 -0.5377718 0.49610665 -0.50024587 -0.23043829 0.51161814 -0.15840022 -0.26600888
-0.53853834 0.16355443 -0.38651857 -0.30675325 -0.38817334 -0.29354966 -0.028248142 -0.44865546
0.102476574 -0.47074145 0.15026179 -0.47575012 -0.00418324 0.27102563 0.066365264 0.14238328
0.4518543 -0.46366966 0.48862916 -0.13174139 -0.10146707 -0.5163317 0.1961058 -0.03174565
-0.22333619 -0.43350595 -0.08621835 0.461598 0.13894244 -0.38042313 0.4886329 -0.29645035
0.18743837 -0.43433207 -0.38957363 0.20941857 0.28356674 -0.17845249 -0.14806806 0.45832008
0.54190207 0.52663565 -0.5338457 -0.38610002 0.4243971 -0.29538068 0.07211786 0.39759612
-0.10432679 0.039420716 0.24369703 -0.04526048 0.13015671 0.058319844 -0.48449063 0.14332959
0.2647619 0.32109293 -0.26121673 -0.14244418 0.30387643 0.20924288 -0.15881321 0.06428268
0.5383974 0.45452842 0.4759211 -0.2838974 -0.2942833 -0.0691356 0.37005708 0.089353435
8.939543e-05 0.2913414 -0.6121177 0.04712456 -0.19742335 -0.2585174 -0.19063732 -0.4119144
-0.21524458 0.08482002 0.28445998 -0.47932887 0.15209499 0.4183321 -0.278184 0.04246783
-0.48180512 0.5625941 0.3393126 0.5123769 -0.033563435 -0.33777654 -0.3043779 -0.2268554
0.34842828 -0.3243609 -0.17721367 -0.36144906 -0.4569622 0.53189486 -0.2006345 -0.04953054
0.09064065 0.56671005 0.35760757 -0.36881262 -0.4013283 0.28069004 0.50821096 0.10873407

conv1.bias f4 [320]
00000000: 5c16 18bf 1d85 703e 93d0 0cbd 1d54 bd3e
00000010: 8334 003e e5fb 8c3e b296 11be 56fe e53e
00000020: 7604 473e c295 a73e 52b5 be3e 3d01 2abf
00000030: 6351 72be f05b 053e fc10 003f 6ecf 05be
00000040: b2b0 943e 9692 a6be 3a3b 5abe 7303 0bbe
00000050: 15b9 093f 2ae3 88be 25b8 b43e 5765 e9be
00000060: 01a7 f93d 8df9 963e 1444 ebbd 0da6 943e
00000070: 249a 02bf c9e3 3e3e d324 a2be 0ea0 c83e
00000080: 5a94 48bd 9dfc a43d f1b2 10bf 743c ebbe
00000090: dd9c a53e e5c5 07bf ec09 473e 654a 053f
000000a0: 03b8 a8be c9ae e23e 785b 013f c62c 843e
000000b0: b17b 41be 7284 943e 4195 5b3d 2f1a d0bd
000000c0: a0e8 cd3e cd4b e2be 76de a3bc b682 8dbd
000000d0: 5737 96be 8a7a 26bd 2600 9bbe 5e4e 673e
000000e0: a2cc c0be 0c5e fb3e 510f c6be b1dd 08bf
000000f0: 20a2 0bbf 00ad ad3e 9d73 74be a25f e43e
00000100: 8807 543e 3d8f 9d3d ae60 893e ed01 023f
00000110: 8a33 68be 462d 3dbe 777e 95be 88d2 793e
00000120: 855a ff3e ae1c acbe 354d b13e 986a 9e3e
00000130: 7b90 b2bd 56ab 8cbe e7b7 a2be a9ab b3be
00000140: bbd3 053f 9a89 4cbd a5fa 503e 7dee b9be
00000150: 2f75 dc3e 03e9 0e3f 2cba 92be c176 d6be
00000160: 2ee5 d4be d457 693e 7401 55be 58be 773e
00000170: 3864 c73e 487b ee3e bbc6 a6be b2bc 103f
00000180: 08b0 b13d 5d4d 54bd 3c75 0b3f 0c90 6b3e
00000190: d298 0dbe cc8f 813e d347 a3be 504a c43e
000001a0: 279a 173e e326 7a3e b8c2 d73e 74ce 7bbe
000001b0: a740 e73d 4492 a9bd 5780 d1be 84c8 873c
000001c0: 2d01 e9ba 433c 1d3e 24a0 8ebe e037 e03e
000001d0: a26a fabd ee2f 62be b9d5 96be 2d75 d5bd
000001e0: 2b01 92bd 4fc2 ad3d ae3a a0be 0061 80be
000001f0: f82e a1be aca1 b43e 12d5 01bf 1ff4 bf3e
00000200: 1e52 edbe d648 0fbb f0e3 5c3d 6898 e33b
00000210: 7fa7 0dbe 23aa 52be 4165 853e 3999 803e
00000220: e8bd e63e 8078 173c f611 f5bc 62f6 b53e
00000230: f35c c3be 4a3a 063e 17fa c4bd f267 d93e
00000240: b347 023f d05b 04be 16ab 023f 8318 b9bc
00000250: 9af8 a83d c773 eabc abe3 bdbe d10b 253e
00000260: 37ed 763e ce47 cabe 6af5 193f 1013 dc3e
00000270: 632d a83e e74d ddbe ce4a 453d e57c aabe
00000280: 08be 3d3e 4bd8 0ebf 9281 dcbe ce7f c43e
00000290: 39cf 683e b428 37be 5ea8 b93d 3654 87be
000002a0: 6472 633d 841f b0be 68e6 79bd 46ed 203f
000002b0: eb1f b0be c560 96be 8a4f be3e a606 103e
000002c0: 91d7 f5bd 5023 c73d 96c4 32be be9f c93e
000002d0: 8396 a73e 000a d6be a0c1 d73e d8fa b93d
000002e0: 24e3 93be 56db 8e3e 938e a6be f81b d63e
000002f0: 12b0 b7be f103 fbbe bf1b 5f3e eb96 2bbe
00000300: 6e47 5cbe dcaa aa3e e8a8 743e 0645 013e
00000310: 6d85 05bf 7444 0dbf 16db a2bd 7742 123f
00000320: a673 a1be ac21 dbbe 327a 0c3f b1ce 083f
00000330: 5dbb 92be 127e 0ebf 246a 6d3e e07c 1fbe
00000340: c2e1 c93e 9aab 0a3f a3cf c73e 97e7 9dbe
00000350: 60e0 d23d cd78 f03d cab7 d83e 6acd 113d
00000360: d143 f63e eea2 64bd 6c5e 20be c78d 20bd
00000370: b5c9 0b3f 5c06 f83e b054 1f3f 4d92 ce3e
00000380: 8183 9ebe 3ffd 453e 6165 c2be 9fd0 d43e
00000390: 7731 c7be b33d b33d a235 963e 6b9d e23e
000003a0: 4157 59be bd10 b6be 1634 ac3e 8194 b6be
000003b0: 3326 b03e 6b2d c4be 0296 73bc 9762 9c3e
000003c0: 9b30 4e3e 9c84 d6bd 71c7 583d 178b d93d
000003d0: 383a 13bf 3043 bf3d 5dff b0be fff1 9b3e
000003e0: f5c1 5bbe 3894 babe bf0a ba3e 1167 a6bd
000003f0: 6c4e f5be e12b 283d 391b 8d3e d950 483e
-0.5940912 0.23488279 -0.0343786 0.36978236 0.12520032 0.2753593 -0.14217642 0.44920605
0.19435295 0.32731444 0.3724771 -0.6640814 -0.23663859 0.13023353 0.50025916 -0.1306741
0.29041058 -0.3253371 -0.21311656 -0.13575535 0.5379804 -0.26735812 0.3529674 -0.4558513
0.121900566 0.29487267 -0.11487594 0.29032937 -0.5101645 0.1864158 -0.3166872 0.39184612
-0.048969604 0.08055995 -0.5652304 -0.4594456 0.3234624 -0.5303634 0.19437379 0.5206664
-0.3295289 0.44273975 0.50530195 0.2581541 -0.18894841 0.29007298 0.053609136 -0.10161244
0.4021654 -0.44198456 -0.020003539 -0.06909697 -0.29339096 -0.040644206 -0.3027355 0.22588488
-0.37656122 0.4909519 -0.3868356 -0.53463274 -0.5454426 0.3392105 -0.23872228 0.44604212
0.20705998 0.07693336 0.26831573 0.5078419 -0.2267591 -0.18474302 -0.29198048 0.24396718
0.49873748 -0.3361563 0.34629217 0.309407 -0.08718964 -0.2747447 -0.3178093 -0.35091904
0.522762 -0.049935915 0.20408113 -0.36314765 0.43058154 0.558243 -0.28657663 -0.41887477
-0.415811 0.2278741 -0.20801336 0.24193704 0.38943648 0.4657843 -0.32573494 0.56537926
0.086761534 -0.051831592 0.5447576 0.23004168 -0.13827828 0.2530502 -0.31890735 0.38337946
0.14804898 0.24428897 0.42140746 -0.24590474 0.11291628 -0.08279851 -0.40918228 0.016575105
-0.001777684 0.1535502 -0.27856553 0.4379263 -0.1222737 -0.22088596 -0.29459932 -0.1042274
-0.07129129 0.08484327 -0.3129477 -0.25074005 -0.31481147 0.35279596 -0.50715744 0.37490937
-0.46351713 -0.0021863482 0.053928316 0.0069456585 -0.13833426 -0.20572715 0.26053813 0.251169
0.45066762 0.009245038 -0.029915791 0.35539538 -0.38156852 0.13108173 -0.09618013 0.42462116
0.50890654 -0.12925649 0.51042306 -0.022594696 0.08250542 -0.02861966 -0.3708776 0.16117789
0.24113928 -0.39507908 0.601401 0.42983294 0.32847127 -0.43223497 0.048167042 -0.33298412
0.18529522 -0.55798787 -0.43067604 0.38378757 0.22735299 -0.17886621 0.090653166 -0.26431435
0.055529013 -0.34399045 -0.06101075 0.6286205 -0.3439935 -0.29370704 0.37170058 0.14065036
-0.12004007 0.09723532 -0.17457804 0.39379686 0.3273202 -0.41804504 0.42139912 0.09081048
-0.28884232 0.27901715 -0.3253065 0.41818213 -0.35876518 -0.49026445 0.21787928 -0.1675679
-0.21511623 0.3333348 0.23892558 0.12623987 -0.52156717 -0.55182576 -0.079519436 0.5713267
-0.31533545 -0.42799127 0.54873955 0.53440386 -0.28658572 -0.5566112 0.2318502 -0.1557498
0.39430052 0.54168093 0.39025602 -0.30840752 0.102967024 0.11741791 0.4232772 0.03559629
0.48098615 -0.055819444 -0.15661019 -0.03919771 0.54604656 0.48442352 0.622386 0.40345994
-0.30959705 0.19334887 -0.3796797 0.41565415 -0.38904926 0.087520026 0.29337794 0.44260725
-0.21224691 -0.35559645 0.33633488 -0.35660174 0.34404144 -0.383159 -0.014867308 0.30543968
0.20135729 -0.10474512 0.052924577 0.106222324 -0.5751071 0.09338987 -0.34569827 0.30458066
-0.21460707 -0.36441207 0.36336324 -0.08125127 -0.47911394 0.04105747 0.27559832 0.19562091

conv2.weight f4 [16, 320, 1]
00000000: 0c01 0cbc 6a54 84bc 7631 8cbd 0c9c 5c3d
00000010: 4d7a 27bd 0bca d6bb 2b77 a6bc a34c 58bd
00000020: 15d7 1d3d 7e02 65bd 3cbe baba 9ac1 49bc
00000030: 87b6 96bb d1f9 e13c 92c1 d23c e719 99bb
00000040: 8836 24bd 1107 a03b f49f 55bd e410 8dbc
00000050: c613 0d3c 7cd1 2b3c 7b72 b9bc 6986 d1bb
00000060: 8351 00bd b8da 15bd 63f3 fbbc 034c 8bbc
00000070: c2d5 053b cff7 4c3d f0f9 cf3c dfa1 cbbc
00000080: e09e 0b3d 12cc 353d 3c61 03bd bafe 033d
00000090: 40f9 aa3c 15b7 2bbc 61cd 1c3d d5fb c13c
000000a0: 80d0 92bd 701b f33b e084 b53c 306b 1abb
000000b0: 2eff 023d e52a 7f39 0e00 71b9 e65c 5bbd
000000c0: 0d6b 8dbd 0b47 443c d61b 7dbd 0b07 c0bc
000000d0: 2831 d8bc 38d8 ee3c fdcb 373d 1b81 f1bb
000000e0: 9465 d53c 9161 2dbd 12f0 9e3c 20a6 bdbb
000000f0: 0411 3ebd ff25 80bc 67c8 26bc 965f 30bd
00000100: 68c9 0ebc a2be 493b 856a 963c d830 473d
00000110: d506 22bd 633d c63c 2047 853c ef86 553c
00000120: 4770 553c 43f7 eb3b 7002 723c 4d8c d0bc
00000130: 224e 84bc 5c59 69bd 69e8 64bd 15f3 f43c
00000140: e591 383d 0202 f8bc 1e13 933c e0b1 cbbc
00000150: e2bd 3d3d 31d8 163d 579b 333c e600 05bd
00000160: d5d3 853c c18f eebc 5b5a 543c afe6 82bd
00000170: b156 80bd ec1b 04bc bea3 ad3c 5b97 6abd
00000180: 960d f5bc 008b 263c ca32 dc3c 6cca 073d
00000190: 5324 6f3d 3740 5cbc 9982 a9ba 005c 6dbd
000001a0: 5703 25bc 37d1 46bd dc9f cbbc b7fd ecbb
000001b0: f083 40bd 3254 5c3c d5ef 42bd 3dcb 91bd
000001c0: 4d55 97bd 84e8 8cbd b68f 41bd 5e87 313d
000001d0: 1d7f 7dbd e04a 513c 3cae 9abd dfca 01bc
000001e0: d5c9 263c fd55 98bc 85a8 eb3c f57a b8bc
000001f0: 156d 1abd 13a2 c0b9 3d93 323d 354f 083d
00000200: 4cbb c1bb f13b 0fbd d1e9 debc fb9b 793b
00000210: 548c 64bd 8d94 acbc 11b3 aa3c 747c 003d
00000220: 732a 9cbc e293 153c b233 063d 110f 47bd
00000230: 2c98 d9bc 549d 18bc 3fd4 ae3c e01c 053d
00000240: a100 60bd 77e4 22bc 5aff 83bd f021 7dbd
00000250: d77b 1fbd ae45 a0bc 2c59 543d b935 da3c
00000260: 23bc 6ebd 0ef0 353d 1ba5 9fbc 17fc 633b
00000270: d1f1 86bd d406 abbc b0e0 d1bb c105 843c
00000280: 9489 de38 70f7 a53c 6717 d53c ebf7 36bd
00000290: 2e90 6ebd ccb4 303d 4b25 debc 7eb2 2fbb
000002a0: d3b3 21bd 462e 23bb 6b07 ffbc 2dca 86bc
000002b0: 8f4b 5fbd ab2e 7f3b dbce 98bd 20b1 aebd
000002c0: 5653 a93c b1f9 3cbd 59f0 47bd 8826 5dbd
000002d0: 80f7 423c a3d6 3abd cb18 7a3d 45ee debc
000002e0: 143b 22bd ed5b 85bc 18e0 703c 473e 473d
000002f0: cff0 e6b9 d4a8 8dbc 63e2 45bc f613 49bd
00000300: 914a 02bd 3297 d33c 2642 adbd 70cb 3fbd
00000310: 2ab5 123d 2dd1 993c d434 1bbd a88b 9e3c
00000320: c68a e1bc a8f4 adbc 2ccb b2bd 05af 41bc
00000330: bf63 01bd d33d 2dbd 0dbb 363c c6d7 16bd
00000340: be5b 0c3d effb c0bc d592 4dbd 36b0 1b3c
00000350: 1354 ff3c d5c2 663d a81d 153d b6ef 74bc
00000360: b3d0 3f3d d80d 5f3c c53a 9c3c 2fe6 f73b
00000370: 0c97 9abd 9a61 e1bc d81d 79bc f736 093c
00000380: 8719 383d c0ff 613d cca5 bd3c fa9c 0fbc
00000390: db5f 003d 00b9 8f3b 237d 3d3d ef8f 1d3c
000003a0: 9fb8 09bd 3e1b 433c 09a5 9cbb fb68 b33a
000003b0: 0972 6cbc df32 86bd 537b 74bd 7631 01bd
000003c0: 828b 8cbd 3474 103d 4532 05bd ac79 50bc
000003d0: faa7 693c ca29 93bd 11be f5bc a127 17bd
000003e0: 2f34 f3bc c5e6 d2bc 471f 08bd 1869 ac3c
000003f0: 943f 913c 5c2d 72ba 28dc 803c 20d9 adbc
-0.0085451715 -0.016153533 -0.068453714 0.053859755 -0.04088812 -0.006554847 -0.020320496 -0.05280746
0.038535196 -0.05591058 -0.0014247368 -0.012314225 -0.0045993957 0.027584942 0.025727067 -0.0046722773
-0.040091068 0.004883655 -0.052154496 -0.017219968 0.008610671 0.010486957 -0.022637596 -0.006394197
-0.031327736 -0.03658554 -0.030755704 -0.017004019 0.00204216 0.050041016 0.025387734 -0.02485746
0.034087062 0.04438407 -0.03207515 0.032225348 0.020870805 -0.010480662 0.038281802 0.023679653
-0.071686745 0.0074190423 0.022158086 -0.0023562424 0.03198164 0.00024334675 -0.00022983571 -0.05355539
-0.06905184 0.011979829 -0.061794125 -0.023440858 -0.026390627 0.029155836 0.044872273 -0.007370127
0.026049413 -0.042329375 0.019401584 -0.005787626 -0.046402946 -0.015643118 -0.010179616 -0.043059908
-0.008715011 0.0030783792 0.01836134 0.048630565 -0.039557297 0.024199193 0.016269267 0.013032659
0.013027257 0.0072011068 0.014771089 -0.025457526 -0.016150538 -0.056969985 -0.055885706 0.029901067
0.04506101 -0.030274395 0.017953452 -0.02486509 0.046323664 0.03682727 0.010962329 -0.03247156
0.016336361 -0.029121282 0.012960996 -0.06391656 -0.06266535 -0.008063298 0.021196242 -0.05727325
-0.029913705 0.010164976 0.026879687 0.03315203 0.05838425 -0.013443044 -0.0012932598 -0.057949066
-0.010071597 -0.048539367 -0.0248565 -0.0072323936 -0.047000825 0.013447808 -0.047592003 -0.07118843
-0.07389317 -0.06880286 -0.047256194 0.043341987 -0.061888803 0.012774199 -0.07552764 -0.007921903
0.010179956 -0.01859569 0.02876688 -0.022519568 -0.037701685 -0.00036741848 0.04359745 0.033278663
-0.00591222 -0.034969274 -0.027211102 0.0038087356 -0.05579789 -0.021066928 0.020837339 0.031368688
-0.01906321 0.009129496 0.032764144 -0.048598353 -0.026561819 -0.009314854 0.021341441 0.03249824
-0.0546881 -0.009942166 -0.06445189 -0.061799943 -0.038936462 -0.019564476 0.051842853 0.026636945
-0.05828489 0.044418387 -0.019487908 0.0034787708 -0.065890916 -0.02087728 -0.0064049587 0.016116025
0.00010611411 0.020259589 0.026012136 -0.044670027 -0.05824297 0.04314117 -0.027117392 -0.002680927
-0.039478134 -0.0024899407 -0.031131467 -0.016453827 -0.054515418 0.0038937728 -0.074613295 -0.08529878
0.02066962 -0.04613656 -0.048813198 -0.053991824 0.011899829 -0.04561485 0.0610588 -0.027213225
-0.039607123 -0.016279185 0.014701866 0.048643377 -0.00044048435 -0.017292418 -0.012077901 -0.0490913
-0.031809393 0.025828931 -0.084598824 -0.046824872 0.035817303 0.0187765 -0.037892178 0.019353703
-0.027531993 -0.021234825 -0.08730158 -0.011821513 -0.031589266 -0.04229529 0.011152995 -0.03682687
0.03426718 -0.023557631 -0.050188858 0.009502461 0.03116802 0.05633815 0.036405236 -0.01494973
0.04682989 0.01361414 0.019070992 0.007565282 -0.07548341 -0.02751236 -0.015204869 0.008374921
0.04494622 0.055175543 0.023150347 -0.0087654535 0.031341415 0.0043860674 0.046261918 0.009616836
-0.033623334 0.0119083505 -0.004780416 0.0013687903 -0.014431485 -0.06552672 -0.059687924 -0.03154131
-0.068625465 0.03526707 -0.032518644 -0.012724321 0.01426124 -0.07185705 -0.029997857 -0.036903027
-0.029687969 -0.025744805 -0.033232953 0.021046206 0.017730512 -0.00092383265 0.015729979 -0.021221697

conv2.bias f4 [16]
00000000: b87e b53c 6970 8dbb 720a 8d3c cc71 a2bc
00000010: dcbb 1abd ee98 323d 6170 5bbc f69f 043d
00000020: c0a7 0fbd 6501 9b3b 8ec2 b43c df2b 9e3c
00000030: ffdf 5c3d 1a19 6ebd 020b 673d 4d83 393c
0.02215515 -0.004316379 0.017216895 -0.019829653 -0.037776813 0.043602876 -0.013393492 0.032379113
-0.03507209 0.004730391 0.022065427 0.019308029 0.053924557 -0.058129407 0.056406982 0.011322808

conv3.weight f4 [64, 16, 1]
00000000: 09a1 7dbe da2a cdbd 66b6 6abd 8243 6a3e
00000010: 4315 6d3e 876d fe3d 1fe4 3dbe 005e c83d
00000020: 51b1 403d aa67 bdbd 2871 0ebe 2c27 10be
00000030: 1c74 2dbe ddeb fc3d 06fa 4f3d 1c6f 123d
00000040: c486 c9bd 45f2 98be 387e 0fbe 6762 c33c
00000050: cd03 07be 302f c5bd a2c9 00be 9f94 d93d
00000060: 9722 41be 47b2 c4bd 112c 67be 753e 423d
00000070: 3800 3c3e c738 b4bb 4932 6c3c dd53 83be
00000080: 07cc e1bd 46d8 2f3e c3a9 db3c a531 893e
00000090: 64ea 5d3e e6f7 533d 2f54 9dbd f84b bd3d
000000a0: 364f 4fbe fcc1 11be 9fa5 15be c8b9 293e
000000b0: fab1 3abe eabd 4a3e 8c7d 77bd 5aa2 663e
000000c0: 22bf 1f3e 50e4 9ebc bbdd 203e 0f82 3dbe
000000d0: 0d61 243e bec5 06be 4c55 ad3c ef39 433e
000000e0: 6f6f 01bd 1e8b c8bd 38e6 663e 8bc4 38bd
000000f0: 2e6c 2dbe 614a d63c 3ea0 aa3d 7d13 2e3e
00000100: 54fc d93c 1066 2bbe ac7f 06be 080a babd
00000110: eabd 353e d470 a8bc ab3c 5bbe 63a6 b63d
00000120: 7003 5abd 680d fe3c a904 81bd 29ea b43d
00000130: 259e 00be 50f2 3bbe 0b21 47be 6db4 323d
00000140: f3c6 ecbc 53fc 823d b3f5 433e 9634 4dbd
00000150: 41a4 8bbd 289d a1bc b3ad f6bd c2ef 403e
00000160: 14e6 1c3e 7b56 ebbd 0803 7cbe eb48 aebd
00000170: a37c 5b3e 4d43 443e 0356 4fbe 6cba fc3d
00000180: c76a fa3d b4c7 2abe 1000 17be 9ef1 7fbe
00000190: 7104 59be 3a04 64be 19d9 4f3d 4637 b53b
000001a0: 0125 183e c8db 4c3e cfe6 a43d 58fc 043e
000001b0: f329 3abe 745b 223e 0969 d7bb 89b3 80be
000001c0: 3d9f 893e dd09 eabd af4e 1fbe 56d7 71bd
000001d0: 3222 26be 0e0c 7c3d 2fc0 02be 250a 5e3e
000001e0: 79c8 753c 8ee5 533e 42f8 2ebe 5ee1 51bd
000001f0: f6fb f8bd b157 26be be71 8e3d b5af af3d
00000200: 1e4a c1bc 7c4e 34be e1ca fd3d fcc3 bb3d
00000210: ba8d a5bc 6e52 dbbd 174d 80be 557f 31be
00000220: 5bea d5bd 93ab 123c f7c0 0abe aeab 103e
00000230: a4c9 5abd 8d6a 5bbe f483 41bd 9d96 70be
00000240: ff31 503e 11ea 743d 989b c33d a993 9a3c
00000250: 9f70 1f3e 2f82 cdbd c8c5 d0bb 5bcf 173d
00000260: 15ca 21bd aa28 d13c a439 d33c f061 9e3d
00000270: d6ee 9c3d 5840 29be 20d2 81bc bcc3 5fbe
00000280: 9d5e 80be 55e3 403d 95a8 d93c 3b23 1bbe
00000290: 15ed 2f3e dd35 633e e978 693e d373 80be
000002a0: d9b4 f03c 3a13 513d a793 d53d 2d92 913d
000002b0: abdd 2ebe d98a 78be 2674 48be 0e87 62be
000002c0: da2a 85bd 9465 8b3d 63e9 c6bd 4358 47be
000002d0: db42 41be bb29 673e eb8f 203e 530b e23c
000002e0: d0e6 533e 042c 793d 9ace 193e f528 373e
000002f0: de0f 543e 9c1c cebd c049 3bbe c83e 73bb
00000300: f883 ef3c 41c2 8e3e 7f41 3dbd daac 1dbe
00000310: 9e25 a13d 8f7b 183d af93 e53d 3edc 5b3e
00000320: 1f0b 0cbe 482f 12be 2209 053e c19b 65bd
00000330: 8b5e 4abe e90d 06be af8a 793e 3671 ce3d
00000340: 6485 78be 737d 2dbe 357a f8bd 30c8 c83d
00000350: 2df8 743e cda1 4e3e d948 d53d 018f 2bbe
00000360: 4e1d 2f3e 50d7 af3b 5ca3 f9bd d24f 683d
00000370: 8229 c3bd 2e1b 3dbd f2da c53d e1da cf3d
00000380: d286 4c3e 0364 c9bc ae62 953d dd09 ed3d
00000390: 7aee 3ebe cc4a 17be 7167 8dbd 48e9 6dbd
000003a0: 90a1 8d3d f7a9 213c 24b1 333e cae3 b33d
000003b0: 5a9e 4dbe 933f 72be 5b60 b93d 7c53 843e
000003c0: 843b 8b3b 7a29 1bbe 12ff 963d 776c 89bd
000003d0: fe7c 263e f6a8 ad3c 00c0 69bd 67f0 95bd
000003e0: 063d a33c e084 05be 6d81 243e 8e9b 5fbe
000003f0: 8d3f 613e db49 04be 6103 693e a298 14be
-0.24768461 -0.10017939 -0.057302855 0.22877315 0.23152642 0.124232344 -0.18544053 0.09783554
0.047044102 -0.09248288 -0.13910353 -0.14077443 -0.16938823 0.12349675 0.05077555 0.035750493
-0.09840158 -0.29872337 -0.14012992 0.023850633 -0.13185044 -0.09628141 -0.12576917 0.1062405
-0.18860851 -0.09604316 -0.22575404 0.047422845 0.18359458 -0.0054999324 0.014416286 -0.2564992
-0.11025243 0.17172346 0.026814347 0.26795688 0.21671444 0.051750086 -0.07682072 0.092430055
-0.2024506 -0.14234155 -0.1461396 0.16574776 -0.18231955 0.19799009 -0.060422465 0.2252287
0.15600255 -0.019395977 0.15709583 -0.18506645 0.16052647 -0.1316137 0.021158837 0.19065069
-0.031600412 -0.097921595 0.22548759 -0.045109313 -0.16935799 0.026158514 0.08331345 0.16999622
0.026609577 -0.16738153 -0.1313464 -0.090839446 0.17748228 -0.020561613 -0.21409862 0.089184545
-0.053225935 0.031012252 -0.06299717 0.08833725 -0.12560327 -0.18354154 -0.19446199 0.0436291
-0.02890346 0.06395783 0.19136696 -0.050098978 -0.06818438 -0.019728258 -0.12044849 0.1884146
0.15322143 -0.11491104 -0.24610531 -0.08510002 0.21434264 0.19166298 -0.20247655 0.12340245
0.122273974 -0.16677743 -0.14746118 -0.24994513 -0.211931 -0.22267237 0.05074415 0.0055302707
0.14857866 0.20005715 0.08051836 0.12986887 -0.18180065 0.15855199 -0.0065738005 -0.25136974
0.26879302 -0.114276625 -0.15557359 -0.05904325 -0.16223982 0.061534934 -0.12768625 0.21683557
0.01500141 0.20693037 -0.1708689 -0.051240318 -0.12157433 -0.16244389 0.06955288 0.08578435
-0.023594912 -0.17608064 0.12392212 0.091682404 -0.020209182 -0.107090816 -0.25058815 -0.1733373
-0.104450904 0.008952039 -0.13550173 0.1412799 -0.053414956 -0.21427365 -0.04724498 -0.23494954
0.20331572 0.059793536 0.095511615 0.018869238 0.15570305 -0.10034596 -0.0063712336 0.037062984
-0.03949936 0.025532085 0.025784321 0.07733524 0.07662742 -0.16528451 -0.015847266 -0.2185201
-0.25072184 0.0470918 0.026569644 -0.15150158 0.17180283 0.22188516 0.2280003 -0.25088367
0.02938311 0.051043727 0.10428553 0.07107959 -0.17076747 -0.24271716 -0.19575557 -0.22121832
-0.06502314 0.06806484 -0.09712484 -0.19467263 -0.1887316 0.22574513 0.156799 0.02759329
0.20693517 0.060832992 0.15020218 0.17886718 0.20709178 -0.100640506 -0.18289852 -0.0037116278
0.029237732 0.2788258 -0.04620504 -0.15397969 0.07868503 0.03722721 0.11209809 0.21470734
-0.13676117 -0.14275849 0.12991765 -0.05605674 -0.19762628 -0.13091244 0.2436931 0.10080187
-0.24269634 -0.16942386 -0.12132684 0.09803808 0.23922797 0.2017891 0.10414285 -0.1675377
0.17101023 0.0053662434 -0.121893615 0.056716748 -0.09529401 -0.0461685 0.09660901 0.1014917
0.19973305 -0.024583822 0.07294212 0.11574147 -0.18645659 -0.14774626 -0.069044955 -0.058083802
0.06915581 0.009867183 0.17548043 0.08783682 -0.20079938 -0.23657064 0.090515815 0.25844944
0.004249038 -0.15152541 0.073728696 -0.06710141 0.16258618 0.02119873 -0.05706787 -0.07321244
0.01992656 -0.13038969 0.16064997 -0.21836683 0.21996899 -0.12918799 0.22755195 -0.1451135

conv3.bias f4 [64]
00000000: 95cf 4e3e 2533 7b3e 8804 163e 9083 1d3d
00000010: 570f 8bbc 2370 5fbd 1078 5b3e ecf1 12bd
00000020: 08c4 573e baf1 11be 9dc5 46be 1f62 e4bd
00000030: c7e9 163e e0d3 5c3e 085b d33c fd64 21be
00000040: 530a 8abe 5462 5d3c 0942 0ebe 7acc b0bd
00000050: 3463 3dbe 85c5 0b3e 559a 00b9 04d1 483e
00000060: 9527 2bbe a5fe f73d 4fc3 a9bd 19cf 21be
00000070: 11f8 d63d 5ae5 4e3e 2670 0bbd 1d58 27be
00000080: 1244 e7bd dd6f 793b e423 583e c19e cf3b
00000090: 51ad 4b3e f1a1 7b3d a12e 3e3e 7df5 a93c
000000a0: 1e0f 33be bd5d 7e3d fc27 60be 2d2f 35bc
000000b0: a6b1 5c3d bcf2 7ebd 3c37 ad3d 058f a53d
000000c0: 0fe0 df3c 0ce5 dfbd c6c8 683d d5c1 c5bd
000000d0: 8535 023e 94c7 88be 6680 8d3e 4f30 d4bd
000000e0: 0443 57be 6b6e 31be de6a fc3d b95f 863e
000000f0: fef5 f53c 0165 2dbe 45d4 efbc 9ebf 83bd
0.20196374 0.24531229 0.14650166 0.038455546 -0.016975088 -0.0545503 0.21432519 -0.035875246
0.21070874 -0.14252368 -0.19411321 -0.111515276 0.14737616 0.21565199 0.025800243 -0.1576118
-0.26961002 0.013512213 -0.13892378 -0.08632751 -0.18494874 0.13649566 -0.00012264524 0.19610983
-0.16714318 0.121091165 -0.08289205 -0.15801658 0.10496534 0.20204678 -0.0340425 -0.16342206
-0.1129228 0.003806106 0.21107441 0.0063360636 0.19890334 0.061433736 0.18572475 0.02074694
-0.17486235 0.062101115 -0.21890253 -0.011058611 0.053880356 -0.06224321 0.08457801 0.080839194
0.02732852 -0.10932359 0.056832097 -0.09656111 0.12715729 -0.26714766 0.27637023 -0.10360777
-0.21021658 -0.17327277 0.12325071 0.26244906 0.030024525 -0.16933061 -0.029276023 -0.064330325

conv4.weight f4 [1, 64, 1]
00000000: 1632 ba3d c009 9cbd ad5a afbd a567 afbd
00000010: 05aa 36bd f7b3 8ebd 0948 42bd 930b c73d
00000020: b8e4 a6bd 02a4 cb3d bcd0 8ebd 3a23 543d
00000030: 374c 6e3d 5d34 44bd afca 5b3d 8d77 8a3d
00000040: 4a49 e53d fd23 1b3c 163c deba d959 80bd
00000050: 7916 b0bd ca6d b13a e121 f5bd c103 b9bd
00000060: ca97 a83d 6680 103d 078d 7a3b d124 9bbd
00000070: 4a89 863d 4b43 ccbd f7fe ddbd 1f74 043e
00000080: c36d 56bd 74fc 89bd 91fb 45bd b566 f4bc
00000090: bf38 c8bd e61c c63b 2cf1 c23d 4ad4 783d
000000a0: b752 373d a55a 01bd 4714 57bd 52c0 4bbd
000000b0: 974c da3d b23c bf3d 5433 973d 9ca6 2fbd
000000c0: e8d5 763d df5b 163c 30ad 4f3c d4f2 273d
000000d0: 2bdb 97ba 854a 6f3d 2708 19bd c514 86bc
000000e0: 4674 ecbc c6fe aa3b 0bb0 9ebd 120d 3abd
000000f0: 9cee a43d b0ae a6bb 5f00 093e ff58 8b3d
0.090915844 -0.07619047 -0.08562217 -0.085646905 -0.044595737 -0.06967919 -0.04743198 0.097190045
-0.081490934 0.099433914 -0.06973407 0.051791407 0.058178153 -0.0479015 0.05366009 0.06761084
0.111956194 0.0094690295 -0.0016955163 -0.06267137 -0.08598036 0.0013536748 -0.119693525 -0.09033919
0.082320765 0.0352787 0.0038231032 -0.075753815 0.065691546 -0.099737726 -0.10839646 0.12934922
-0.05235077 -0.06737605 -0.048335616 -0.02983413 -0.097764485 0.0060459254 0.09518656 0.06074933
0.044756617 -0.031580586 -0.052509572 -0.049743958 0.106591396 0.093377486 0.07382837 -0.0428835
0.06026259 0.009177177 0.012675568 0.041003063 -0.0011585703 0.058420677 -0.03736129 -0.016367326
-0.028864037 0.0052183596 -0.07748421 -0.04542262 0.080533236 -0.0050867423 0.13379048 0.06804084

norm1.weight f4 [320, 64]
00000000: 91da 7e3f 9a05 7f3f b8bb 843f a969 7b3f
00000010: 6eae 7b3f 2b7b 773f 8ec9 803f c329 7b3f
00000020: 6449 823f 9bb0 7d3f 7d25 793f 4589 7b3f
00000030: 9e7f 7f3f 1222 7f3f b81a 7c3f ed99 7e3f
00000040: e41f 813f df8f 7f3f 861f 803f e012 813f
00000050: 6106 833f 5897 763f 97c9 783f 4550 803f
00000060: dce1 813f 9647 7e3f 1b5f 7e3f 98d9 7f3f
00000070: 94b1 7d3f be09 7c3f ed7e 863f e8f8 743f
00000080: a93a 703f e74f 853f f435 833f 4c9a 813f
00000090: d0c1 843f 56f0 843f 1863 7f3f 58d7 7d3f
000000a0: 90a3 7e3f f193 803f 0304 803f cef4 7a3f
000000b0: 57b5 783f 8f80 803f 210c 843f 63cd 763f
000000c0: f7a2 7d3f c1c0 7e3f 4308 833f c37a 823f
000000d0: b5ce 823f 6116 7c3f c588 753f a042 773f
000000e0: f723 743f 82fd 7e3f 8b0f 763f f1bf 7f3f
000000f0: e96b 803f 9470 7f3f a76d 803f bfc3 773f
00000100: 1eb9 7b3f 751b 7f3f 1391 813f 8954 793f
00000110: 2b07 813f ad9e 7e3f 1738 7e3f 8f5c 7f3f
00000120: 0094 813f 6553 803f 6a95 803f f3ff 783f
00000130: 91c4 813f ce3a 823f 267e 7c3f fdf3 7c3f
00000140: 67e8 803f f73a 813f 5c32 7d3f 4fa1 803f
00000150: bf56 803f b4d6 803f 13de 823f e0bb 7c3f
00000160: 500b 813f af5f 7f3f 1a6e 793f a760 7c3f
00000170: c2d2 7f3f 6318 813f 6d8f 803f 2224 7e3f
00000180: 5dfd 863f 8efe 833f b4d2 783f 92bf 7b3f
00000190: 2dff 7a3f 9464 813f 8590 7d3f e23b 803f
000001a0: 0429 7e3f 42ee 7e3f 1335 803f ebd2 7c3f
000001b0: ca0e 7f3f 5d58 823f 8325 803f 9cb8 7f3f
000001c0: d501 803f 648e 7a3f daa5 803f 0b52 813f
000001d0: 8454 7f3f cacf 7b3f b0c7 7f3f df0c 7a3f
000001e0: cd5c 7c3f b907 803f f880 803f cbad 803f
000001f0: 87ed 813f ee41 803f 71f5 7e3f 86cc 7b3f
00000200: 0173 823f b66a 823f 1f29 873f b50e 7d3f
00000210: d0c3 823f c7b7 783f a971 833f 57eb 7d3f
00000220: a175 833f b211 7f3f cc2e 7a3f d138 7f3f
00000230: 0ddf 823f 9813 813f 9112 803f c6fb 7f3f
00000240: 8acc 813f 3974 823f a17d 813f c2b1 803f
00000250: f2c6 873f 0e30 793f 574d 7c3f 433f 823f
00000260: cda7 823f 5dc6 803f 73c1 7b3f 79a6 783f
00000270: de13 7f3f d8a3 7b3f 5003 7c3f 34ed 763f
00000280: ab44 823f 28f3 803f 85bd 763f 1743 803f
00000290: 7d5d 813f 05a5 813f 339e 813f 2d35 823f
000002a0: c045 813f 6df1 7e3f 4da9 823f a1e1 7b3f
000002b0: 5208 783f 82dd 803f f49d 883f e8f2 783f
000002c0: 2886 803f 89c5 7e3f 905b 863f 254e 833f
000002d0: d444 883f 2076 803f b862 7a3f 16b7 783f
000002e0: 3c60 743f 59bb 7f3f 8186 7a3f a6ec 823f
000002f0: 9dfb 833f b78d 833f 16f3 813f bf37 7b3f
00000300: 84b6 7c3f 453d 803f b14f 803f 87f9 7c3f
00000310: 39b1 7d3f c0f4 7e3f b193 803f a8db 7f3f
00000320: eaac 7f3f 43ff 7e3f 5722 813f 316c 7b3f
00000330: c08b 803f a0a8 7b3f 9ec8 7b3f a651 7f3f
00000340: e0c9 7e3f bd3e 7d3f 5e69 803f f7a8 7f3f
00000350: 4732 813f bfa4 7e3f bbe9 7f3f 2c89 7f3f
00000360: 76ba 7f3f b71e 803f 61b6 7c3f 9cc6 813f
00000370: 1a9e 7e3f d7a6 873f 7019 813f 2392 713f
00000380: eb0c 843f 3e18 7e3f e172 7d3f 0e0f 7f3f
00000390: 3330 843f 245e 843f 62d7 803f 6ac8 7e3f
000003a0: 3c9c 803f 4b02 803f 6790 7e3f 3a9f 7b3f
000003b0: d1a7 7c3f 9610 823f c271 7e3f 3bcd 7d3f
000003c0: b5b3 803f 76fe 7f3f dce5 7e3f d4cc 803f
000003d0: 0c2b 7f3f 0b3f 7b3f 62c0 7c3f f065 7c3f
000003e0: 8d8a 823f 1b67 803f 7c2d 7d3f fcb0 7c3f
000003f0: a23e 7d3f ec80 7d3f 2beb 7e3f b179 7c3f
0.99552256 0.9961792 1.0369787 0.982081 0.98313034 0.96672314 1.006151 0.981106
1.0178647 0.99097604 0.9732283 0.9825633 0.99804103 0.9966136 0.9847827 0.9945362
1.0087857 0.99828905 1.000962 1.0083885 1.0236322 0.9632468 0.971826 1.0024496
1.0147052 0.9932798 0.9936387 0.99941397 0.9909909 0.98452365 1.0507485 0.956923
0.9383951 1.0415009 1.025084 1.0125213 1.0371647 1.0385845 0.9976058 0.99156713
0.99468327 1.0045148 1.0001224 0.9802979 0.971517 1.0039233 1.0316201 0.96407145
0.9907679 0.9951287 1.0236896 1.0193714 1.0219332 0.9847165 0.9591182 0.96586037
0.9536738 0.9960557 0.96117467 0.99902254 1.0032932 0.99781156 1.0033463 0.9678306
0.9832934 0.9965127 1.0122398 0.97394615 1.0080312 0.9946087 0.99304336 0.9975061
1.0123291 1.002545 1.0045598 0.9726555 1.0138112 1.0174196 0.9862999 0.98809797
1.0070924 1.009612 0.9890497 1.0049227 1.0026473 1.0065522 1.0224022 0.98724174
1.0081577 0.99755377 0.97433627 0.9858498 0.99930966 1.0085567 1.004377 0.99273884
1.054607 1.0312059 0.9719651 0.9833919 0.9804562 1.0108819 0.99048644 1.0018275
0.99281335 0.995823 1.0016197 0.98759335 0.9963194 1.0183216 1.0011448 0.99891067
1.0000559 0.9787352 1.0050614 1.0103163 0.99738336 0.98363936 0.99914074 0.9767589
0.985791 1.0002357 1.0039358 1.0053037 1.0150613 1.002012 0.99593264 0.98358953
1.0191346 1.0188816 1.0559424 0.98850566 1.0216007 0.9715542 1.0269061 0.99187225
1.0270272 0.99636376 0.97727656 0.9969607 1.022432 1.0084105 1.0005666 0.9999355
1.0140545 1.0191718 1.0116464 1.0054247 1.0607588 0.9733895 0.9855551 1.0175556
1.0207459 1.0060536 0.98342055 0.9712902 0.9963969 0.9829688 0.98442554 0.96455693
1.0177206 1.0074205 0.96382934 1.0020474 1.0106655 1.0128485 1.0126404 1.0172478
1.0099411 0.99587137 1.0207916 0.9839116 0.96887696 1.0067599 1.0673203 0.97245646
1.0040941 0.99520165 1.0496693 1.0258223 1.0646005 1.0036049 0.9780688 0.97154367
0.9545934 0.99895245 0.97861487 1.0228469 1.0311161 1.0277623 1.0152309 0.98131937
0.98715997 1.0018698 1.002432 0.9881825 0.99098545 0.9959221 1.0045072 0.99944544
0.9987322 0.9960825 1.0088605 0.9821196 1.0042648 0.98304176 0.9835299 0.9973396
0.99526787 0.98923856 1.0032156 0.99867195 1.0093468 0.9947013 0.9996602 0.9981868
0.9989389 1.0009373 0.9871579 1.0138736 0.99459994 1.059779 1.0085888 0.9436361
1.0316442 0.9925574 0.99003416 0.99632347 1.0327209 1.034123 1.006573 0.9952456
1.0047679 1.00007 0.9943909 0.98289835 0.9869357 1.0161312 0.9939233 0.9914128
1.0054842 0.9999765 0.9956949 1.0062509 0.9967506 0.9814307 0.9873105 0.98593044
1.0198532 1.0031465 0.9889753 0.98707557 0.98923695 0.99024844 0.9957759 0.98623186

norm1.bias f4 [320, 64]
00000000: 2a29 9c3b 2d88 8f3b fda9 18bd 1014 9d3c
00000010: 98eb 873c 2e89 093d 3351 c4bb 8c05 8a3c
00000020: 59ac 8ebc 7b45 0e3c 3ab0 cb3c 1315 933c
00000030: 05ec 053b 47ac b83a bbde 673c 08e1 cf3b
00000040: ffe0 20bc 42fa b93a 29ca 68ba 9d91 0abc
00000050: f68a bbbc 26fa 143d a7f0 e03c 4668 e0ba
00000060: 95a1 74bc dabb 963b e844 eb3b ab9b 253b
00000070: 9296 f23a 6197 96bc d4dc 8f3b 5e3c 2a3d
00000080: 0aed f0bc d12a d8bb 8aed 2f3c 8fcd 1abc
00000090: 307d 0abd 4a04 ccbc ef7d 7e3b 228c 053c
000000a0: 3c89 993b ae56 b2bb 49c2 45b7 b90d 963c
000000b0: 4be8 dd3c 7010 82bb 3e7f 00bd 36ed 0d3d
000000c0: f7bd 1a3c 1579 d73b e68b c3bc d462 a1bc
000000d0: 5af3 b8bc c56d 7c3c b616 203d 062d 0c3d
000000e0: 5418 3c3d 082b b03b c233 1c3d c2e8 1c3b
000000f0: 60e6 a3bb 967e 5f3b 4502 31bb 0646 013d
00000100: 441e 8e3c eeee 583b af98 49bc a766 da3c
00000110: 982c 04bc 27c7 a83b 0e39 eb3b 9770 863a
00000120: 36bb 45bc 6bd1 81bb 8810 bfbb 8cad e43c
00000130: 7e11 5bbc df7f 95bc 2a75 523c e650 413c
00000140: 5a8e debb 1c33 36bc 4e41 263c 2ebf a0bb
00000150: d96c 1bbb cb23 f1bb a59a c1bc 2e43 593c
00000160: f757 14bc 9236 c738 acbf ee3c cb91 3c3a
00000170: b796 b8bb 49b3 4cbc 322c c3bb cc2c 40bc
00000180: 85e9 b43c 37df 063d 806f 5bbc 31f8 1b3c
00000190: d65b 943c 46a7 01bc e809 263c 74c2 67bb
000001a0: 1cae de3b ad63 823b 4de7 a6ba cf35 413c
000001b0: 66f5 283b 7aca 8abc e53d 7fba 2929 aeb9
000001c0: 11be 8bb9 e75b b33c 04ac c1bb d7e8 2abc
000001d0: 5b71 2a3b 29a5 823c 41aa 88b9 5831 b83c
000001e0: 69bc 5f3c 0938 4b3a f049 96bb 59ab afbb
000001f0: cf8f 82bc 2a8f 01bb d6d4 973b 91a2 783c
00000200: a4a8 96bc e547 abbc 2375 5bbd 4f87 353c
00000210: 5258 a5bc f185 e23c 0527 ebbc 0c69 003c
00000220: 13ab c8bc 3aa7 ac3a 2800 b73c c530 483b
00000230: 18ee afbc ac2e 06bc b3fa 08ba 1e43 d5ba
00000240: 4f5f 67bc 4689 a3bc 09f7 57bc 7e69 c0bb
00000250: e388 7bbd 9df9 d13c 59d1 583c dc8c 96bc
00000260: dc74 b8bc f94e fdbb 33ed 6d3c 1d5d e73c
00000270: bb36 a23b 229f d53c 2972 35bc cbd4 0f3d
00000280: 0c9f 19bb 3a62 c4bc 6056 33bc 1e28 cc3b
00000290: 5267 2cbb eafd 70bc 96f9 7ebc 684c 9fbc
000002a0: 65ed 38bc 6a94 903b 179b afbc 77c0 833c
000002b0: 99b9 fa3c 3251 d8bb 6692 89bd 0056 d93c
000002c0: 904c c0bb 6e63 3a3b 46b8 52bd 5a9f bcbc
000002d0: df1a 85bd 7e40 acbb c86f b43c e47a de3c
000002e0: 8d9b 3c3d 6843 79ba 61ba ac3c 07dc c2bc
000002f0: 9c8c 01bd d276 edbc 7c17 82bc d549 893c
00000300: 5c38 5b3c 7eae 6cba 1c1d 84bb edbd 5d3c
00000310: df79 043c 7c6d 7e3b 0500 4cbb 4207 6fba
00000320: 5f9b e6b8 b444 523b 7a0c 26bc a2e1 a23c
00000330: f872 a2bb f79a 6a3c 3d45 863c 2273 803b
00000340: 0d96 4d3b 9631 273c 8ac0 05bb 8fc5 f43a
00000350: a40d fabb 9069 ad3b 572b eaba cb1e 8a3b
00000360: 381e 5f3a 2153 26bb 8e3b 733c 6c15 55bc
00000370: 0c54 77bc affa b4bb 827a 9cbc 315a 603d
00000380: c139 f7bc ed73 f1bc 4098 403c e58e afbc
00000390: 30e2 a4bc c009 88bc c81d 8cbb 6b35 8c3b
000003a0: fab2 9ebb 8968 79b8 da07 9e3b 4e6c 843c
000003b0: acd0 343c ec84 81bc f84f d23b ac07 d53b
000003c0: 1030 86bb 8214 243b 783a 8d3b 0087 fdbb
000003d0: 4f5f 563b 1a14 a63c 4165 293c 95f4 6d3c
000003e0: 7796 a8bc 88e3 4dba fc6d 123c 41c6 573c
000003f0: 4cbe 0f3c 39b5 343c 50a4 963b be69 5f3c
0.0047656493 0.004380247 -0.03727149 0.019174606 0.016591832 0.03357809 -0.005991125 0.016848348
-0.017416166 0.008683558 0.024864305 0.017954385 0.0020434868 0.0014089429 0.014152224 0.0063439645
-0.009819268 0.0014188963 -0.0008880222 -0.0084575685 -0.02289341 0.036371373 0.027458502 -0.001712092
-0.014931102 0.0046000304 0.007179845 0.0025269787 0.0018508008 -0.01838273 0.0043903384 0.041561477
-0.029409904 -0.006596901 0.010737786 -0.009448423 -0.033810794 -0.024904389 0.0038832386 0.008151086
0.004685549 -0.005442462 -1.1787351e-05 0.01831709 0.027088305 -0.0039692447 -0.031371348 0.03465005
0.009444705 0.0065757134 -0.02387042 -0.019700445 -0.022576977 0.0154070305 0.03908416 0.034222625
0.04592164 0.0053762235 0.038135298 0.0023942445 -0.005001828 0.003410255 -0.002700941 0.03156092
0.017348416 0.0033101398 -0.012304469 0.026660277 -0.008067273 0.005150694 0.0071784323 0.0010256943
-0.01206856 -0.003961732 -0.005830828 0.027914785 -0.01337087 -0.01824945 0.012845317 0.011799073
-0.006791872 -0.011120584 0.010147406 -0.004905603 -0.0023716001 -0.007359003 -0.02363331 0.013260646
-0.009054176 9.499224e-05 0.02914413 0.00071933557 -0.005633201 -0.012493917 -0.005956196 -0.01172943
0.022084007 0.032927718 -0.013393283 0.009519623 0.018110197 -0.007913416 0.010134198 -0.0035363706
0.006795658 0.0039791674 -0.0012733728 0.011792614 0.0025781034 -0.016942251 -0.0009736701 -0.00033218533
-0.00026653757 0.021894408 -0.0059103984 -0.01043149 0.0026007507 0.015947895 -0.0002606679 0.022484466
0.01365576 0.00077521853 -0.0045864508 -0.0053610024 -0.015937714 -0.001976917 0.0046335263 0.015175478
-0.018390961 -0.020908305 -0.053578507 0.011079623 -0.020183716 0.027651759 -0.02870513 0.007837545
-0.024495637 0.0013172396 0.022338942 0.0030546647 -0.021475837 -0.008189838 -0.00052253454 -0.0016270613
-0.014121844 -0.019962918 -0.013181456 -0.0058719506 -0.061409842 0.02563172 0.013233506 -0.018377714
-0.02251666 -0.0077303615 0.014521885 0.028242642 0.004950372 0.026076857 -0.011074581 0.035115045
-0.0023440747 -0.02397262 -0.010945886 0.0062303683 -0.00263067 -0.014708975 -0.015562436 -0.019445613
-0.011287068 0.0044122236 -0.021436257 0.016082985 0.030606078 -0.006601476 -0.067173764 0.026530266
-0.005868502 0.0028440612 -0.051445268 -0.023025203 -0.06499266 -0.0052567115 0.022025958 0.027158208
0.046046782 -0.00095086405 0.021084966 -0.023786558 -0.031628236 -0.028987322 -0.015880339 0.016758839
0.013380136 -0.0009028687 -0.0040317904 0.013534051 0.008085697 0.0038822582 -0.0031127941 -0.0009118208
-0.00010996195 0.0032084407 -0.010134811 0.01988298 -0.004957553 0.014319173 0.016390437 0.003919975
0.0031369955 0.010204693 -0.0020408952 0.00186746 -0.0076310206 0.005292125 -0.00178657 0.0042150966
0.0008511278 -0.0025379139 0.014845742 -0.013005596 -0.015095722 -0.005523048 -0.019101385 0.054773513
-0.030178906 -0.029474223 0.011755049 -0.021430442 -0.020127386 -0.016606212 -0.004276011 0.004278829
-0.004843113 -5.9463582e-05 0.0048227133 0.016164925 0.011036079 -0.015810452 0.0064182244 0.0065011587
-0.004095085 0.0025036638 0.0043099485 -0.0077370405 0.0032710617 0.020273257 0.010339082 0.014523645
-0.02057956 -0.0007854034 0.008937355 0.013169826 0.008773398 0.011029535 0.0045972243 0.013636051

norm2.weight f4 [16, 64]
00000000: 018f 823f aa8b 7e3f 7ac7 813f 88a4 7d3f
00000010: 92d3 803f f6f9 7b3f aaeb 803f d647 823f
00000020: 5d2f 813f 88d7 7e3f c9ab 7f3f 65ef 7d3f
00000030: 87a9 7e3f 956d 843f dd1e 823f 7f94 7c3f
00000040: d3b6 813f 63bb 803f 5f77 803f fc7e 803f
00000050: 1060 833f fde3 7d3f 5cea 7c3f 72aa 843f
00000060: 507f 7c3f 18bc 7f3f 9318 833f b88e 773f
00000070: de59 823f bf4c 823f 53b7 7d3f d360 7e3f
00000080: 601d 7e3f 5fbf 7a3f 93e1 823f 5dc4 7b3f
00000090: b332 7d3f 4c81 803f 5ac6 7e3f 840f 7f3f
000000a0: 85a5 7e3f f969 7b3f f123 7e3f 2097 7f3f
000000b0: f374 803f 4006 7b3f 1f11 823f 935a 7f3f
000000c0: 55dd 7d3f cbe6 7d3f 6fd0 803f 80e3 813f
000000d0: 60cd 823f 78ce 843f b9de 7e3f bc6c 7c3f
000000e0: 3dc8 793f 84a6 7a3f c1c7 7e3f b1bd 813f
000000f0: ae89 803f 1551 793f 5afc 7b3f 7c6f 813f
00000100: b70c 803f f1e9 813f 2806 7b3f fb34 803f
00000110: a811 7c3f b35c 7f3f 12a8 803f 033a 7c3f
00000120: 6751 7d3f 2b65 813f ca5b 803f af3e 7e3f
00000130: e3ef 7c3f 5908 703f ef83 7d3f b112 803f
00000140: 85e2 7f3f 88a7 7f3f 985a 7d3f f0d4 793f
00000150: 4204 7d3f dfd3 803f 509a 813f 652b 7c3f
00000160: 1523 823f 0deb 7e3f c486 783f d923 833f
00000170: 6579 7e3f d54a 893f 2730 8a3f 2071 803f
00000180: a35d 843f 99f2 813f a2ef 893f db1f 813f
00000190: 6568 803f 4ad0 813f f7b6 803f 064f 813f
000001a0: e771 7e3f c003 813f 8ee8 7f3f 63b9 803f
000001b0: 62f8 7a3f 6c63 803f 4f5a 7d3f d40a 7f3f
000001c0: aaba 7e3f cc1f 803f 5429 803f 3b65 793f
000001d0: f89c 7a3f 1f48 783f 1eaf 803f 10bd 803f
000001e0: b131 803f f65a 823f 016a 803f d8d4 7f3f
000001f0: 3daa 7e3f 9617 7e3f 4887 813f e189 793f
00000200: 414e 843f c183 823f 4220 793f 4eac 7e3f
00000210: 3a0f 7a3f b082 753f c4e5 803f 94db 7a3f
00000220: 8e28 783f fa27 813f 2762 7d3f b5fe 803f
00000230: c109 7a3f 82fb 7c3f 9223 813f ef8c 7e3f
00000240: c607 803f 7d37 823f 681f 823f 8a9f 803f
00000250: 3f46 833f 324e 723f 985b 7c3f e6b5 823f
00000260: 922a 7d3f 21f4 813f c464 803f 3874 7e3f
00000270: 5122 843f 3f74 793f 7a33 883f 316c 813f
00000280: d00f 6f3f b6de 713f da1d 833f edd0 823f
00000290: e06a 7d3f c173 833f 410b 823f 27ca 7a3f
000002a0: 2a36 803f b0f7 7d3f 63e2 7c3f 345d 793f
000002b0: f3b9 713f b3f5 7a3f f8c3 843f a25f 763f
000002c0: 2bb8 7a3f a2c2 7e3f 1308 803f 4f75 7d3f
000002d0: 5341 823f b04d 843f 8296 753f abcf 7c3f
000002e0: 4af3 783f 29a6 7b3f 8c07 773f 7d35 843f
000002f0: 1b0d 7d3f 6692 773f b2c6 7f3f 73b6 7c3f
00000300: 7d6d 803f 36c9 783f 2b9b 803f 9a47 803f
00000310: 03e0 7d3f 4304 7e3f 363b 7d3f c8b1 823f
00000320: 29c1 813f d589 7c3f 4aef 803f a3d5 823f
00000330: d4be 803f 4c76 823f 0bb0 803f 59f9 7c3f
00000340: d4b1 7b3f c88d 7b3f 625f 813f 808f 813f
00000350: 2867 7f3f 89e1 7a3f 6295 783f 6a2e 823f
00000360: 37f9 793f 94f7 7d3f 93cc 823f 35ef 7e3f
00000370: e053 7e3f 82ba 833f 8f75 803f b10b 7d3f
00000380: e435 833f 06e6 7d3f 4d96 873f d529 7d3f
00000390: 73ab 7b3f 963b 823f 74e2 7b3f 1b35 783f
000003a0: 6c30 7f3f 7b8d 7e3f 575e 7b3f d566 803f
000003b0: fef8 813f b7c4 7e3f 9d5e 7e3f 7fac 7c3f
000003c0: e030 7f3f 53ee 7e3f c94d 7a3f 355a 813f
000003d0: c9b3 7c3f 0542 843f 779f 7e3f 0d74 7e3f
000003e0: 6458 823f 2946 7a3f c290 7b3f 6059 7e3f
000003f0: 3363 783f a3bb 7a3f bb77 7b3f 3d63 803f
1.0199891 0.9943186 1.0139 0.9907918 1.0064566 0.98428285 1.0071919 1.0178173
1.0092579 0.99547625 0.998715 0.9919341 0.9947743 1.0345942 1.0165669 0.9866409
1.0133919 1.0057186 1.0036429 1.0038753 1.0263691 0.9917601 0.98795104 1.0364516
0.98631763 0.99896383 1.0241874 0.96702147 1.0183675 1.0179671 0.99107856 0.9936649
0.9926357 0.9794826 1.022509 0.983465 0.98905486 1.0039458 0.9952141 0.9963305
0.9947131 0.98208576 0.9927359 0.99839973 1.003569 0.9805641 1.0161475 0.9974758
0.9916585 0.9918029 1.0063609 1.0147552 1.0218925 1.0375509 0.995586 0.98603415
0.97571164 0.9791033 0.9952355 1.0136014 1.0042017 0.97389346 0.9843193 1.0112147
1.000388 1.0149518 0.9805627 1.0016168 0.9846444 0.9975082 1.0051291 0.9852602
0.98952335 1.0108999 1.0028012 0.993144 0.9880354 0.9376274 0.9902944 1.0005704
0.99955016 0.9986501 0.9896636 0.9759054 0.9883462 1.0064658 1.0125217 0.98503715
1.0166956 0.9957741 0.97080636 1.0245315 0.99403983 1.0725962 1.0795945 1.0034523
1.0341076 1.015216 1.0776255 1.0087847 1.0031859 1.014169 1.0055836 1.0102241
0.9939255 1.007927 0.99964225 1.0056576 0.9803525 1.0030341 0.98965925 0.996259
0.99503577 1.0009704 1.0012612 0.9742009 0.97895765 0.9698505 1.0053442 1.0057697
1.0015165 1.0184009 1.003235 0.9993415 0.99478513 0.9925474 1.011941 0.9747601
1.0336381 1.0196458 0.97314847 0.99481666 0.97679484 0.9590254 1.0070119 0.979913
0.9693688 1.0090325 0.98977894 1.007773 0.97671133 0.9882127 1.008898 0.994338
1.0002372 1.0173184 1.0165834 1.0048687 1.0255812 0.94650567 0.9857726 1.0211761
0.9889308 1.0152627 1.0030751 0.99396086 1.0322973 0.97443 1.0640709 1.0111142
0.933835 0.94480455 1.0243485 1.0220009 0.98991203 1.02697 1.0159684 0.9796471
1.001653 0.99206066 0.9878294 0.9740784 0.9442436 0.9803116 1.0372305 0.96239674
0.9793727 0.99515736 1.0002464 0.99007124 1.0176185 1.0336208 0.9593278 0.98754376
0.9724623 0.98300415 0.9649589 1.0328823 0.9884812 0.9670776 0.9991256 0.98715895
1.0033413 0.97182024 1.0047354 1.0021851 0.9916994 0.9922525 0.98918474 1.0210505
1.0137073 0.98647815 1.0073025 1.0221447 1.0058236 1.0192351 1.0053724 0.98817974
0.9831822 0.98263216 1.0107234 1.0121918 0.9976678 0.9800039 0.9710294 1.0170414
0.97645897 0.992059 1.0218681 0.9958375 0.99346733 1.0291293 1.0035876 0.98845965
1.0250821 0.9917911 1.0592743 0.98891956 0.98308486 1.0174434 0.98392415 0.9695603
0.9968326 0.9943463 0.98190826 1.0031382 1.0154111 0.99518913 0.9936312 0.9870071
0.9968395 0.99582404 0.9777494 1.0105654 0.9871183 1.0332648 0.99462074 0.9939583
1.0183225 0.97763306 0.9826776 0.99355125 0.97026366 0.9794256 0.9822957 1.0030285
