model6_params.pkl (torch, 265979 bytes, 24 tensors)

conv1.weight f4 [320, 1, 3]
-0.101474434 0.34094256 -0.4043989 0.56218386 0.41092044 0.42247763 0.030745057 -0.22201861
-0.27593425 0.011108455 0.475088 -0.07485807 -0.47154963 -0.40548038 0.3715493 0.0767897
0.00096688746 -0.2846441 0.32953137 -0.31362498 -0.379451 0.49584487 -0.2212461 -0.066103026
0.26084712 -0.28882742 0.37089238 -0.42088863 0.19003035 0.078093946 -0.12533791 -0.61639047
0.31824607 -0.5020915 -0.52797204 -0.3249291 0.0918394 0.10320688 -0.23255832 -0.10115059
-0.15867554 0.34008664 -0.21068253 0.0025059865 -0.3121517 -0.59789646 0.4457819 -0.19449998
-0.2653423 -0.22777228 -0.010354569 0.54529077 0.32372102 0.37055272 0.20978238 -0.15530007
0.5396543 -0.31033805 -0.21891788 -0.2477718 0.07581661 0.54192746 -0.097962156 -0.18236153
-0.22858275 -0.23513843 -0.14541958 -0.3788787 -0.25931585 -0.23890702 0.1087707 0.08997023
-0.45747128 0.42768815 -0.4279689 -0.078574784 0.36769405 0.2441759 -0.1820968 0.42438036
0.4215778 0.33389902 0.57418424 0.2806737 -0.15097167 0.5076011 -0.14606316 -0.23108943
-0.32812423 -0.49685618 0.27659756 -0.23276143 0.507603 -0.5611295 -0.17895518 -0.5368454
0.44678238 -0.18657856 -0.19041902 0.5703898 0.13285436 -0.50452083 -0.22024268 -0.22809558
-0.33122516 -0.22260343 0.5543178 -0.13092315 0.09904422 -0.072357275 -0.61096734 0.45187145
-0.23981664 -0.46525043 -0.37222454 -0.36105907 -0.42863104 0.53637695 0.22963761 -0.0074708066
0.3706926 -0.48373377 0.21676064 -0.29364875 -0.24739519 -0.10439476 -0.40065217 -0.03262503
0.24206878 0.19881758 0.31982985 -0.118435495 0.0038097126 -0.4879029 -0.621166 -0.47668025
-0.12590635 0.31692687 0.29227367 0.37729606 -0.18370524 -0.2438931 -0.5018719 0.5485007
0.1685789 0.04011938 0.15155305 -0.46196774 0.35842952 -0.6541371 0.3800681 0.47333962
0.14915805 -0.0476489 -0.4176226 0.30613434 0.02712041 -0.016462991 -0.09203349 -0.25984016
-0.43749362 -0.38536602 -0.48936313 -0.27691606 0.38536155 0.10359268 0.11033012 0.20969984
0.1832268 0.42644918 0.37282023 -0.098272316 -0.15345666 -0.047833007 -0.46243992 -0.051769186
-0.28339833 -0.47264305 -0.50041884 -0.24877052 -0.39023322 -0.08550484 -0.25828242 -0.45171797
0.3405496 0.41345486 -0.21137954 -0.26994643 -0.42404148 -0.004496391 -0.23719524 0.009687882
0.20990412 0.48321712 -0.093174934 0.14049186 -0.029185798 0.08995403 0.3133034 0.22104278
0.20841534 0.5470923 -0.11716576 0.30621555 -0.42468175 -0.34376973 0.007233056 -0.3430084
-0.20081227 0.44812462 0.51944786 -0.53404814 -0.120428406 0.079549484 0.011578188 0.22138326
-0.32039475 -0.2768089 0.55893475 -0.116740406 -0.21678051 -0.057420254 0.11908429 -0.17957608
0.04224509 0.17807586 -0.3761615 0.061868206 0.36108986 0.18178862 -0.335269 -0.2947391
0.5428077 0.40570456 -0.35954255 -0.36235005 0.06393062 0.43661183 0.14524695 -0.21280648
0.0047136173 0.3816708 0.03417559 -0.2816542 0.4936158 -0.44985446 0.23294567 0.17731687
0.40486205 0.13183396 -0.06802881 -0.30576465 -0.2656144 0.1610155 0.22445104 -0.087358475
00000000: d4d1 cfbd 0690 ae3e 5f0d cfbe 48eb 0f3f
00000010: 2a64 d23e fd4e d83e 0fdd fb3c d958 63be
00000020: 4147 8dbe 3d00 363c bc3e f33e 304f 99bd
00000030: f46e f1be 209b cfbe b63b be3e eb43 9d3d
00000040: b876 7d3a dfbc 91be 56b8 a83e 7493 a0be
00000050: 6747 c2be 61df fd3e 568e 62be 0661 87bd
00000060: c18d 853e 30e1 93be 9be5 bd3e b77e d7be
00000070: 5197 423e b8ef 9f3d 9558 00be c4cb 1dbf
00000080: 26f1 a23e 1289 00bf 2d29 07bf 1b5d a6be
00000090: 4c16 bc3d 215e d33d c523 6ebe 0a28 cfbd
000000a0: d77b 22be d61f ae3e 29bd 57be 7a3b 243b
000000b0: 59d2 9fbe be0f 19bf 863d e43e 012b 47be
000000c0: f2da 87be 233d 69be 36a6 29bc 2d98 0b3f
000000d0: c3be a53e 16b9 bd3e 31d1 563e fb06 1fbe
000000e0: c926 0a3f a1e4 9ebe 022c 60be e4b7 7dbe
000000f0: bd45 9b3d c2bb 0a3f 62a0 c8bd fbbc 3abe
00000100: 9911 6abe 21c8 70be dfe8 14be 64fc c1be
00000110: 0cc5 84be 0ba4 74be 2cc3 de3d 5042 b83d
00000120: ad39 eabe f1f9 da3e bd1e dbbe d1eb a0bd
00000130: 6542 bc3e 3f09 7a3e 9577 3abe 6248 d93e
00000140: 0cd9 d73e d0f4 aa3e bdfd 123f 77b4 8f3e
00000150: 5198 1abe 25f2 013f 9591 15be b5a2 6cbe
00000160: e6ff a7be ef63 febe 329e 8d3e 0359 6ebe
00000170: 45f2 013f 2fa6 0fbf 0740 37be b36e 09bf
00000180: a9c0 e43e 730e 3fbe 34fd 42be 1105 123f
00000190: f90a 083e 4728 01bf 4c87 61be e391 69be
000001a0: 5896 a9be 27f2 63be c5e7 0d3f b810 06be
000001b0: b2d7 ca3d 0d30 94bd 5b68 1cbf b25b e73e
000001c0: 7e92 75be 4e35 eebe 3794 bebe bcdc b8be
000001d0: 8775 dbbe 0050 093f 1f26 6b3e abcd f4bb
000001e0: 6ccb bd3e f4ab f7be 80f6 5d3e 2159 96be
000001f0: 2a55 7dbe eccc d5bd 4822 cdbe d3a1 05bd
00000200: e1e0 773e d696 4b3e bdc0 a33e 4f8e f2bd
00000210: 5fac 793b 69ce f9be bc04 1fbf 6f0f f4be
00000220: 98ed 00be 3d44 a23e e5a4 953e f32c c13e
00000230: 3a1d 3cbe 1dbf 79be ad7a 00bf 8b6a 0c3f
00000240: f29f 2c3e 3854 243d b930 1b3e 0987 ecbe
00000250: 1384 b73e 8775 27bf 4998 c23e 9259 f23e
00000260: e3bc 183e 7e2b 43bd a1d2 d5be a4bd 9c3e
00000270: 9f2b de3c 65dd 86bc 0e7c bcbd c509 85be
00000280: 2aff dfbe b24e c5be ce8d fabe f1c7 8dbe
00000290: 1c4e c53e 6628 d43d c2f4 e13d 8ebb 563e
000002a0: ce9f 3b3e 8c57 da3e 4be2 be3e ff42 c9bd
000002b0: be23 1dbe 8bec 43bd edc4 ecbe ed0b 54bd
000002c0: 9619 91be 45fe f1be 731b 00bf b3bd 7ebe
000002d0: a6cc c7be 291d afbd 983d 84be 9447 e7be
000002e0: 845c ae3e 5bb0 d33e e173 58be 6b36 8abe
000002f0: f71b d9be 7656 93bb 4fe3 72be ecb9 1e3c
00000300: 1bf1 563e 3c68 f73e 80d2 bebd 19dd 0f3e
00000310: 0e17 efbc d239 b83d 4e69 a03e 0a59 623e
00000320: d56a 553e 3e0e 0c3f 9af4 efbd 49c8 9c3e
00000330: e36f d9be 9602 b0be 4503 ed3b cc9e afbe
00000340: bba1 4dbe 9770 e53e 89fa 043f 61b7 08bf
00000350: 2ba3 f6bd d7ea a23d 71b2 3d3c 4bb2 623e
00000360: c80a a4be e5b9 8dbe 5916 0f3f 9815 efbd
00000370: b6fb 5dbe 8031 6bbd 77e2 f33d cbe2 37be
00000380: 3009 2d3d 8559 363e 3d98 c0be 8469 7d3d
00000390: c5e0 b83e cc26 3a3e 61a8 abbe 0be8 96be
000003a0: 72f5 0a3f 82b8 cf3e f615 b8be f285 b9be
000003b0: 0fee 823d 968b df3e 9ebb 143e f1e9 59be
000003c0: b074 9a3b 5b6a c33e b4fb 0b3d fb34 90be
000003d0: 36bb fc3e 5353 e6be 4f89 6e3e 8e92 353e
000003e0: 144a cf3e 7bff 063e b052 8bbd 2f8d 9cbe
000003f0: 9cfe 87be 3fe1 243e 7ed6 653e 00e9 b2bd

conv1.bias f4 [320]
0.45303112 -0.3431759 -0.53712296 -0.5394422 0.68117046 -0.19221207 -0.4345732 -0.44546604
0.35305718 0.20002887 -0.34314874 0.36316493 0.3384279 -0.5705639 0.50098866 -0.29048708
-0.4062751 0.33434653 -0.4023396 0.2742652 0.32828733 0.08958738 -0.15748446 -0.11512153
0.4509491 0.4410976 0.1987071 -0.43300688 0.40377757 -0.2532708 0.20716627 0.206406
-0.14645067 -0.046254896 0.54435766 -0.24479668 -0.2920037 -0.47517604 -0.40640298 -0.5012116
-0.015306731 -0.024956256 0.08384484 -0.11628471 -0.2437368 -0.597469 0.013934916 -0.1076057
-0.08613119 0.09798707 -0.3001924 -0.09870536 0.4144592 0.19108249 -0.45121 0.11518953
-0.060047537 -0.40808856 -0.5014312 0.29645103 -0.49765107 0.03159876 0.62704563 0.22373351
-0.39911935 -0.27892298 -0.017398896 -0.08232079 -0.5043165 -0.56180125 0.5591713 -0.5106084
-0.17613196 -0.00879082 -0.04214366 0.4124958 0.02236601 0.47528088 -0.44445723 -0.3425279
-0.5291593 -0.3658232 -0.25717887 -0.5736946 0.5048578 0.6086927 0.3950359 0.43280813
0.29407308 -0.41168803 -0.12981956 -0.20606554 -0.48178607 -0.18416399 0.23947781 -0.3874014
0.2739841 -0.15542261 -0.35239884 0.34306732 0.24762061 -0.49131605 -0.0010143839 -0.025893841
0.49659845 -0.084539905 0.20896453 0.022342747 0.08107846 0.33103094 -0.55010736 0.51844305
-0.11135877 -0.11732281 -0.062421564 0.18061753 0.20476468 0.5093246 0.39195657 0.052713305
-0.43828171 0.16577944 -0.36636046 -0.259508 0.5132546 -0.20538379 0.22987862 0.37775737
0.19662814 -0.6292382 0.37354916 -0.15140077 0.12399454 -0.56309754 0.036159076 0.51132166
0.24083635 0.036725372 0.30887422 -0.3789579 0.5398757 0.14091152 -0.21743557 0.58340967
-0.015760839 -0.32140547 -0.28073063 -0.08559502 -0.13244164 -0.49335042 -0.6763496 -0.6032137
0.4143528 -0.22877319 0.3624934 0.44703543 0.46387434 0.4833419 -0.37951046 0.46888047
0.13154598 0.013672047 -0.21402912 0.4851684 -0.5482274 0.6352028 -0.13497533 -0.57933515
0.6085176 5.8205882e-05 -0.600477 0.120291755 0.42280835 0.46121258 -0.47496447 -0.526209
0.54109186 0.2720967 -0.42769182 -0.00050658383 0.020723013 -0.03744659 0.24122225 -0.1335228
0.075717635 0.33145526 0.6021991 0.20666684 0.44751495 0.5597763 0.24921945 0.3044429
-0.4411589 0.23374288 -0.28457043 0.47178823 -0.3899103 -0.6270719 -0.059597258 0.38431334
-0.3698776 -0.5343956 -0.5576835 0.11785452 0.00085833087 -0.034434065 -0.59755176 -0.4038635
-0.1289934 -0.37360132 -0.5522086 -0.020925509 0.54406416 -0.3850311 -0.14718115 -0.39171457
-0.04124702 -0.48616612 0.5248224 -0.38787618 0.0275303 0.28451118 -0.5609893 -0.24099472
0.38913983 0.098512866 0.32480815 0.40822163 0.4578808 0.21651739 -0.4344405 0.47767794
0.5733287 0.38175228 0.35136735 -0.23526448 0.6325261 -0.15990466 -0.4563448 0.5148805
-0.23769893 -0.2904156 -0.49971458 0.64199966 -0.14008595 0.18596515 0.030918995 0.41386706
-0.031996634 -0.5850407 -0.03399636 -0.23913017 0.54840696 -0.53738254 0.6009843 -0.51614416
00000000: b2f3 e73e c0b4 afbe e480 09bf e218 0abf
00000010: 3061 2e3f 3ed3 44be 6180 debe 2014 e4be
00000020: e9c3 b43e 5ed4 4c3e 31b1 afbe c1f0 b93e
00000030: 6c46 ad3e 7a10 12bf cb40 003f b9ba 94be
00000040: 4a03 d0be 782f ab3e 75ff cdbe 7d6c 8c3e
00000050: 4715 a83e 9779 b73d 9b43 21be d6c4 ebbd
00000060: cde2 e63e 8bd7 e13e e079 4b3e 14b3 ddbe
00000070: efbb ce3e b6ac 81be 6523 543e 185c 533e
00000080: 2af7 15be c675 3dbd 065b 0b3f fbab 7abe
00000090: 8281 95be 464a f3be 0d14 d0be 674f 00bf
000000a0: 15c9 7abc 1071 ccbc d8b6 ab3d ae26 eebd
000000b0: 2496 79be baf3 18bf 464f 643c 6160 dcbd
000000c0: 8d65 b0bd 72ad c83d d1b2 99be 0926 cabd
000000d0: ff33 d43e 21ab 433e ff04 e7be 7de8 eb3d
000000e0: 68f4 75bd fcf0 d0be cc5d 00bf 6ec8 973e
000000f0: 1fcc febe b46d 013d 1086 203f 661a 653e
00000100: 5f59 ccbe fece 8ebe 2188 8ebc cd97 a8bd
00000110: e31a 01bf 35d2 0fbf da25 0f3f 3bb7 02bf
00000120: f05b 34be 5f07 10bc d59e 2cbd a632 d33e
00000130: ec38 b73c 0458 f33e e68f e3be d15f afbe
00000140: fc76 07bf 2e4d bbbe f3ac 83be a6dd 12bf
00000150: 5c3e 013f 49d3 1b3f 2542 ca3e 0799 dd3e
00000160: bf90 963e c6c8 d2be 6bef 04be d802 53be
00000170: aaac f6be 7c95 3cbe ac39 753e 7a59 c6be
00000180: a547 8c3e 1b27 1fbe 9f6d b4be 85a6 af3e
00000190: 4290 7d3e c78d fbbe 13f5 84ba 521f d4bc
000001a0: 2742 fe3e 4223 adbd ccfa 553e 2308 b73c
000001b0: 770c a63d e37c a93e d6d3 0cbf afb8 043f
000001c0: 1110 e4bd f146 f0bd c1ad 7fbd cdf3 383e
000001d0: d5ad 513e 1963 023f 88ae c83e e8e9 573d
000001e0: 7666 e0be 16c2 293e 9993 bbbe 3cde 84be
000001f0: a764 033f 2150 52be 4d65 6b3e 6a69 c13e
00000200: e358 493e c115 21bf d641 bf3e ce08 1bbe
00000210: d9f0 fd3d 2927 10bf 8a1b 143d fae5 023f
00000220: ce9d 763e 586d 163d c324 9e3e c506 c2be
00000230: 4b35 0a3f 1c4b 103e 6ea7 5ebe 565a 153f
00000240: e01c 81bc 428f a4be edbb 8fbe 714c afbd
00000250: c89e 07be 6d98 fcbe 3f25 2dbf 376c 1abf
00000260: 0d26 d43e 8543 6abe bc98 b93e d4e1 e43e
00000270: f080 ed3e 9778 f73e 324f c2be 1a11 f03e
00000280: fdb3 063e b900 603c 732a 5bbe fe67 f83e
00000290: a258 0cbf a79c 223f f936 0abe 4f4f 14bf
000002a0: cfc7 1b3f 1722 7438 dcb8 19bf 865b f63d
000002b0: 567a d83e 0e24 ec3e 8b2e f3be a2b5 06bf
000002c0: ff84 0a3f 4250 8b3e 6cfa dabe 44cc 04ba
000002d0: 4fc3 a93c 9861 19bd f702 773e 33ba 08be
000002e0: d911 9b3d 81b4 a93e b829 1a3f 79a0 533e
000002f0: ae20 e53e 804d 0f3f 6233 7f3e f1df 9b3e
00000300: 94df e1be 4b5a 6f3e 37b3 91be 3a8e f13e
00000310: 53a2 c7be c987 20bf 411c 74bd b8c4 c43e
00000320: 9960 bdbe 26ce 08bf 59c4 0ebf b65d f13d
00000330: 9c01 613a bc0a 0dbd 27f9 18bf 32c7 cebe
00000340: d916 04be ac48 bfbe 8b5d 0dbf f96b abbc
00000350: ca47 0b3f cc22 c5be a8b6 16be d08e c8be
00000360: a3f2 28bd c4ea f8be c35a 063f b597 c6be
00000370: 3987 e13c 73ab 913e ff9c 0fbf 52c7 76be
00000380: 563d c73e 1dc1 c93d 414d a63e 6d02 d13e
00000390: 5a6f ea3e bcb6 5d3e fc6e debe 3492 f43e
000003a0: abc5 123f 0975 c33e 6ce6 b33e 2ce9 70be
000003b0: 3bed 213f 0cbe 23be 07a6 e9be 35cf 033f
000003c0: 5967 73be 5bb1 94be 97da ffbe 175a 243f
000003d0: b172 0fbe a66d 3e3e d549 fd3c 62e6 d33e
000003e0: e70e 03bd 3ac5 15bf c43f 0bbd 8ade 74be
000003f0: 6664 0c3f e791 09bf 1bda 193f 0622 04bf

conv2.weight f4 [16, 320, 1]
0.065419376 -0.056596506 -0.011801278 -0.022618882 0.019879451 -0.020743877 0.022411965 0.009740055
-0.019585727 0.01032614 -0.026390232 -0.025766581 0.06198154 0.046785984 0.0025800923 0.053840727
0.03354152 0.0034028916 -0.04491839 0.026196906 -0.062346175 -0.020095358 -0.0056711095 0.034316365
0.069816485 0.010628711 0.021953803 -0.064479806 -0.016061274 0.033539973 0.026042283 0.015460363
-0.037470605 -0.04223407 -0.034177694 -0.053330798 -0.026455082 0.0016669724 -0.03970274 -0.049718946
0.02250159 0.05231306 -0.0015553944 -0.044214915 -0.0016246189 0.0019487751 -0.02948016 -0.03314634
0.014695365 0.014573559 0.011357113 -0.016790945 0.054236487 -0.03345883 0.007385918 0.038233094
-0.043318167 -0.02174978 -0.05100074 -0.056540098 -0.03934148 -0.052226637 -0.041378602 0.018586587
-0.026650002 0.029939787 -0.03389362 -0.061639693 0.03308691 0.0002325076 -0.03895027 -0.050215475
-0.05249639 -0.0009293525 0.0021595776 0.014268389 0.052886933 -0.028543944 0.016620763 0.005547742
-0.06872802 -0.029303802 0.0035537658 -0.03474023 0.036400855 0.021788575 -0.023316704 -0.018341765
0.010996878 -0.048137233 0.007925457 -0.029558955 -0.036549814 -0.050954144 0.0015966893 0.030631578
-0.005766171 0.009618007 0.027225086 0.025136726 -0.073327996 0.023773912 0.0392693 0.0077004046
-0.027811239 -0.05392187 -0.07218753 0.0015591853 -0.0496453 -0.007862786 0.0018978916 0.019414606
0.021251379 -0.016652575 0.03884945 -0.024893198 -0.058894157 0.05148749 -0.013643469 0.030671762
0.014580871 -0.0005582233 0.07449518 -0.016829642 0.0002442148 0.0505657 -0.0292214 0.02216651
0.0076273703 -0.05349136 0.032680154 -0.059302084 0.025918547 -0.029330477 0.0065191938 -0.022093216
0.04474869 -0.020544702 -0.042942684 0.036861725 0.025019607 -0.03001912 -0.009249902 0.02767583
-0.04079678 0.019882588 0.0558452 -0.0295538 -0.04190425 0.008919158 -0.027797265 -0.045733556
0.04828198 0.033884954 -0.010882412 -0.031907536 -0.0016765931 0.016106028 0.054647043 -0.022502646
-0.012383207 -0.06439265 -0.018636499 -0.06389597 -7.84581e-05 0.04839124 -0.0002777367 -0.038948193
-0.040212937 0.027307665 -0.049592637 -0.009886048 0.029353408 -0.006181317 0.019600308 -0.047659338
0.03401246 -0.04659214 -0.059080694 0.0030644531 -0.028990807 0.0025165398 -0.028252147 0.02107492
0.028249184 -0.025469849 -0.012299046 0.01125212 -0.033726733 -0.033079483 0.019200386 0.037745558
0.002687526 0.04272119 -0.058045495 6.1016315e-05 -0.050251033 0.03953389 -0.028966393 -0.04726429
0.037795298 -0.013557247 0.044913504 0.007867611 0.03824112 -0.05590374 -0.057285044 -0.033933144
0.004607079 0.052307397 -0.001760518 -0.0677691 -0.014541078 -0.04043141 0.038923427 -0.0196588
0.046083238 -0.008783585 0.004689392 0.057193022 0.021904241 -0.021763911 -0.013140264 0.017933564
0.043283623 -0.030721223 -0.0042400286 -0.05731446 0.051818524 0.014892165 -0.07398603 -0.06573567
-0.05971715 -0.017886193 -0.05025206 0.008289297 -0.011564298 0.04657313 0.0061153225 -0.04074383
-0.027743679 0.019651776 -0.029084591 0.0008768437 0.053272896 -0.013944829 -0.04864475 0.03807427
0.016221749 -0.018113289 0.053329114 -0.03875736 0.018545633 -0.018340783 -0.03709037 -0.0835086
00000000: 98fa 853d bdd1 67bd 265a 41bc 3c4b b9bc
00000010: 3bda a23c 10ef a9bc 4c99 b73c c094 1f3c
00000020: 3f72 a0bc f82e 293c 5430 d8bc 7014 d3bc
00000030: 5be0 7d3d a9a2 3f3d c416 293b 1888 5c3d
00000040: d562 093d 0c03 5f3b 59fc 37bd e59a d63c
00000050: b45e 7fbd 059f a4bc b7d4 b9bb 518f 0c3d
00000060: f2fb 8e3d 0c24 2e3c 76d8 b33c fd0d 84bd
00000070: ef92 83bc 3661 093d a056 d53c 764d 7d3c
00000080: c77a 19bd a2fd 2cbd e9fd 0bbd 6571 5abd
00000090: 54b8 d8bc 507e da3a 579f 22bd 18a6 4bbd
000000a0: 4155 b83c 3846 563d 60de cbba b31a 35bd
000000b0: 2af1 d4ba 0b6e ff3a 6080 f1bc 75c4 07bd
000000c0: d4c4 703c f0c5 6e3c 2f13 3a3c 2a8d 89bc
000000d0: 1427 5e3d 200c 09bd 9205 f23b 4e9a 1c3d
000000e0: 646e 31bd 982c b2bc 27e6 50bd 9796 67bd
000000f0: 8824 21bd 99eb 55bd 9c7c 29bd e642 983c
00000100: 1b51 dabc 4944 f53c 09d4 0abd e779 7cbd
00000110: 2486 073d 49cd 7339 518a 1fbd beae 4dbd
00000120: 7406 57bd ca9f 73ba b387 0d3b f6c5 693c
00000130: f89f 583d fdd4 e9bc 4428 883c d5c9 b53b
00000140: 47c1 8cbd 870e f0bc 4ce6 683b c54b 0ebd
00000150: 1019 153d f47d b23c ac02 bfbc 7841 96bc
00000160: 402c 343c 8c2b 45bd c7d9 013c 9f25 f2bc
00000170: 42b5 15bd 4bb5 50bd 0148 d13a 13ef fa3c
00000180: 26f2 bcbb d894 1d3c 2507 df3c 89eb cd3c
00000190: fd2c 96bd 82c1 c23c d8d8 203d ad53 fc3b
000001a0: 65d4 e3bc 2edd 5cbd 0ed7 93bd 945d cc3a
000001b0: df58 4bbd ead2 00bc adc2 f83a 610b 9f3c
000001c0: 5f17 ae3c fb6a 88bc 9a20 1f3d d2ec cbbc
000001d0: 003b 71bd 8ce4 523d db88 5fbc 5943 fb3c
000001e0: 9be4 6e3c bb55 12ba ee90 983d 51de 89bc
000001f0: f509 8039 fb1d 4f3d b861 efbc 8a96 b53c
00000200: 05ef f93b c219 5bbd a0db 053d bee6 72bd
00000210: 2253 d43c 7846 f0bc f69e d53b d5fc b4bc
00000220: 674a 373d 5d4d a8bc abe4 2fbd 52fc 163d
00000230: ebf5 cc3c a8ea f5bc e78c 17bc 6cb8 e23c
00000240: 861a 27bd cfe0 a23c f0bd 643d d01a f2bc
00000250: caa3 2bbd a921 123c 17b7 e3bc 1c53 3bbd
00000260: 53c3 453d f3ca 0a3d 254c 32bc 7ab1 02bd
00000270: 21c1 dbba caf0 833c 94d5 5f3d 7857 b8bc
00000280: efe2 4abc 4be0 83bd 92ab 98bc e4db 82bd
00000290: df89 a4b8 e535 463d 309d 91b9 2488 1fbd
000002a0: 52b6 24bd 53b4 df3c a621 4bbd 17f9 21bc
000002b0: 8f76 f03c a58c cabb d390 a03c 7036 43bd
000002c0: a650 0b3d 66d7 3ebd 99fe 71bd fed4 483b
000002d0: 217e edbc 88ec 243b 0c71 e7bc 50a5 ac3c
000002e0: d56a e73c 25a6 d0bc f081 49bc d05a 383c
000002f0: 0b25 0abd 5a7e 07bd 214a 9d3c 169b 1a3d
00000300: 3421 303b 6afc 2e3d 1dc1 6dbd c5eb 7f38
00000310: 07d4 4dbd 4aee 213d ee4a edbc 3398 41bd
00000320: 3ecf 1a3d 371f 5ebc 39f7 373d 27e7 003c
00000330: b8a2 1c3d 52fb 64bd b9a3 6abd 7bfd 0abd
00000340: fbf6 963b 4840 563d 2ec1 e6ba 87ca 8abd
00000350: b43d 6ebc 689b 25bd 2c6e 1f3d 7e0b a1bc
00000360: c7c1 3c3d 07e9 0fbc 79a9 993b 3b43 6a3d
00000370: 8670 b33c 3b4a b2bc 434a 57bc 69e9 923c
00000380: 2b4a 313d 13ab fbbc f0ef 8abb 91c2 6abd
00000390: a93f 543d 44fe 733c fd85 97bd 6ca0 86bd
000003a0: f899 74bd 1186 92bc 1bd5 4dbd d5cf 073c
000003b0: 2e78 3dbc 77c3 3e3d 0b63 c83b 01e3 26bd
000003c0: b646 e3bc c3fc a03c cf42 eebc fcdb 653a
000003d0: ae34 5a3d da78 64bc b83f 47bd c4f3 1b3d
000003e0: 79e3 843c 5262 94bc a16f 5a3d 0ac0 1ebd
000003f0: 03ed 973c 693f 96bc 12ec 17bd 8f06 abbd

conv2.bias f4 [16]
0.02832071 -0.03821117 -0.005049705 -0.00095086975 -0.0147173 -0.047159947 -0.0062339595 -0.032722536
-0.017220633 -0.050283495 0.026125414 -0.049333684 0.0135997785 0.020585002 -0.0013771476 -0.011181791
00000000: d500 e83c 5183 1cbd ff77 a5bb ca43 79ba
00000010: d520 71bc ca2a 41bd 3e46 ccbb 1108 06bd
00000020: 4912 8dbc 11f6 4dbd f704 d63c 1e12 4abd
00000030: 9bd1 5e3c e1a1 a83c 6881 b4ba d533 37bc

conv3.weight f4 [64, 16, 1]
0.15011722 0.2162916 0.118221164 0.1531247 -0.13903269 0.0265247 -0.09661288 -0.0056175096
0.24344988 -0.1803726 0.20067994 -0.1477081 0.027403671 0.17477427 -0.085547164 -0.24472776
0.14697799 -0.22202615 0.11919481 0.0678019 0.20022516 0.19446597 -0.19416776 0.1344488
0.104513675 -0.19448002 0.10829134 -0.20016058 0.22393256 -0.0706554 -0.015155534 0.1930517
-0.19186585 -0.05183087 -0.116473965 0.19791146 0.22503968 -0.120814696 0.047588754 -0.0009786796
-0.13159223 0.0594721 -0.2254835 0.19368777 -0.13751167 0.15255183 0.1816076 0.19967853
0.15187024 -0.10723847 -0.17309487 -0.2126973 -0.17741223 -0.07988806 0.10446174 -0.1966833
0.17840321 0.044115983 0.16691948 -0.042376895 -0.23234722 -0.20482607 0.013890345 0.040572125
0.07364976 -0.030349612 -0.107107714 0.11433077 0.049408257 0.1871878 0.243585 0.22351985
0.12955534 -0.05657315 -0.13099816 -0.16119856 0.041435644 -0.21765582 -0.14918715 0.23343667
-0.24059407 -0.25307828 -0.15882312 -0.1968082 -0.10289532 0.04365168 -0.026869696 0.054388404
-0.14994493 -0.2323194 0.07239914 0.06356624 0.24372269 -0.08500118 -0.203947 0.09504518
-0.038084097 0.13013987 -0.18619683 0.070627704 -0.16186242 -0.11801308 0.2579676 -0.23890394
-0.03560527 -0.15535186 -0.16520761 0.21629311 0.063954905 -0.18222328 0.21664765 0.1801193
0.14439337 -0.107817106 -0.19615509 0.18121982 0.17402908 0.08020039 -0.021541238 0.1414173
0.22157517 -0.18174721 0.1092161 -0.18559071 -0.2558705 -0.2404482 0.13010734 0.028288053
0.15237337 -0.24404703 -0.18489805 0.026535083 -0.18920653 -0.09162971 -0.16662696 0.09962261
-0.1271316 0.1432654 0.17749186 0.18277612 -0.1674586 0.17426234 -0.04851878 0.12988247
-0.264302 0.14381394 -0.19852932 0.011697758 0.23711175 -0.011328077 -0.1695547 -0.16686533
-0.049308628 -0.07702148 0.2281887 -0.08230787 0.071453445 -0.10923747 -0.10547628 0.15785272
-0.030703753 0.18077715 -0.17710947 0.11244714 0.17558867 -0.20474781 -0.02259965 -0.053996854
0.13266063 0.11430352 -0.2126792 0.09372824 -0.119681 0.22241627 0.04942025 -0.1816076
-0.027135653 -0.121276215 0.15536685 -0.1492737 0.0014769621 -0.23204899 0.047664206 -0.14786516
-0.039020192 -0.19937158 -0.046594057 -0.09035487 -0.076962784 0.014903742 -0.027198482 -0.15491877
-0.21373607 -0.14173767 0.12807733 0.23526052 0.029631324 0.18610789 0.1310013 -0.24333285
-0.01763101 0.24509156 -0.15918681 -0.064931355 0.033294864 0.21854596 -0.056641545 0.02755355
-0.10137756 0.12433823 -0.03240269 0.14412208 0.003242105 -0.1973444 0.073681094 0.084491305
0.13921447 0.07769894 0.079793066 -0.10369417 0.22967838 0.1243212 -0.15789004 0.044068433
-0.09777975 -0.074104026 -0.024713581 0.19340552 -0.21727243 -0.04732108 0.23145138 -0.049013216
-0.228049 0.08081979 -0.082605146 0.0015286318 0.055450093 0.17876346 0.104311906 -0.08695499
-0.07691869 0.14525478 0.05297179 0.10937271 -0.011687228 0.25337163 -0.21708097 0.109900884
-0.17140955 0.12756763 0.03598254 0.2529157 0.24431139 -0.13295904 0.066195115 -0.17377815
00000000: 54b8 193e 8c7b 5d3e f01d f23d b9cc 1c3e
00000010: 965e 0ebe 544a d93c f9dc c5bd 1613 b8bb
00000020: ed4a 793e 98b3 38be 0b7f 4d3e cb40 17be
00000030: aa7d e03c 07f8 323e 5a33 afbd ea99 7abe
00000040: 6681 163e d35a 63be 691c f43d b9db 8a3d
00000050: d307 4d3e 1622 473e ead3 46be f2ac 093e
00000060: 440b d63d c525 47be dac7 dd3d e5f6 4cbe
00000070: 944e 653e c7b3 90bd eb4e 78bc 58af 453e
00000080: 7b78 44be 9b4c 54bd e789 eebd 4da9 4a3e
00000090: cd70 663e b26d f7bd 6dec 423d 0a47 80ba
000000a0: 1dc0 06be 0499 733d 26e5 66be 1656 463e
000000b0: dccf 0cbe 8c36 1c3e 58f7 393e 8778 4c3e
000000c0: df83 1b3e d89f dbbd c83f 31be 52cd 59be
000000d0: 8dab 35be 5a9c a3bd 09f0 d53d 5967 49be
000000e0: 55af 363e f6b2 343d f1ec 2a3e 6593 2dbd
000000f0: 6eec 6dbe edbd 51be 5494 633c f52e 263d
00000100: afd5 963d c09f f8bc 4a5b dbbd 4026 ea3d
00000110: 5060 4a3d 29ae 3f3e 596e 793e 63e2 643e
00000120: 28aa 043e 3fb9 67bd 6224 06be 3c11 25be
00000130: 6cb8 293d 2be1 5ebe 84c4 18be 060a 6f3e
00000140: 4b5e 76be 7a93 81be 87a2 22be 1788 49be
00000150: c8ba d2bd 1bcc 323d d61d dcbc 60c6 5e3d
00000160: 2a8b 19be 23e5 6dbe 0046 943d 042f 823d
00000170: 7192 793e 1915 aebd 7bd7 50be 0ca7 c23d
00000180: 12fe 1bbd 6343 053e 62aa 3ebe 42a5 903d
00000190: 43bf 25be d7b0 f1bd 5414 843e 3ca3 74be
000001a0: d5d6 11bd 8f14 1fbe 2f2c 29be f17b 5d3e
000001b0: cafa 823d bd98 3abe e2d8 5d3e 3271 383e
000001c0: dbdb 133e 37cf dcbd e1dc 48be b091 393e
000001d0: ae34 323e 1a40 a43d 4077 b0bc b2cf 103e
000001e0: 9ae4 623e f11b 3abe b1ac df3d 7e0b 3ebe
000001f0: 7501 83be 0e38 76be dc3a 053e 59bc e73c
00000200: c407 1c3e 77e7 79be ea55 3dbe 1a60 d93c
00000210: 5bbf 41be 5ba8 bbbd 42a0 2abe f006 cc3d
00000220: c92e 02be 2ab4 123e 6dc0 353e aa29 3b3e
00000230: 447a 2bbe d471 323e a1bb 46bd e9ff 043e
00000240: 9752 87be f643 133e 454b 4bbe f4a7 3f3c
00000250: 6ccd 723e 6699 39bc bf9f 2dbe bfde 2abe
00000260: d8f7 49bd 70bd 9dbd 4caa 693e 0791 a8bd
00000270: 2f56 923d e5b7 dfbd f303 d8bd 25a4 213e
00000280: 7086 fbbc a51d 393e 2f5c 35be b04a e63d
00000290: 84cd 333e 69a9 51be e722 b9bc ce2b 5dbd
000002a0: 30d8 073e f717 ea3d 94c8 59be 97f4 bf3d
000002b0: 501b f5bd 17c1 633e e36c 4a3d 58f7 39be
000002c0: 974b debc aa5f f8bd 7d18 1f3e 34db 18be
000002d0: a096 c13a 409e 6dbe 8b3b 433d f769 17be
000002e0: a3d3 1fbd 1028 4cbe 69d9 3ebd f90b b9bd
000002f0: aa9e 9dbd d32e 743c 5acf debc 07a3 1ebe
00000300: a1dd 5abe ae23 11be b426 033e 22e8 703e
00000310: 64bd f23c 1193 3e3e 3425 063e 3f2c 79be
00000320: e86e 90bc 48f9 7a3e de01 23be bbfa 84bd
00000330: 3260 083d 83ca 5f3e f700 68bd fcb7 e13c
00000340: 0a9f cfbd 0ba5 fe3d afb8 04bd bd94 133e
00000350: 7f79 543b a714 4abe 1de6 963d c709 ad3d
00000360: 3d8e 0e3e 9f20 9f3d 8c6a a33d 9c5d d4bd
00000370: cf30 6b3e 1d9c fe3d edad 21be 1a81 343d
00000380: c040 c8bd dac3 97bd 2374 cabc 190c 463e
00000390: aa7c 5ebe c0d3 41bd 9701 6d3e 15c2 48bd
000003a0: ad85 69be d984 a53d e32c a9bd 5f5c c83a
000003b0: a31f 633d c50d 373e 7ba1 d53d 7515 b2bd
000003c0: 8c87 9dbd abbd 143e f3f8 583d cdfe df3d
000003d0: ca7b 3fbc edb9 813e 794a 5ebe b713 e13d
000003e0: fc85 2fbe 17a1 023e 6e62 133d 2b7e 813e
000003f0: c42c 7a3e 6a26 08be 4e91 873d e6f2 31be

conv3.bias f4 [64]
0.15916388 -0.10687126 0.20643839 -0.19674455 0.12449164 -0.20212652 0.19359471 -0.22068994
-0.19649832 0.04194963 0.11095105 -0.0147157265 0.20587918 0.21729742 0.020939922 -0.16087364
-0.21330547 -0.20794675 -0.18846452 -0.15897961 -0.0026778765 -0.11495715 0.19892606 0.17643489
-0.23804024 0.06812256 0.05321394 0.086983696 0.17299756 -0.09819343 -0.14067973 -0.106263965
0.0007852569 -0.11120199 0.19465832 -0.014018188 0.035733394 0.08004781 -0.07284919 0.03484134
0.12836452 0.02540399 0.012203213 0.06484373 0.20595038 -0.11977236 -0.21667975 0.15808164
0.09508665 0.09946014 0.04271584 0.124629356 -0.0022181948 -0.114281945 -0.14411281 -0.026203476
0.13578229 -0.111338064 -0.20458251 -0.0042750994 -0.03848938 -0.17652692 0.04349063 -0.03884027
00000000: dbfb 223e 52df dabd 9664 533e 6777 49be
00000010: 79f5 fe3d 41fa 4ebe b13d 463e 8bfc 61be
00000020: db36 49be 60d3 2b3d 4e3a e33d 3b1a 71bc
00000030: fed1 523e 3783 5e3e 338a ab3c 0fbc 24be
00000040: c06c 5abe feef 54be d8fc 40be 8dcb 22be
00000050: 507f 2fbb a76e ebbd 46b3 4b3e 59ab 343e
00000060: d2c0 73be d783 8b3d dcf6 593d 8224 b23d
00000070: 4626 313e a319 c9bd 590e 10be eca0 d9bd
00000080: b3d9 4d3a debd e3bd 8354 473e 8bac 65bc
00000090: 2e5d 123d 1bf0 a33d f531 95bd cbb5 0e3d
000000a0: fd71 033e 071c d03c fcef 473c cacc 843d
000000b0: a8e4 523e 364b f5bd 4ce1 5dbe 27e0 213e
000000c0: cabc c23d c2b1 cb3d cef6 2e3d ad3d ff3d
000000d0: 225f 11bb a70c eabd 4f92 13be aca8 d6bc
000000e0: 830a 0b3e 3605 e4bd 147e 51be 2216 8cbb
000000f0: 0aa7 1dbd 79c3 34be 3b23 323d fa16 1fbd

conv4.weight f4 [1, 64, 1]
-0.10427747 0.132149 -0.12413876 0.0159859 0.0035630907 -0.075058036 -0.12047419 -0.03877402
0.06366833 -0.10674674 -0.010149677 -0.122727565 -0.08598599 -0.10968763 -0.010478569 -0.13275345
-0.14408863 0.018590907 0.079520136 0.017437467 -0.08598755 -0.08421753 0.08548985 0.051878963
-0.054617673 0.014984099 0.081600904 0.06910446 -0.029099924 -0.0716933 -0.10793105 -0.019288363
0.06308643 -0.11443309 -0.07728265 -0.12584457 0.08624011 -0.096923195 0.09142435 0.07535027
0.05613948 0.09647994 -0.08607824 0.08315577 0.08234784 -0.12989867 -0.0211777 -0.04956436
0.0103796255 0.0027928015 0.13346711 -0.048408482 -0.086978056 -0.05483286 0.01406975 -0.027046429
-0.06629299 -0.13409281 0.09410837 0.11208396 -0.056006365 -0.08224584 -0.029937094 0.10088484
00000000: 6d8f d5bd 1152 073e 763c febd ddf4 823c
00000010: be82 693b 07b8 99bd 2cbb f6bd 82d1 1ebd
00000020: 8b64 823d 099e dabd d54a 26bc 9758 fbbd
00000030: 6c19 b0bd e8a3 e0bd 4eae 2bbc 85f0 07be
00000040: f88b 13be f54b 983c 74db a23d 05d9 8e3c
00000050: 3e1a b0bd 3e7a acbd 4d15 af3d 097f 543d
00000060: c8b6 5fbd de7f 753c 601e a73d a486 8d3d
00000070: f762 eebc f0d3 92bd f40a ddbd a102 9ebc
00000080: 7533 813d e55b eabd 5e46 9ebd 66dd 00be
00000090: a89e b03d ab7f c6bd b13c bb3d 3e51 9a3d
000000a0: 83f2 653d 4697 c53d ca49 b0bd 934d aa3d
000000b0: fca5 a83d 2804 05be db7c adbc 0004 4bbd
000000c0: 4e0f 2a3c 6f07 373b 9aab 083e f947 46bd
000000d0: 8d21 b2bd 6c98 60bd cf84 663c 7990 ddbc
000000e0: 9fc4 87bd a04f 09be e4bb c03d 468c e53d
000000f0: ee66 65bd 8270 a8bd a33e f5bc b69c ce3d

norm1.weight f4 [320, 64]
0.9956104 1.0086583 1.0010827 1.0026244 0.9970774 0.9982948 1.0135558 1.0053852
0.99961233 0.99267435 0.99759364 0.99774647 1.0025495 0.9960557 1.0013727 0.9950382
0.99403197 0.99732983 0.99403423 1.0007977 1.0009736 1.0056798 0.9944593 1.0013493
0.99362147 0.99983996 0.9971765 1.0055172 1.0290341 1.005016 0.96474737 0.9692161
1.0157839 1.0160322 0.97735703 1.0045915 1.0028242 1.0017034 1.0023289 1.0046608
0.9964141 1.0068265 0.9992424 1.0149953 1.0031309 0.99811155 0.9942648 0.9980505
0.9940932 0.9985777 0.9970065 0.9949657 0.99512166 0.9998532 0.99430346 1.0009643
0.9992596 1.0068654 1.0021963 1.019182 0.9985362 0.99919224 0.99565417 0.99986833
0.9989535 0.9947463 0.9946832 0.9985683 0.9989259 1.0004025 0.9807288 0.98584664
1.0037582 1.0029882 1.0135996 1.0038698 1.0031844 0.9973689 0.9866816 0.9977055
1.0080148 1.0073687 1.007426 0.9973448 0.993825 0.994138 1.0032728 0.9864688
1.0098776 1.0032914 1.0114367 1.0315907 0.9847833 1.0292842 1.0730201 1.0174217
0.9870965 0.9799554 1.0236458 1.0032405 1.007616 0.99751973 1.0062641 0.9807258
1.0037714 0.9904421 1.003212 0.9858058 1.0045179 1.0033426 0.9974706 0.9894789
1.0012517 0.9983552 0.99454945 1.0028723 1.0036185 1.0011066 0.99986887 1.0066894
0.999246 0.99177253 0.99583495 0.9844351 1.0015339 0.9975745 1.0034034 0.9981855
1.0015055 0.9891353 0.99843615 0.99439573 1.0024168 1.0005329 0.98367715 0.9892936
0.9982228 1.0052131 0.99917597 0.99581265 0.9951361 1.0017993 0.9959004 1.0035495
1.0038092 1.000118 1.002841 1.0002401 0.9944878 0.99318814 1.0056812 0.99429584
1.003971 0.9973194 1.0021173 1.0043246 0.976599 1.0132709 1.0147902 1.0288572
1.0007071 0.96490926 0.9691572 0.99795324 0.9880065 0.99867797 0.9977926 0.9915233
1.002215 0.9878861 0.99833256 0.98112714 0.99315876 1.0002325 1.0028156 1.0006067
1.0038366 1.0011582 1.0007597 1.0011245 1.0019252 1.0012723 1.0058712 0.99566364
0.99563175 0.99113345 0.9952266 0.9762834 0.9987127 0.99613863 1.0031297 0.9964848
0.9941987 0.98634684 0.9955015 1.0009305 0.99957395 0.9983508 0.9849473 1.0002763
0.9970473 1.0023816 1.0000719 1.0119712 1.0007287 1.0094006 1.005281 1.0009675
1.0014952 1.0046257 1.0050365 0.99589896 0.9922858 1.0100167 1.002214 0.9964954
1.0041814 1.0080326 0.96630126 0.9904047 1.015567 0.9873792 1.03862 0.99691534
0.99524695 0.9972748 0.9792494 0.9838883 1.0280458 0.9781467 1.0076274 0.99119306
1.0015821 0.98716366 1.0055263 0.99848413 1.0142509 1.0048574 1.0038859 0.9859682
1.0029275 1.0035439 1.0004233 1.015192 1.0000932 1.0063168 1.0030091 1.0007137
0.9939932 1.0016344 0.9821691 0.98759276 1.0052884 1.003782 0.99915445 0.9922878
00000000: 53e0 7e3f b71b 813f 7a23 803f ff55 803f
00000010: 7740 7f3f 3f90 7f3f 32bc 813f 76b0 803f
00000020: 98e6 7f3f e81f 7e3f 4c62 7f3f 506c 7f3f
00000030: 8b53 803f 82fd 7e3f fb2c 803f d3ba 7e3f
00000040: e178 7e3f 0251 7f3f 0779 7e3f 241a 803f
00000050: e71f 803f 1eba 803f e294 7e3f 372c 803f
00000060: fa5d 7e3f 83f5 7f3f f646 7f3f cab4 803f
00000070: 64b7 833f 5da4 803f aff9 763f 8c1e 783f
00000080: 3505 823f 580d 823f 1234 7a3f 7496 803f
00000090: 8b5c 803f d137 803f 504c 803f ba98 803f
000000a0: ff14 7f3f b1df 803f 5ace 7f3f 5eeb 813f
000000b0: 9866 803f 3d84 7f3f 2388 7e3f 3d80 7f3f
000000c0: e47c 7e3f caa2 7f3f d13b 7f3f 12b6 7e3f
000000d0: 4bc0 7e3f 61f6 7f3f ac8a 7e3f 991f 803f
000000e0: 7acf 7f3f f7e0 803f f847 803f 8e74 823f
000000f0: 12a0 7f3f 10cb 7f3f 31e3 7e3f 5ff7 7f3f
00000100: 6bbb 7f3f b2a7 7e3f 8fa3 7e3f 2ca2 7f3f
00000110: 9cb9 7f3f 300d 803f 0b11 7b3f 7260 7c3f
00000120: 267b 803f eb61 803f a2bd 813f ce7e 803f
00000130: 5968 803f 9153 7f3f 2a97 7c3f a169 7f3f
00000140: a106 813f 75f1 803f 56f3 803f fd51 7f3f
00000150: 516b 7e3f d47f 7e3f 3e6b 803f 3889 7c3f
00000160: ab43 813f da6b 803f c276 813f 2a0b 843f
00000170: c21a 7c3f 96bf 833f b958 893f e03a 823f
00000180: 5bb2 7c3f 5bde 7a3f d306 833f 2f6a 803f
00000190: 90f9 803f 745d 7f3f 43cd 803f d910 7b3f
000001a0: 957b 803f 9d8d 7d3f 4069 803f c55d 7c3f
000001b0: 0b94 803f 886d 803f 3c5a 7f3f 7d4e 7d3f
000001c0: 0429 803f 3594 7f3f cb9a 7e3f 1f5e 803f
000001d0: 9276 803f 4324 803f 68f7 7f3f 33db 803f
000001e0: 96ce 7f3f cee4 7d3f 0aef 7e3f f003 7c3f
000001f0: 4332 803f 0b61 7f3f 866f 803f 1689 7f3f
00000200: 5531 803f f937 7d3f 8399 7f3f b890 7e3f
00000210: 324f 803f 7611 803f 44d2 7b3f 5842 7d3f
00000220: 888b 7f3f d3aa 803f ffc9 7f3f 94ed 7e3f
00000230: 3dc1 7e3f f63a 803f 54f3 7e3f 4f74 803f
00000240: d27c 803f de03 803f 185d 803f de07 803f
00000250: c196 7e3f 9441 7e3f 29ba 803f 2c8a 7e3f
00000260: 1f82 803f 5350 7f3f 6145 803f b58d 803f
00000270: 6402 7a3f dcb2 813f a5e4 813f 98b1 833f
00000280: 2c17 803f 4b04 773f b01a 783f dd79 7f3f
00000290: feed 7c3f 5ca9 7f3f 566f 7f3f 79d4 7d3f
000002a0: 9548 803f 1ae6 7c3f b992 7f3f 262b 7b3f
000002b0: a73f 7e3f 9e07 803f 435c 803f e113 803f
000002c0: b87d 803f f425 803f e518 803f d924 803f
000002d0: 163f 803f b129 803f 63c0 803f d0e3 7e3f
000002e0: b9e1 7e3f ecba 7d3f 2cc7 7e3f b5ed 793f
000002f0: a3ab 7f3f f102 7f3f 8e66 803f a119 7f3f
00000300: ce83 7e3f 3a81 7c3f 30d9 7e3f 7e1e 803f
00000310: 14e4 7f3f eb93 7f3f 8225 7c3f 0e09 803f
00000320: 7e3e 7f3f 0a4e 803f 5b02 803f 4688 813f
00000330: e117 803f 0a34 813f 0cad 803f b41f 803f
00000340: ff30 803f 9397 803f 09a5 803f 3cf3 7e3f
00000350: 7106 7e3f 3a48 813f 8c48 803f 531a 7f3f
00000360: 0489 803f 3607 813f 855f 773f 2a8b 7d3f
00000370: 19fe 813f e2c4 7c3f 80f1 843f d835 7f3f
00000380: 81c8 7e3f 674d 7f3f 17b0 7a3f 1be0 7b3f
00000390: 0197 833f d267 7a3f eff9 803f d4be 7d3f
000003a0: d833 803f c2b6 7c3f 16b5 803f a89c 7f3f
000003b0: f9d2 813f 2b9f 803f 557f 803f 6968 7c3f
000003c0: ee5f 803f 2074 803f df0d 803f d0f1 813f
000003d0: 0e03 803f fdce 803f 9a62 803f 6317 803f
000003e0: 5776 7e3f 8e35 803f 6f6f 7b3f e1d2 7c3f
000003f0: 4aad 803f ee7b 803f 96c8 7f3f 9306 7e3f

norm1.bias f4 [320, 64]
0.004418461 -0.006564321 0.0009475771 -0.001710938 0.0030937598 0.0026860018 -0.01285421 -0.0068797613
0.0015562542 0.0061443863 0.0033638794 0.0003997005 -0.0032276744 0.0017573627 -0.004080356 0.0016074548
0.0041116257 0.0020159103 0.005697828 -0.0002852535 0.00036926186 -0.0054630805 0.0060544224 -0.0038988811
0.0057815216 0.000750352 0.0028824655 0.006878779 -0.006733602 -0.003194928 0.013038922 0.03116236
0.0014162897 -0.01656489 -0.02357487 -0.0045584943 -0.007864595 -6.863511e-05 -0.00073730765 -0.0053915353
0.0032349988 -0.0086283395 0.0025099614 -0.015435432 -0.0031351317 0.0025034104 0.0061562643 0.00050753984
0.004406016 0.0018926642 0.004707895 0.0047758697 0.0032962572 0.0026986732 0.004316213 -0.0021782124
0.0022304705 -0.00650071 -0.001964804 -0.020264475 0.0014509001 0.0011373598 0.0030585208 4.2944874e-05
0.0014105901 0.0042886003 0.004242475 0.00091940997 0.0007964472 -0.001177007 0.018857751 0.014610981
-0.004769153 -0.0021728266 -0.013942045 -0.0034475035 -0.0026986299 0.0034845448 0.014688015 0.0040110196
-0.006728306 -0.006797639 -0.00649648 0.0022145538 0.0047207787 0.0054642493 -0.0036146904 0.014431643
-0.008952251 -0.003604187 -0.006205808 -0.024227878 -0.0038332902 -0.0014880352 0.0038139666 0.020958005
-0.007224564 -0.023151085 0.028109947 0.007158169 -0.0005600111 0.004276758 -0.0070394278 0.019061403
-0.0035932679 0.009881482 -0.0042336793 0.014379242 -0.0049584704 -0.0032947557 0.0019034729 0.010924394
-6.0423085e-05 0.00095125224 0.0045642015 -0.002479419 -0.0020363112 -0.002203739 0.0013094221 -0.005327372
-4.6241552e-05 0.008249906 0.0043721967 0.01641132 -0.0014197405 0.0024130708 -0.002824121 0.0011165201
-0.0010491215 0.009685986 0.0011404719 0.004726422 -0.0023086832 -0.00092805433 0.016361037 0.010950944
0.001134592 -0.004691172 0.00079875835 0.0046159993 0.004968707 -0.0012133832 0.0050714286 -0.0018494065
-0.0029686503 9.955009e-05 -0.002312318 -0.00023940796 0.004263488 0.006689139 -0.0055816374 0.0065857293
-0.0034652813 0.002164376 -0.0013917702 -0.0075399145 0.016600844 -0.00951431 -0.011732561 -0.02940371
-0.0011424271 0.03584443 0.03126195 -0.0067052147 0.0121460995 0.0005385839 0.0020444547 0.008011705
-0.0023340331 0.012120861 0.0004990046 0.018636802 0.0065438813 -0.0005294669 -0.0031094595 -0.0005673344
-0.0031872857 -0.0013655886 -0.0017412935 -0.0010365992 -0.0008940879 -0.0018376842 -0.00445289 0.00525006
0.0034682422 0.008441025 0.004589115 0.02417713 0.0009060605 0.0036416322 -0.0025009587 0.0031485716
0.0058370945 0.012550963 0.004191763 -0.0012000875 0.00043635216 0.0014890565 0.0150646 -0.00053958304
0.0026306566 -0.0020222121 0.0004060687 -0.011311161 -0.00073898904 -0.00981923 -0.004955926 0.00030918824
-0.00048148984 -0.003815548 -0.0042371824 0.0041920715 0.0067997277 -0.01065562 -0.0022644426 0.004268652
-0.0035432533 -0.008352247 0.033103675 0.003252185 -0.003306208 0.025047185 0.020887354 0.0029062543
-0.009671927 0.0026120588 -0.023514433 -0.006942547 -0.010355049 0.021350548 -0.007226187 0.008531647
-0.0013936699 0.013422913 -0.0058884467 0.001388864 -0.014185359 -0.0047180974 -0.003838564 0.01350321
-0.0025074445 -0.003973554 -0.0013413555 -0.014889712 0.0005412174 -0.0070226314 -0.0019634932 -0.00016608427
0.0053802393 -0.0018034087 0.017382456 0.013084346 -0.005773518 -0.0036318202 0.0012923904 0.00796613
00000000: bdc8 903b 8419 d7bb d366 783a 8e41 e0ba
00000010: adc0 4a3b a207 303b 779a 52bc 9f6f e1bb
00000020: 3afb cb3a d956 c93b 8874 5c3b e58e d139
00000030: 6487 53bb 4f57 e63a 82b4 85bb 3cb1 d23a
00000040: d1ba 863b 5d1d 043b d8b4 ba3b 148e 95b9
00000050: 7d99 c139 a403 b3bb 2d64 c63b 5f84 7fbb
00000060: eb72 bd3b 45b3 443a bfe7 3c3b 6167 e13b
00000070: 8ca5 dcbb ff61 51bb 34a1 553c 3548 ff3c
00000080: cca2 b93a 18b3 87bc 1620 c1bc 6c5f 95bb
00000090: 81da 00bc 32f0 8fb8 e147 41ba 7aab b0bb
000000a0: 4602 543b e15d 0dbc 2a7e 243b e5e4 7cbc
000000b0: c876 4dbb 4210 243b 7dba c93b 6c0c 053a
000000c0: 5760 903b 4613 f83a b044 9a3b e67e 9c3b
000000d0: 0506 583b 39dc 303b 056f 8d3b 57c0 0ebb
000000e0: 162d 123b e803 d5bb f1c3 00bb af01 a6bc
000000f0: 212c be3a 7613 953a 7771 483b b51f 3438
00000100: 8de3 b83a 6387 8c3b 7604 8b3b 8f04 713a
00000110: abc8 503a cd45 9aba 927b 9a3c e562 6f3c
00000120: 8e46 9cbb fb65 0ebb 2d6d 64bc 83ef 61bb
00000130: 7fdb 30bb f65c 643b 00a6 703c df6e 833b
00000140: 1f79 dcbb bbbe debb 6de0 d4bb 0c22 113b
00000150: c3b0 9a3b 720d b33b 71e4 6cbb b372 6c3c
00000160: 76ac 12bc 3934 6cbb 175a cbbb 8b79 c6bc
00000170: f037 7bbb 2d0a c3ba bef3 793b 1fb0 ab3c
00000180: 09bc ecbb 58a7 bdbc d546 e63c 138f ea3b
00000190: b5cd 12ba 0c24 8c3b 00ab e6bb a926 9c3c
000001a0: 087d 6bbb f1e5 213c adba 8abb ea96 6b3c
000001b0: aa7a a2bb d4ec 57bb f47d f93a 3bfc 323c
000001c0: cb6e 7db8 755d 793a 4c8f 953b c07d 22bb
000001d0: a273 05bb 9b6c 10bb eaa0 ab3a 3c91 aebb
000001e0: 7df3 41b8 9d2a 073c a544 8f3b 0871 863c
000001f0: 9616 baba 9c24 1e3b e314 39bb 3358 923a
00000200: ad82 89ba f8b1 1e3c e37b 953a 1ae0 9a3b
00000210: 474d 17bb ac48 73ba 9507 863c 976b 333c
00000220: 97b6 943a 67b8 99bb c463 513a cf41 973b
00000230: 89d0 a23b 620a 9fba 3a2e a63b c967 f2ba
00000240: b08d 42bb 8cc5 d038 428a 17bb 9609 7bb9
00000250: bbb4 8b3b 9130 db3b 2be6 b6bb 1acd d73b
00000260: c619 63bb 34d8 0d3b 0f6c b6ba 6311 f7bb
00000270: 7efe 873c e9e1 1bbc ed39 40bc 0de0 f0bc
00000280: 7ebd 95ba 9cd1 123d 880c 003d 6bb7 dbbb
00000290: 6f00 473c c12f 0d3a 42fc 053b 8743 033c
000002a0: 94f6 18bb 9396 463c a2cf 023a 35ac 983c
000002b0: 0e6e d63b eccb 0aba 13c8 4bbb 2bb9 14ba
000002c0: c8e1 50bb 8dfd b2ba 1d3c e4ba 7fde 87ba
000002d0: 3961 6aba 73de f0ba 8ce9 91bb b208 ac3b
000002e0: 734b 633b 3a4c 0a3c 4960 963b 1e0f c63c
000002f0: b184 6d3a 73a8 6e3b 20e7 23bb 4458 4e3b
00000300: 1945 bf3b 8ea2 4d3c 0e5b 893b 414c 9dba
00000310: 32c6 e439 722c c33a 83d1 763c ce72 0dba
00000320: 1867 2c3b 1787 04bb 9ee5 d439 7352 39bc
00000330: b7b8 41ba d6e0 20bc 5265 a2bb 8b1a a239
00000340: 7970 fcb9 460e 7abb 10d8 8abb a55d 893b
00000350: 40d0 de3b e994 2ebc 0b67 14bb 0ce0 8b3b
00000360: ed35 68bb ddd7 08bc b897 073d 9c22 553b
00000370: f7ac 58bb c12f cd3c f51b ab3c db76 3e3b
00000380: 0177 1ebc 132f 2b3b 57a1 c0bc 4e7e e3bb
00000390: 39a8 29bc 58e7 ae3c a6c9 ecbb 52c8 0b3c
000003a0: cdab b6ba c7eb 5b3c dff3 c0bb 8b0a b63a
000003b0: b569 68bc 459a 9abb 6b90 7bbb 913c 5d3c
000003c0: f053 24bb 9634 82bb 6cd0 afba fbf3 73bc
000003d0: 7ce0 0d3a 1a1e e6bb f3ad 00bb e826 2eb9
000003e0: b84c b03b 5b60 ecba a765 8e3c ba5f 563c
000003f0: c72f bdbb d503 6ebb 6d65 a93a 5f84 023c

norm2.weight f4 [16, 64]
0.99081445 1.0126805 1.0001441 0.98490757 1.0004317 0.99076164 1.02002 0.99355507
0.99945015 0.98555994 0.98408145 0.9834283 0.9841627 0.981085 0.99093527 0.9722744
0.9861271 0.99342877 0.9839236 1.002804 0.9903536 0.9889051 0.99998826 0.98588866
0.9821652 0.9823913 1.015741 1.0238236 1.003551 1.054771 1.0879033 0.98352396
0.99894154 1.0047499 0.9919915 0.98908466 0.9878002 1.0218834 0.9905362 0.9867203
0.9960915 1.0013171 0.9969592 1.0077822 0.9832 0.9838653 0.98217374 0.99850464
0.98004943 0.9901806 0.9973529 0.9750917 0.98280877 0.9987484 0.9940206 1.0010961
1.001058 1.0089182 0.9986384 1.0047452 0.991952 0.98289436 0.99505126 1.0021693
1.005398 0.9877872 1.0027823 0.99147767 1.0033133 0.9999708 0.98805803 0.99765867
0.9985835 1.0081389 0.9969221 0.990626 0.99332535 1.0006301 1.0010217 1.0075098
1.0109929 0.9937765 0.9952027 1.0033706 0.99005675 0.99936616 1.0060655 0.99496084
1.0035485 0.9935252 1.0155319 1.0275856 0.9408126 1.0940955 1.064679 0.9727993
0.9662471 0.986866 1.0178572 1.0037767 1.0015638 1.0489079 0.9960919 1.0008155
1.0045463 1.0012355 0.99449086 0.97274786 0.9903677 0.9985467 1.0026102 1.0079024
1.0071088 1.0029438 1.003046 0.99632275 1.0020826 1.0045266 1.0087527 0.9904558
0.9952127 0.99346966 0.993154 0.9787013 0.9978366 0.9852293 1.0060694 1.0011278
1.0018903 1.0084679 0.98818564 0.9937356 0.9948051 0.99693745 1.0022324 0.9794676
1.0051745 0.996822 1.0127562 0.9963615 0.9943867 0.99396235 0.9867433 0.993327
1.0040609 1.0083547 1.0057518 0.9973345 0.9935371 0.9870973 1.0002942 0.9869006
1.0046569 1.0015799 1.067931 1.0602312 1.0051888 1.0431038 1.0940486 0.9617861
0.99268353 0.9961936 1.000355 0.98738027 1.0090033 1.0072634 0.99948645 0.9772837
1.0017359 0.98530287 1.0055299 1.0010737 0.9962687 1.0009222 0.9921538 0.99508154
1.0011419 0.9950831 0.99013567 0.99310905 1.0008211 0.9967333 0.997385 1.0045549
1.0068293 0.9883452 1.0097992 0.99988675 1.0034496 0.99254864 1.0051436 0.9942251
1.0005103 1.000245 0.9953978 0.9921721 1.0005096 0.99609506 1.0111912 1.0068264
0.9938122 0.9916936 0.9891359 0.9958939 0.9986202 1.0059112 1.0090599 1.0036603
0.9865349 0.9943009 0.9857964 1.0010195 0.9944542 1.0025095 0.99658626 1.0051864
0.983363 0.9908562 0.99518806 1.0041219 1.0783995 1.0221932 1.0233978 1.021224
0.96676624 0.9941485 1.007942 1.0229518 0.9963009 0.99127114 0.9953681 1.0143164
0.9949187 1.0111068 0.9923707 1.0133922 1.0028979 0.9904709 0.994347 1.008002
0.99172395 1.0003364 0.99221736 0.99302894 0.9918184 0.9892505 0.99771756 0.9949473
0.99370027 1.0037175 0.9993452 1.0143839 0.9963436 0.9851856 1.0016923 0.99675345
00000000: 04a6 7d3f 849f 813f b904 803f e722 7c3f
00000010: 250e 803f 8ea2 7d3f 0490 823f a059 7e3f
00000020: f7db 7f3f a84d 7c3f c3ec 7b3f f5c1 7b3f
00000030: 16f2 7b3f 6328 7b3f efad 7d3f fae6 783f
00000040: d372 7c3f 5951 7e3f 6be2 7b3f e25b 803f
00000050: d087 7d3f e228 7d3f 3bff 7f3f 3363 7c3f
00000060: 2e6f 7b3f ff7d 7b3f cd03 823f a70c 833f
00000070: 5c74 803f bc02 873f 6a40 8b3f 3ac8 7b3f
00000080: a2ba 7f3f a59b 803f 28f3 7d3f a734 7d3f
00000090: 79e0 7c3f 13cd 823f c893 7d3f b499 7c3f
000000a0: daff 7e3f 292b 803f b838 7f3f 02ff 803f
000000b0: ffb2 7b3f 99de 7b3f bd6f 7b3f 009e 7f3f
000000c0: 85e4 7a3f 7a7c 7d3f 8552 7f3f 9c9f 793f
000000d0: 5b99 7b3f faad 7f3f 2278 7e3f eb23 803f
000000e0: ab22 803f 3b24 813f c4a6 7f3f 7e9b 803f
000000f0: 91f0 7d3f f79e 7b3f aebb 7e3f 1547 803f
00000100: e2b0 803f 9fdf 7c3f 2c5b 803f 7bd1 7d3f
00000110: 926c 803f 16fe 7f3f 5ff1 7c3f 8f66 7f3f
00000120: 2ba3 7f3f b20a 813f 4936 7f3f aa99 7d3f
00000130: 924a 7e3f a614 803f 7b21 803f 15f6 803f
00000140: 3768 813f 2368 7e3f 9bc5 7e3f 736e 803f
00000150: 5c74 7d3f 76d6 7f3f c1c6 803f c1b5 7e3f
00000160: 4774 803f ab57 7e3f f3fc 813f ed87 833f
00000170: 18d9 703f 520b 8c3f 6747 883f 6009 793f
00000180: f85b 773f 40a3 7c3f 2549 823f c17b 803f
00000190: 3e33 803f 9d42 863f e1ff 7e3f b91a 803f
000001a0: f994 803f 7c28 803f f496 7e3f 0106 793f
000001b0: bd88 7d3f c2a0 7f3f 8855 803f f202 813f
000001c0: f1e8 803f 7660 803f d063 803f 020f 7f3f
000001d0: 3e44 803f 5494 803f cf1e 813f 838e 7d3f
000001e0: 42c6 7e3f 0754 7e3f 573f 7e3f 2b8c 7a3f
000001f0: 3872 7f3f fd37 7c3f e2c6 803f f524 803f
00000200: f13d 803f 7a15 813f bcf9 7c3f 7565 7e3f
00000210: 8cab 7e3f 4b37 7f3f 2749 803f 63be 7a3f
00000220: 8fa9 803f ba2f 7f3f ffa1 813f 8c11 7f3f
00000230: 2090 7e3f 5174 7e3f 359b 7c3f ae4a 7e3f
00000240: 1185 803f c411 813f 7abc 803f 5051 7f3f
00000250: 7358 7e3f 69b2 7c3f a409 803f 85a5 7c3f
00000260: 9998 803f c533 803f f7b1 883f a8b5 873f
00000270: 07aa 803f 6d84 853f c909 8c3f 9d37 763f
00000280: 8220 7e3f 8b06 7f3f a20b 803f f4c4 7c3f
00000290: 0527 813f 02ee 803f 58de 7f3f 442f 7a3f
000002a0: e238 803f cf3c 7c3f 34b5 803f 2f23 803f
000002b0: 770b 7f3f 381e 803f cbfd 7d3f aabd 7e3f
000002c0: 6b25 803f c4bd 7e3f 8879 7d3f 653c 7e3f
000002d0: e81a 803f ea29 7f3f a054 7f3f 4195 803f
000002e0: c8df 803f 3104 7d3f 1a41 813f 94f8 7f3f
000002f0: 0971 803f ab17 7e3f 8ca8 803f 8985 7e3f
00000300: b910 803f 0708 803f 64d2 7e3f fefe 7d3f
00000310: b310 803f 1600 7f3f b76e 813f b0df 803f
00000320: 7a6a 7e3f a2df 7d3f 0338 7d3f e7f2 7e3f
00000330: 93a5 7f3f b3c1 803f e028 813f f177 803f
00000340: 8d8d 7c3f 818a 7e3f 275d 7c3f 6821 803f
00000350: 8d94 7e3f 3b52 803f 4720 7f3f f3a9 803f
00000360: adbd 7b3f c0a8 7d3f a5c4 7e3f 1187 803f
00000370: ff08 8a3f 3ad7 823f b3fe 823f 78b7 823f
00000380: fe7d 773f 8480 7e3f 3e04 813f 16f0 823f
00000390: 930d 7f3f f2c3 7d3f 72d0 7e3f 1fd5 813f
000003a0: feb2 7e3f f36b 813f 020c 7e3f d6b6 813f
000003b0: f55e 803f 808f 7d3f 868d 7e3f 3606 813f
000003c0: 9fe1 7d3f 060b 803f f501 7e3f 2537 7e3f
000003d0: d0e7 7d3f 853f 7d3f 6b6a 7f3f deb4 7e3f
000003e0: 2463 7e3f d179 803f 16d5 7f3f 55d7 813f
000003f0: 6010 7f3f 2035 7c3f 7437 803f 3c2b 7f3f
